checkpoints/best_gap.pth (torch, 412119 bytes, 54 tensors)

conv1.weight f4 [16, 3, 3, 3]
0	0x3e0d6fca	0.13812175
1	0x3ddf002b	0.10888704
2	0xbdebcc15	-0.11513535
3	0x3d25f5a3	0.04051746
4	0x3e34e5a1	0.17665721
5	0x3d84bec6	0.064817
6	0xbc9cf3c5	-0.019159207
7	0x3e1d3506	0.15352258
8	0xbe0d14e4	-0.137775
9	0x3de2876c	0.11060986
10	0x3c622107	0.01380182
11	0x3d3d98cc	0.046288297
12	0x3e2f6e16	0.17131838
13	0x3d646379	0.055758927
14	0xbda2aa44	-0.07942632
15	0x3d5cb28f	0.053881224
16	0x3d6a7f71	0.057250444
17	0xbca44b72	-0.020055506
18	0xbbf8db3a	-0.007594493
19	0xbe0ec372	-0.13941744
20	0xbe2b89b3	-0.16751747
21	0xbe032126	-0.12805614
22	0xbe31e9ba	-0.17374316
23	0xbdfe3da0	-0.12414098
24	0x3e0bea93	0.13663702
25	0xbe1fe7cd	-0.15615769
26	0xbdfb5bec	-0.12273392
27	0xbdd694c2	-0.10477592
28	0xbd62261f	-0.055212136
29	0x3e250de9	0.16118588
30	0x3e1b2262	0.15149835
31	0xbd2ebd00	-0.042660713
32	0x3da95703	0.08268549
33	0xbe246329	-0.16053452
34	0xbaf59e50	-0.0018739197
35	0x3db6cee5	0.08926181
36	0xbdfd3fe0	-0.12365699
37	0xbd5013af	-0.05080002
38	0xbd99f2f5	-0.075170435
39	0x3e4102cd	0.18848725
40	0x3b0e611f	0.002172537
41	0xbe00cbd2	-0.12577751
42	0x3e5ad5ae	0.21370575
43	0x3d6728aa	0.056435265
44	0xbe25a2e3	-0.16175418
45	0xbc69b53a	-0.014264399
46	0xbe36bd13	-0.17845564
47	0x3e280823	0.16409354
48	0x3e547205	0.2074662
49	0xbd9ea513	-0.07746329
50	0xbdd87e0e	-0.10570918
51	0xbcaf6f07	-0.021415247
52	0xbda069ba	-0.07832666
53	0x3d3f8300	0.04675579
54	0xbe2c3041	-0.16815282
55	0x3d877ba8	0.066153824
56	0xbe2090c7	-0.15680228
57	0xbb5f639e	-0.0034086476
58	0x3e23cb16	0.1599544
59	0x3df6c003	0.12048342
60	0xbc86ceb4	-0.016455986
61	0xbd248b6f	-0.040172037
62	0x3e28fb1a	0.16502038
63	0x3d2a1691	0.041525427
64	0xbe38de95	-0.18053658
65	0x3db128f0	0.08650386
66	0xbd3b2a8f	-0.045694884
67	0x3e47e6f6	0.19521698
68	0xbe145524	-0.14485604
69	0x3db74762	0.08949162
70	0x3de69bfa	0.11260219
71	0x3e09b40b	0.13447587
72	0xbb781a73	-0.0037857562
73	0xbe65ef0b	-0.22454469
74	0xbe0921c3	-0.13391785
75	0xbe3ac646	-0.18239698
76	0xbdbc1834	-0.09184304
77	0xbe0f1f0c	-0.13976687
78	0xbc968a1e	-0.018376406
79	0xbdf99d3c	-0.12188193
80	0x3ddfc722	0.109266534
81	0xbe202623	-0.15639548
82	0x3e336bfe	0.17521665
83	0x3d609f80	0.05483961
84	0x3d37ab35	0.04484101
85	0x3dd14d28	0.102197945
86	0x3e3698b4	0.17831689
87	0x3dfc2db2	0.12313403
88	0xbe37bd41	-0.17943288
89	0xbd46b8e8	-0.048516184
90	0xbe2720b3	-0.16321068
91	0xbde94b9c	-0.113913745
92	0x3e2a6495	0.16639931
93	0xbe185028	-0.14874327
94	0x3cbba8c5	0.022907624
95	0xbe04b263	-0.12958674
96	0x3dc169b8	0.094439924
97	0x3da533e9	0.08066542
98	0xbe0df79e	-0.1386399
99	0xbe10b3f5	-0.14131148
100	0x3e1bf5bb	0.15230457
101	0x3d39d897	0.04537257
102	0xbd803622	-0.06260325
103	0x3ddcf3c1	0.1078868
104	0x3d2f5fbb	0.042815905
105	0x3d8a867f	0.06763934
106	0xbe0ab885	-0.13546951
107	0xbd93683a	-0.07197614
108	0x3e09213f	0.13391589
109	0xbe480831	-0.19534375
110	0xbe21139b	-0.15730135
111	0xbc0bb48b	-0.0085269315
112	0xbdb11fa1	-0.08648611
113	0x3d9106b6	0.07081358
114	0xbc97344d	-0.018457556
115	0x3de97df0	0.11400974
116	0xbdf781ea	-0.12085326
117	0x3e36836f	0.17823575
118	0x3c0ad46d	0.008473498
119	0x3ced5a1f	0.028973637
120	0xbe2c5e29	-0.16832794
121	0xbe0132d6	-0.12617049
122	0x3ccddd7d	0.025130028
123	0x3e1eecaa	0.15519968
124	0xbcbbe005	-0.02293397
125	0x3e37589b	0.17904894
126	0x3e185d63	0.14879374
127	0xbe05bf5f	-0.13061284
128	0xbdecfaa0	-0.115712404
129	0x3d171cc8	0.036892682
130	0x3dae89df	0.085223906
131	0x3d98e714	0.0746595
132	0x3e00e5ea	0.12587705
133	0xbdc704f2	-0.0971774
134	0xbbd1ff08	-0.006408576
135	0xbe917c83	-0.28415307
136	0x3dbe1aaa	0.092824295
137	0x3de8afc6	0.11361651
138	0x3d810772	0.06300248
139	0x3e2d0e8e	0.16900083
140	0xbe2726ce	-0.16323397
141	0x3d871ad7	0.06596916
142	0x3db58cc0	0.088647366
143	0xbcd49a10	-0.025952369
144	0xbd46df86	-0.048553012
145	0x3e01f707	0.1269189
146	0xbe6608d1	-0.224643
147	0x3d70bd98	0.05877456
148	0x3e3d7801	0.18502809
149	0x3de27a6f	0.110585086
150	0xbb615164	-0.0034380788
151	0xbcd302db	-0.025758198
152	0xbe333819	-0.17501868
153	0xbd7954ab	-0.06087176
154	0x3deb8496	0.11499898
155	0x3e28ba56	0.16477332
156	0x3d523739	0.051322196
157	0x3e10179c	0.14071506
158	0x3e1c25d8	0.15248811
159	0xb9fb5c4a	-0.0004794321
160	0xbcff4576	-0.031161051
161	0xbe16b9b0	-0.14719272
162	0xbda4b0e8	-0.08041555
163	0x3dbbc505	0.09168438
164	0x3e4efea5	0.20214327
165	0xbe066e40	-0.13127995
166	0x3cd45033	0.025917148
167	0xbe2648b8	-0.16238678
168	0xbe1718f3	-0.14755611
169	0x3df81913	0.121141575
170	0xbc78622b	-0.015160124
171	0xbe0d48ae	-0.13797256
172	0x3d97c2ef	0.074102275
173	0xbdd28150	-0.10278571
174	0xbda0aec4	-0.07845834
175	0x3c07f052	0.008297043
176	0x3dfcf95e	0.123522505
177	0xbd9345d9	-0.07191057
178	0xbd018e99	-0.031630132
179	0xbdb17604	-0.08665088
180	0x3db482f7	0.08814042
181	0xbddd1fc4	-0.107970744
182	0xbd83f532	-0.06443252
183	0xbddd7749	-0.108137675
184	0x3e716003	0.23571782
185	0x3e2e1d84	0.17003447
186	0xbdda7ba0	-0.10668111
187	0x3e1e8eca	0.15484157
188	0x3e483b2f	0.19553827
189	0xbceb8536	-0.028750043
190	0x3e17ec5d	0.14836259
191	0x3e05ecf5	0.13078673
192	0x3d3b23e2	0.045688517
193	0xbd8eea3c	-0.069782704
194	0xbe3106f0	-0.17287803
195	0xbe122659	-0.14272441
196	0xbd16d051	-0.03681976
197	0x3e4e7819	0.20163001
198	0x3e0e7c25	0.13914545
199	0x3e0bde54	0.1365903
200	0xbe09e2cb	-0.13465421
201	0x3da83c5a	0.08214636
202	0xbe5369b9	-0.20645799
203	0xbe1166c1	-0.14199354
204	0x3df8dce1	0.12151504
205	0xbd9f0cad	-0.077660896
206	0xbcf0dfe8	-0.029403642
207	0xbe20a05e	-0.15686175
208	0x3e48d8df	0.1961398
209	0x3deb86bc	0.11500308
210	0xbda0a57e	-0.07844065
211	0xbe479576	-0.19490609
212	0x3e3c10e4	0.18365818
213	0xbc1ea406	-0.009682661
214	0xbe2c38be	-0.1681852
215	0x3e17a910	0.14810586
216	0x3e3a9139	0.1821946
217	0x3e1d07b2	0.15334967
218	0x3df4c2aa	0.11951192
219	0x3cb32b31	0.021871181
220	0x3cddfe95	0.027098933
221	0x3da970b4	0.082734495
222	0x3b7e5f01	0.003881395
223	0xbd4a6747	-0.0494149
224	0xbe181970	-0.14853454
225	0x3c089b2c	0.008337777
226	0x3cdaa260	0.026688755
227	0x3a9c9d7e	0.0011948792
228	0xbe10ab8e	-0.14127943
229	0x3d18ab22	0.03727258
230	0x3dd099a7	0.10185557
231	0xbe247cfd	-0.16063304
232	0xbd7890c6	-0.06068494
233	0xbe2b79ba	-0.16745654
234	0xbd10594c	-0.03524141
235	0x3d0905a6	0.033452652
236	0xbdaefcdf	-0.08544325
237	0xbd466590	-0.0484367
238	0x3c498b49	0.012301275
239	0xbdea798c	-0.114489645
240	0xbcb9eb79	-0.02269529
241	0xbddd042b	-0.107918106
242	0x3e2d6df2	0.16936472
243	0xbd83a0dd	-0.064271666
244	0x3c31ec49	0.010859557
245	0x3dcc188b	0.09965619
246	0x3d080a4f	0.033212956
247	0xbde66fcb	-0.112517916
248	0xbdae7b15	-0.0851957
249	0x3dca1160	0.09866595
250	0x3e3d0186	0.18457612
251	0x3d9f204b	0.07769831
252	0xbe567dd0	-0.20946431
253	0xbe02bce4	-0.12767369
254	0xbd2e4d46	-0.042554162
255	0x3ddc9b24	0.10771778

conv1.bias f4 [16]
0	0x3e280d11	0.16411234
1	0x3e313902	0.17306903
2	0x3e1574be	0.14595315
3	0x3c81fd3f	0.015867827
4	0xbd7d9e55	-0.061918575
5	0x3d7a0a36	0.061044894
6	0x3d88c764	0.06678656
7	0xbd93c796	-0.07215802
8	0xbdc18837	-0.09449809
9	0x3d185363	0.0371889
10	0xbc374ba1	-0.011187465
11	0x3e325e68	0.17418826
12	0xbc9950ec	-0.018715344
13	0x3e45f687	0.19332324
14	0x3d5812d0	0.052752316
15	0xbd2255d9	-0.039632652

bn1.weight f4 [16]
0	0x3f7039cb	0.93838185
1	0x3f8081b6	1.0039585
2	0x3f7e1ebc	0.99265647
3	0x3f86126b	1.0474371
4	0x3f8b497c	1.0881801
5	0x3f5c69ad	0.8609875
6	0x3f85a72d	1.0441643
7	0x3f7b3124	0.9812186
8	0x3f826f39	1.0190192
9	0x3f870e81	1.0551301
10	0x3f83c67f	1.0294951
11	0x3f633ec5	0.88767654
12	0x3f648600	0.8926697
13	0x3f829c2a	1.0203907
14	0x3f84f352	1.0386755
15	0x3f889d7e	1.0673063

bn1.bias f4 [16]
0	0xbd9a30a3	-0.07528808
1	0x3d743d2a	0.059628643
2	0x3d6ee828	0.05832687
3	0x3ddbe197	0.10736387
4	0x3bec16a8	0.0072048493
5	0x3b7a694f	0.0038209741
6	0xbc87b2d9	-0.016564773
7	0xbcffd8df	-0.031231342
8	0x3d8aebd8	0.06783265
9	0x3c25a2be	0.010109602
10	0x3d7096cd	0.058737565
11	0xbdbe5f3b	-0.092955075
12	0xbc5572fd	-0.013027904
13	0x3d134330	0.035952747
14	0x3da34843	0.07972767
15	0x3b7070f2	0.0036688414

bn1.running_mean f4 [16]
0	0x3d68a7c3	0.056800615
1	0x3de464e3	0.11152055
2	0xbe6f73ac	-0.23383969
3	0xbd2160db	-0.03939901
4	0x3c6bc5e9	0.014390447
5	0x3f019fbe	0.5063437
6	0x3e1c88b2	0.1528652
7	0xbe02b59a	-0.12764588
8	0xbe8994fa	-0.26871473
9	0x3ce3865e	0.027774032
10	0xbdc19523	-0.09452274
11	0x3e311973	0.17294864
12	0x3ed183ed	0.40920964
13	0x3e4bd328	0.19904768
14	0xbc187a0a	-0.00930644
15	0x3a67e617	0.0008846237

bn1.running_var f4 [16]
0	0x3dd62469	0.104561634
1	0x3da8686a	0.082230404
2	0x3e2989d1	0.16556479
3	0x3dbace1a	0.09121342
4	0x3db8c403	0.09021761
5	0x3e76fbcd	0.24119492
6	0x3e03d8a9	0.12875618
7	0x3e08dd22	0.13365605
8	0x3dcd251b	0.10016843
9	0x3e28a6c1	0.16469862
10	0x3d02f217	0.031969156
11	0x3d65cf14	0.05610569
12	0x3e799caf	0.24376176
13	0x3dca7c22	0.09886958
14	0x3e1bf841	0.1523142
15	0x3db7243f	0.0894246

conv2.weight f4 [32, 16, 3, 3]
0	0x3d0c3828	0.034233242
1	0xbcf6e3ba	-0.030137885
2	0x3ce8ae30	0.028403372
3	0xbcac2e37	-0.02101813
4	0x3da50c92	0.08059038
5	0xbd838b4e	-0.06423055
6	0xbd9872bf	-0.07443761
7	0xbd711331	-0.058856193
8	0x3d4e8fa3	0.05042995
9	0xbc111258	-0.008854471
10	0xbafd6940	-0.0019333735
11	0xbd04aaa0	-0.032389283
12	0xbd093ab7	-0.03350326
13	0x3b952226	0.00455119
14	0x3da4f423	0.08054378
15	0xbcf64d6f	-0.03006622
16	0xbd3c82c5	-0.04602315
17	0xbd5fec00	-0.054668427
18	0x3dbb0b4b	0.09133013
19	0xbcf33d8e	-0.029692437
20	0x3db2803f	0.08715867
21	0x3d537b5f	0.051631328
22	0x3c0c8a39	0.008577877
23	0x3c1a10f0	0.009403452
24	0x3db1d0b2	0.086823836
25	0x3859f369	5.1963525e-05
26	0xbda74642	-0.081676975
27	0xbd4415d7	-0.04787239
28	0xbd773f62	-0.06036318
29	0xbdf2b4ea	-0.11850913
30	0xbd5cdbe6	-0.05392065
31	0x3ba7c33b	0.005119709
32	0x3cb8b4b1	0.022547098
33	0xbd4cb55d	-0.04997765
34	0xbd0059cd	-0.03133564
35	0xbe00cf2d	-0.12579031
36	0x3cc4671f	0.023974953
37	0x3d94ea46	0.072712466
38	0xbd9f95d7	-0.077922516
39	0x3d2e8f90	0.04261738
40	0x3da9520e	0.08267604
41	0x3d92d6b0	0.07169855
42	0xbe00e477	-0.12587152
43	0xbd6f1326	-0.05836787
44	0xbd985c91	-0.07439531
45	0xbc360d33	-0.011111545
46	0xbd9d426b	-0.07678684
47	0xbc83b04b	-0.016075274
48	0x3d97bd44	0.074091464
49	0xbd67ec07	-0.056621578
50	0x3d7f3800	0.062309265
51	0xbd7e15fd	-0.06203269
52	0x3d9d3193	0.07675471
53	0xbc59ae8f	-0.013286247
54	0x3db56afd	0.08858297
55	0xbcdf87fa	-0.027286518
56	0xbd66b218	-0.056322187
57	0x3c91d104	0.017799862
58	0xbcc1d8fa	-0.023663033
59	0x3c037e84	0.008025769
60	0xbd27358f	-0.04082256
61	0x3ccbf916	0.024899047
62	0xbde20de8	-0.11037809
63	0xbda621a8	-0.08111888
64	0xbd8a9318	-0.06766337
65	0xbd3d30ce	-0.046189122
66	0x3cfe2a2c	0.031025968
67	0xbbbaaef9	-0.005697128
68	0x3d0a7b7a	0.033809163
69	0xbc01936e	-0.007908685
70	0x3d87c9d0	0.066302896
71	0x3c866b91	0.016408714
72	0xbdb84728	-0.08997947
73	0xbdac67de	-0.084182486
74	0xbe05e8f6	-0.13077149
75	0x3d887b40	0.06664133
76	0xbd3eed67	-0.046613123
77	0xbd03a516	-0.03213986
78	0xbcd97df9	-0.026549326
79	0x3d19ec0e	0.037578635
80	0x3ce05b4f	0.02738729
81	0x3c2350ae	0.009967966
82	0xba71e8c2	-0.0009228104
83	0xbd553426	-0.052051686
84	0xbd20b893	-0.039238524
85	0xbd0a80aa	-0.03381411
86	0x3c214720	0.009843618
87	0xbe251fe3	-0.16125445
88	0xbda8bc59	-0.082390495
89	0xbdb40e3f	-0.0879178
90	0xbd151a76	-0.03640219
91	0x3d194a11	0.03742415
92	0xbd076dfa	-0.033063866
93	0x3d12821d	0.035768617
94	0x3bd75eb1	0.0065725674
95	0x3d013fd7	0.031555023
96	0x3c3f0f53	0.011661368
97	0xbd03adc2	-0.03214813
98	0x3c280bfe	0.010256765
99	0x39b243ce	0.00034001324
100	0xbd2cbcd1	-0.042172257
101	0xbbad7f84	-0.005294742
102	0xbc35dc91	-0.01109995
103	0x3d41a77b	0.047278862
104	0xbcaf8bc6	-0.021428954
105	0xbd1dff2e	-0.038573436
106	0x3d085ce1	0.0332917
107	0xbcd3dbfd	-0.025861735
108	0xbca62c37	-0.020284755
109	0xbd05e3e2	-0.03268803
110	0xbc4edb35	-0.012625505
111	0x3c2cabe0	0.010539025
112	0x3c650311	0.013977782
113	0x3d0f78c0	0.035027266
114	0x3cffc9af	0.0312241
115	0x3d6fa0b2	0.05850286
116	0xbd4845cb	-0.048894685
117	0x3d2f0712	0.042731352
118	0x3c688677	0.014192215
119	0xbde27a31	-0.110584624
120	0xbd2482af	-0.040163692
121	0x3dc88985	0.09791855
122	0x3cce61cf	0.025193123
123	0xbdfbfdca	-0.12304266
124	0x3c4799b3	0.012182641
125	0xbb24e18a	-0.0025158846
126	0x3c7daf60	0.015483707
127	0x3ca434b9	0.020044671
128	0xbd562dc1	-0.052289728
129	0xbbaf0d0e	-0.0053421324
130	0xbc2c43e9	-0.010514238
131	0x3d7b6bc4	0.06138207
132	0xbd957b57	-0.07298916
133	0x3c49870b	0.012300263
134	0xbda75224	-0.08169964
135	0xbdad12ac	-0.08450827
136	0xbe1a074a	-0.15041843
137	0xbdf73685	-0.12070946
138	0x3cf0daaf	0.029401151
139	0xbda2d327	-0.0795043
140	0xbd1df6bb	-0.03856538
141	0x3d966a41	0.07344485
142	0x3dabbfcb	0.08386191
143	0xbd7ed545	-0.06221511
144	0x3c6ccf76	0.014453759
145	0xbd803277	-0.062596254
146	0xbc26932b	-0.0101669235
147	0x3d9e4f6e	0.07729994
148	0x3c343d16	0.011000892
149	0xbcd346b7	-0.025790555
150	0xb98d86eb	-0.00026994137
151	0x3d61510b	0.05500893
152	0x3b5a21e6	0.0033284365
153	0xbce210f9	-0.027595984
154	0xbc87a373	-0.01655743
155	0x3d96651f	0.07343506
156	0xbd0e64e4	-0.034764186
157	0x3da07041	0.07833911
158	0xbd1e9415	-0.03871544
159	0xbd6e83fe	-0.058231346
160	0xbd2455b2	-0.040120788
161	0xbd5b4f1b	-0.053542238
162	0x3d930e2d	0.07180438
163	0xbd029267	-0.0318779
164	0x3d8ceb0f	0.06880771
165	0xbcdb81cc	-0.02679529
166	0x3db96356	0.0905215
167	0xbd4c41bf	-0.049867388
168	0xbdaf5154	-0.08560434
169	0xbd825152	-0.06363167
170	0x3d82acb1	0.063805945
171	0xbdcb9bce	-0.09941827
172	0xbda07abe	-0.07835911
173	0x3d814be8	0.06313306
174	0xbb381146	-0.0028086468
175	0xbd6ba7bf	-0.057533022
176	0x3d3825fe	0.044958107
177	0xbc2e5cdc	-0.010642257
178	0x3b9e72fb	0.004835484
179	0xbc022acb	-0.007944773
180	0x3db781c8	0.08960301
181	0xbda23da5	-0.07921914
182	0xbd84bc66	-0.06481247
183	0x3dd64e92	0.10464205
184	0xbdc024bb	-0.09382006
185	0xbc5527bc	-0.013009962
186	0x3bc8cefb	0.0061281896
187	0xbd58635a	-0.052829124
188	0x3cd391da	0.025826383
189	0x3d0b95ed	0.034078527
190	0x3c9f7e38	0.019469365
191	0x3d4710b4	0.048599914
192	0xbd9522cd	-0.07282028
193	0xbd93e111	-0.072206624
194	0x3d57353b	0.052541
195	0xbd9b8dc3	-0.07595398
196	0xbccf1fe2	-0.025283758
197	0x3d73c168	0.05951062
198	0xbdb766cd	-0.089551546
199	0xbd84ba72	-0.06480874
200	0x3c70aa95	0.014689107
201	0xbdba4926	-0.09095983
202	0xbd941043	-0.07229664
203	0xbda3ab42	-0.07991649
204	0xbc774b5e	-0.0150936525
205	0xbd9c9f4b	-0.0764757
206	0xbcdc24e1	-0.026873054
207	0xbc652465	-0.013985728
208	0xbc12c765	-0.008958672
209	0xbdafb7a3	-0.08579948
210	0x3d8f0d74	0.06984988
211	0x3d063e72	0.032774396
212	0x3d41dfc7	0.04733255
213	0x3d921eeb	0.071348034
214	0x3d1acd57	0.037793484
215	0x3d27f2b9	0.041002963
216	0xbd909fbe	-0.070617184
217	0xbd9fc506	-0.07801251
218	0x3d6bc2f2	0.05755896
219	0xbca9b211	-0.020714791
220	0x3cf9ffc1	0.03051746
221	0xbb8b30c3	-0.004247756
222	0x3db38768	0.08766061
223	0xbd19c59c	-0.03754197
224	0xbd1beb49	-0.038066182
225	0xbbb7b40c	-0.00560618
226	0xb91fcc93	-0.00015239631
227	0xbc94ebbc	-0.018178813
228	0x3cfebe1a	0.031096507
229	0xbd805085	-0.06265358
230	0xbca8e571	-0.020617219
231	0xbd71e329	-0.059054527
232	0xbdc4101d	-0.09573386
233	0x3bce1abf	0.0062898095
234	0xbd0cd041	-0.034378294
235	0xbd39d4c6	-0.045368932
236	0x3c84812f	0.01617488
237	0x3d8594bd	0.0652251
238	0xbd12960e	-0.035787635
239	0xbdb7a702	-0.08967401
240	0xbcd29add	-0.02570861
241	0xbd2cff26	-0.042235516
242	0xbac25168	-0.0014825286
243	0xbb280412	-0.0025637192
244	0x3cf741da	0.030182768
245	0x3d353c5d	0.04424702
246	0x3d546f23	0.0518638
247	0x3d2993fc	0.041400895
248	0xbce98e52	-0.028510246
249	0xbcdcd41b	-0.026956609
250	0x3b3b74f5	0.0028603647
251	0xbb892cbb	-0.0041862405
252	0xbcb8da8c	-0.022565149
253	0x3cf07c52	0.029356156
254	0xbd681673	-0.056662034
255	0x3d5e0fd1	0.054214302

conv2.bias f4 [32]
0	0xb99645d9	-0.0002866227
1	0x3d23c8bd	0.03998636
2	0xbaf15976	-0.0018413502
3	0xbd21f207	-0.039537456
4	0x3d149657	0.036276188
5	0x3d3749a4	0.044747964
6	0xbd46e62c	-0.048559353
7	0x39a2d2d2	0.0003105612
8	0x3bb04487	0.005379263
9	0x3d2f97da	0.042869426
10	0x3cc6332a	0.024194319
11	0xbd3f68cd	-0.046730805
12	0xbda547ef	-0.08070361
13	0xb9a051da	-0.00030578562
14	0xbbef119d	-0.007295801
15	0xbd264c7d	-0.04060029
16	0xbd72d882	-0.05928851
17	0xbda1ca32	-0.07899894
18	0x3c109745	0.008825128
19	0xbcb6894f	-0.02228227
20	0xbc8cd8d6	-0.01719324
21	0x3d3df0af	0.046372112
22	0x3d2f4672	0.04279179
23	0xbd84b0f9	-0.06479067
24	0x3c64832f	0.013947292
25	0xbc08b9b8	-0.00834506
26	0x3d073a52	0.033014603
27	0xbc94b101	-0.018150808
28	0x3da7f37d	0.082007386
29	0xbc9f8e87	-0.019477142
30	0xbb855ae0	-0.004069671
31	0x3d1e1f23	0.038603913

bn2.weight f4 [32]
0	0x3f7caed5	0.9870427
1	0x3f6f681d	0.9351824
2	0x3f731aea	0.9496294
3	0x3f79b0fe	0.97535694
4	0x3f839a1e	1.0281408
5	0x3f81237f	1.0088958
6	0x3f6568a0	0.8961277
7	0x3f872918	1.0559416
8	0x3f75f163	0.9607145
9	0x3f788f99	0.9709411
10	0x3f826f0d	1.019014
11	0x3f646c10	0.8922739
12	0x3f7ded4f	0.9919023
13	0x3f839150	1.0278721
14	0x3f7638f5	0.9618066
15	0x3f821d38	1.0165167
16	0x3f68904e	0.9084519
17	0x3f7f39ae	0.9969739
18	0x3f84dff3	1.0380844
19	0x3f88b707	1.0680856
20	0x3f8348ed	1.025663
21	0x3f73f200	0.9529114
22	0x3f83cb38	1.0296392
23	0x3f7b4dec	0.98165774
24	0x3f84dd69	1.0380069
25	0x3f7e2325	0.99272376
26	0x3f871e79	1.0556175
27	0x3f743ee1	0.95408446
28	0x3f85e4ea	1.0460484
29	0x3f7b3876	0.9813303
30	0x3f86267a	1.0480492
31	0x3f733c8a	0.9501425

bn2.bias f4 [32]
0	0xbd79e8f6	-0.061013184
1	0xbdc1b001	-0.09457398
2	0xbe33b57e	-0.17549703
3	0xbdd18c10	-0.10231793
4	0x3cae1d22	0.021254126
5	0xbda5d315	-0.08096901
6	0xbe338779	-0.17532147
7	0xbccd8d4d	-0.025091792
8	0xbd619c35	-0.05508061
9	0x3d1de9a5	0.0385529
10	0x3d1a2378	0.037631482
11	0xbde50892	-0.11183275
12	0x3cbd7bbd	0.023130292
13	0x3d105a0a	0.035242118
14	0xbd2f2187	-0.042756584
15	0xbb788cb6	-0.0037925667
16	0xbdbdcca7	-0.0926755
17	0xbe04e617	-0.12978397
18	0xbd6e66ad	-0.058203388
19	0xbd613f0f	-0.054991778
20	0xbd33de0e	-0.04391294
21	0xbe01df31	-0.12682797
22	0x3d17d195	0.037065107
23	0x3b50a15a	0.0031834454
24	0x3d0a0c9c	0.03370343
25	0xbd01307e	-0.031540386
26	0xbc3b57a6	-0.011434471
27	0xbd91dc49	-0.07122094
28	0x3c80c5b5	0.015719274
29	0xbdb1dec7	-0.086850695
30	0x3b912bbc	0.0044302624
31	0xbdfb6be8	-0.12276441

bn2.running_mean f4 [32]
0	0xbee9ab3e	-0.4563846
1	0xbf261041	-0.6486855
2	0xbf80289b	-1.0012392
3	0xbfa7e78e	-1.311754
4	0xbe608873	-0.21927051
5	0xbfbeb364	-1.4898496
6	0xbfc1698e	-1.5110338
7	0xbeaa7aca	-0.33296806
8	0xbf405eb8	-0.7514453
9	0xbeae18c6	-0.34003276
10	0xbe07673a	-0.13222972
11	0xbf427300	-0.75956726
12	0x3cb5a697	0.022174163
13	0x3e473330	0.1945312
14	0xbf45c258	-0.7724967
15	0xbe34bc1e	-0.17649886
16	0xbef29b9b	-0.47384343
17	0xbf9b6ba3	-1.2142223
18	0xbedb18f0	-0.42792463
19	0x3da38171	0.07983673
20	0xbe9addd3	-0.30247363
21	0xbfd0a967	-1.6301697
22	0x3e8b6a36	0.2722947
23	0xbec1853b	-0.3779696
24	0xbd93310b	-0.071870886
25	0x3eb72f88	0.3577845
26	0xbebb2d77	-0.36558124
27	0xbface6cb	-1.3507932
28	0xbb985fa2	-0.004650072
29	0xbf404fb3	-0.7512161
30	0xbe3865e6	-0.18007621
31	0xbf6b2362	-0.91850865

bn2.running_var f4 [32]
0	0x3f2043af	0.62603277
1	0x3f0ae880	0.54261017
2	0x3f43dce4	0.7650893
3	0x3feeccca	1.8656247
4	0x3edb7bea	0.42867976
5	0x3fac4414	1.3458276
6	0x4004e328	2.0763645
7	0x3f8fac48	1.1224451
8	0x3f871b4a	1.0555203
9	0x3f6263ca	0.88433516
10	0x3f15c85d	0.58508855
11	0x3f28b39a	0.6589905
12	0x3f3a3e15	0.7275098
13	0x3f479448	0.77960634
14	0x3f923c88	1.1424723
15	0x3f6b2856	0.9185842
16	0x3f2ce71a	0.67540133
17	0x3f646284	0.8921282
18	0x3f6f9b7b	0.9359662
19	0x3f3cda15	0.73770267
20	0x3f9cffb5	1.2265536
21	0x3fe2441b	1.7677034
22	0x3ef9ff79	0.48827723
23	0x3f095889	0.5365072
24	0x3eac106c	0.3360628
25	0x3ecdcc27	0.40194818
26	0x3f8af9af	1.0857447
27	0x3fb305c6	1.3986137
28	0x3f0d7d90	0.5526972
29	0x3f1b0e9c	0.6056917
30	0x3f79e0f0	0.9760885
31	0x3f4611ae	0.7737073

conv3.weight f4 [64, 32, 3, 3]
0	0xbbb4398c	-0.005500024
1	0xbcc3cb48	-0.023900643
2	0xbd6608dd	-0.056160796
3	0x3d75c6cd	0.060004044
4	0xbda96b21	-0.08272386
5	0xbcf025d2	-0.02931491
6	0x3c5b1dcf	0.013373806
7	0x3d8d5240	0.069004536
8	0x3bd05504	0.006357791
9	0x3d532e12	0.051557608
10	0xbc68632e	-0.0141838025
11	0x3a55f77e	0.00081621844
12	0x3d809875	0.06279079
13	0xbd810c12	-0.0630113
14	0xbd6d68a2	-0.057961114
15	0x3b8bff3b	0.004272369
16	0x3cbfeebd	0.023429269
17	0x3c9e9062	0.019355956
18	0x3d16b42b	0.036792915
19	0xbcae0da9	-0.021246748
20	0x3d0b313f	0.03398251
21	0x3d56ca68	0.052439123
22	0xbd290723	-0.04126657
23	0xbd6cded9	-0.05782971
24	0x3cc2b6fe	0.023768898
25	0x3c01a4d6	0.007912835
26	0xbce997f3	-0.028514838
27	0x3cdcc588	0.026949659
28	0x3c8d5752	0.017253552
29	0x3d19871e	0.037482373
30	0xbd218c49	-0.039440427
31	0xbd529735	-0.051413734
32	0xbd11dcc1	-0.035610918
33	0xbd266067	-0.04061928
34	0x3d183222	0.037157185
35	0x3c4f3064	0.012645815
36	0xbb1a8fbc	-0.0023584208
37	0x3d3b0e43	0.045667898
38	0x3db4aea4	0.088223726
39	0x3ca5a6ed	0.020221198
40	0xbcddce8c	-0.027076028
41	0x3d6ca1cd	0.057771493
42	0x3c2fda60	0.010733217
43	0xbd226e3a	-0.0396559
44	0x3cfb19f0	0.030652016
45	0x3d15c1df	0.036561843
46	0x3d41e140	0.047333956
47	0x3c07e236	0.008293679
48	0xbcce3a78	-0.025174364
49	0x3c3b8fbb	0.011447842
50	0x3d35c3c4	0.04437615
51	0x3c8a1d3f	0.016859649
52	0xbcc3387f	-0.02383065
53	0xbd066a6a	-0.032816328
54	0x3c834947	0.016026152
55	0x3c629605	0.013829713
56	0x3ca573e4	0.020196863
57	0x3c5ea4cb	0.013589094
58	0xbd86781a	-0.06565876
59	0xbc86fbfc	-0.016477577
60	0xbc2e37c2	-0.010633411
61	0xbd413ed1	-0.047179047
62	0x3d19e9fc	0.03757666
63	0xbc522335	-0.012825777
64	0x3cd2121f	0.025643406
65	0x3c87da45	0.016583571
66	0xbd1b909e	-0.037979715
67	0xbb1cd757	-0.0023932063
68	0x3e076aaf	0.1322429
69	0x3cf33f11	0.029693158
70	0x3c536c2d	0.012904209
71	0x3dcb6468	0.0993126
72	0x3d225594	0.039632395
73	0x3c9d24fb	0.019182673
74	0x3b5182bf	0.00319688
75	0x3dad602f	0.08465611
76	0xbc33735f	-0.0109528
77	0xbbfee9bd	-0.0077793286
78	0xbd0db779	-0.0345988
79	0x3ca50828	0.02014549
80	0xbd94dbde	-0.07268499
81	0xbca4c537	-0.02011357
82	0xbd47c6f8	-0.048773736
83	0x3d2a56bb	0.04158662
84	0xbd46f373	-0.048572015
85	0x3c344ecc	0.011005115
86	0x3c8b961a	0.017039347
87	0xbd68e42d	-0.05685823
88	0xbcc8b2c6	-0.024499308
89	0x3c28ba3c	0.010298308
90	0xbc2581a3	-0.010101709
91	0x3da39eaa	0.07989247
92	0xbc4781ca	-0.01217694
93	0x3cdc61d6	0.02690212
94	0x3c4f75f0	0.012662396
95	0x3d429c5c	0.047512397
96	0xbdabd02a	-0.083893135
97	0xbdae6ae3	-0.08516481
98	0x3d1193b8	0.035541266
99	0xbbbff9f5	-0.0058586546
100	0xbd402e0a	-0.046918906
101	0x3c8ec7bc	0.017429225
102	0xbc9c9bb3	-0.019117212
103	0xbdb057f3	-0.08610525
104	0x3be205ed	0.006897679
105	0xbc247f76	-0.010040155
106	0x3c89b4d6	0.016809862
107	0x3cc72c58	0.024313137
108	0x3cc4ea32	0.024037454
109	0x3cf74650	0.030184895
110	0xbc216c3e	-0.009852467
111	0x3cd52fef	0.026023833
112	0x3d5fe167	0.05465832
113	0x3d167d17	0.03674039
114	0xbd5ff0d5	-0.054673035
115	0xbcfd5a50	-0.030926853
116	0xbd0818ce	-0.03322678
117	0x3d00d61c	0.03145419
118	0x3d954bb9	0.072898336
119	0x3d91e6ef	0.07124125
120	0xbc5383c1	-0.012909831
121	0x3cc3af34	0.023887254
122	0x3c8b2958	0.016987488
123	0x3c8a2abf	0.016866086
124	0xbc572518	-0.013131402
125	0x3c43619c	0.011925127
126	0xbc491138	-0.012272172
127	0x3db393df	0.087684385
128	0xbc524099	-0.012832784
129	0xbc446982	-0.011988046
130	0x3bf1ae2a	0.0073754983
131	0xbbd3a8d7	-0.0064593363
132	0x3c51dabb	0.012808497
133	0xbc9d76a6	-0.019221615
134	0x3c8aa7af	0.01692566
135	0x3ceac36c	0.028657638
136	0xbb2d50e0	-0.002644591
137	0xbdac7fb9	-0.08422799
138	0xbc758873	-0.014986145
139	0x3bc59165	0.0060292953
140	0x3da48cdf	0.080346815
141	0xbd650887	-0.055916335
142	0xbd7e137d	-0.062030304
143	0x3bb5ab97	0.0055441367
144	0x3c4e04f0	0.012574419
145	0xbd95c7f9	-0.073135324
146	0x3cc80266	0.024415206
147	0x3d25f415	0.040515978
148	0xbcdb1573	-0.026743626
149	0xbca2f45e	-0.019891914
150	0xbc504a12	-0.012712972
151	0x3d101b89	0.03518251
152	0xbc5f5eb9	-0.0136334235
153	0x3a4ff088	0.0007932265
154	0x3b6721ab	0.003526787
155	0xbd0ffb7f	-0.035151955
156	0xbb917bf3	-0.0044398247
157	0xbd7716e6	-0.060324572
158	0xbd8a042c	-0.06739077
159	0x3cc02c27	0.023458553
160	0x3d372827	0.044716027
161	0xbd18e9bd	-0.037332285
162	0xbd2d32c4	-0.042284742
163	0x3dad32b6	0.08456938
164	0x3caf8957	0.021427793
165	0xbd1bedde	-0.038068645
166	0xbc74bbae	-0.014937324
167	0xbda7d289	-0.08194453
168	0xbd354ea4	-0.04426445
169	0x3cf93aff	0.03042364
170	0x3d823df4	0.06359473
171	0x3d304df0	0.043043077
172	0x3dcf212c	0.10113749
173	0x3da9ede8	0.0829733
174	0x3d38137c	0.044940457
175	0x3ce75c8c	0.028242372
176	0x3d6f7ff8	0.05847165
177	0x3d15c279	0.036562417
178	0xbcdeaf5e	-0.027183231
179	0xbd194fe6	-0.037429713
180	0xbd226ad6	-0.039652668
181	0x3d85fd1e	0.06542419
182	0x3e0627a5	0.1310106
183	0xbcd48b00	-0.025945187
184	0x3d3c0007	0.045898464
185	0x3def02ea	0.11670478
186	0xbc5a75b3	-0.013333726
187	0xbce1db86	-0.027570497
188	0xbd65b39c	-0.056079492
189	0x3d04f0f0	0.03245634
190	0x3c98d310	0.01865533
191	0x3da129ac	0.078692764
192	0x3d25bd29	0.0404636
193	0xbd22cd5d	-0.03974663
194	0x3cb0ad0a	0.021566886
195	0xbc8e0aa0	-0.01733905
196	0x3d8fe96b	0.07026943
197	0xbcac2926	-0.021015715
198	0xbd45345d	-0.04814564
199	0x3db512bb	0.08841463
200	0xbce8e94b	-0.028431555
201	0x3c0dc07f	0.008651852
202	0x3dc4711a	0.09591885
203	0x3dd92a5c	0.106037825
204	0x3d46605a	0.04843173
205	0x3d3bf5fa	0.04588888
206	0xbda4bbf5	-0.080436625
207	0x3c3f872d	0.011689943
208	0xbd554944	-0.052071825
209	0xbd093c42	-0.033504732
210	0x3d8334f3	0.06406584
211	0xbc04b352	-0.008099394
212	0xbd20abe3	-0.039226424
213	0x3c6361f0	0.013878331
214	0x3ca260f5	0.019821623
215	0xbd23c29a	-0.03998051
216	0x3d30ff81	0.043212418
217	0x3dd7286c	0.10505757
218	0x3bb46933	0.005505705
219	0xbcceac72	-0.025228713
220	0x3d9ce586	0.076609656
221	0xbccfac12	-0.025350604
222	0xbd0d4b88	-0.03449586
223	0xbd7a1ea0	-0.061064363
224	0x3d511029	0.051040802
225	0x3ce80f16	0.028327506
226	0xbdc7eb11	-0.09761632
227	0xbce6d66d	-0.028178418
228	0x3b2aa012	0.002603535
229	0xbdaa16c9	-0.08305127
230	0xbdc1d07f	-0.094635956
231	0x3d6cd26c	0.05781786
232	0x3c0d04ad	0.008607072
233	0x3cca996c	0.02473136
234	0x3ce18fed	0.02753445
235	0xbdafd168	-0.08584863
236	0xbbb31b06	-0.005465868
237	0x3d5e6704	0.054297462
238	0x3d590d0d	0.05299096
239	0x3d19216e	0.037385397
240	0xbcb6be1e	-0.022307452
241	0x3d0044cc	0.03131561
242	0x3c9542e3	0.01822037
243	0x3d341343	0.043963682
244	0x3cf8e701	0.030383589
245	0x3d80d6cd	0.0629097
246	0xbcf23b54	-0.029569305
247	0xbd135a6a	-0.035974897
248	0x3d73a490	0.05948311
249	0x3c87e267	0.01658745
250	0x3d5e95fe	0.054342262
251	0x3d531884	0.05153705
252	0xbbd8cc37	-0.006616141
253	0x3cb0abfd	0.021566385
254	0xbc8fd739	-0.01755868
255	0x3c230a65	0.009951209

conv3.bias f4 [64]
0	0xba8b55ae	-0.0010630393
1	0x3d2c6739	0.04209063
2	0xbd399ecf	-0.045317467
3	0xbb9a1374	-0.004702026
4	0xbcef371b	-0.029201081
5	0xbcd65425	-0.02616317
6	0xbd164daf	-0.03669518
7	0x3d4f13fb	0.050556164
8	0x3d34704c	0.044052407
9	0x3d34a877	0.044105973
10	0x3be9ea59	0.007138532
11	0xbc495c46	-0.012290066
12	0xbd533896	-0.051567636
13	0x3d41fc81	0.047359947
14	0x3d4e32c1	0.05034137
15	0xbd04895c	-0.03235756
16	0xbd49c8e7	-0.04926386
17	0x3ca0d892	0.019634519
18	0xbd561448	-0.052265435
19	0xbcecd70e	-0.02891114
20	0xbb86e354	-0.004116455
21	0xbcc3ccc2	-0.023901347
22	0x3d0100f1	0.03149504
23	0xbc5a7e19	-0.013335728
24	0xbd597773	-0.05309243
25	0xbb978d79	-0.004625019
26	0x3d157089	0.036484275
27	0xbc77e746	-0.0151308235
28	0xbc9a7be8	-0.018857911
29	0x3d0eb80c	0.03484349
30	0x3d4e87f3	0.05042262
31	0xbbbf334a	-0.0058349716
32	0xbc80da1d	-0.015729005
33	0x3c85ec0c	0.016347907
34	0xbd2bf793	-0.041984152
35	0x3cfa116e	0.03052589
36	0x3ca039dd	0.019558841
37	0xbc01c5a8	-0.00792066
38	0xbcb43a9a	-0.0220006
39	0xbd1dbfa1	-0.03851283
40	0x3d4e879f	0.050422307
41	0xbced6ff6	-0.028984051
42	0x3c81c905	0.015842924
43	0x3d2913b5	0.04127856
44	0x3d1ae742	0.0378182
45	0x3d42b330	0.047534168
46	0x3d3841e7	0.044984724
47	0xbd6c5b3a	-0.057704188
48	0x3d276354	0.04086621
49	0xbd62147a	-0.05519531
50	0xbd29b01e	-0.041427724
51	0x3c3e8b59	0.011629903
52	0x3d0883e1	0.033328895
53	0x3c73dd89	0.014884361
54	0x3d22693d	0.039651144
55	0x3d2f2800	0.042762756
56	0xbbe4a60d	-0.0069778026
57	0xbd5f9d2d	-0.054593254
58	0xbd1731d6	-0.03691276
59	0xbbb8a7c1	-0.005635232
60	0x3d247b5d	0.04015671
61	0x3c81e603	0.015856748
62	0x3b9a94ba	0.0047174366
63	0xbb1f5367	-0.0024311186

bn3.weight f4 [64]
0	0x3f880b24	1.06284
1	0x3f822e79	1.0170432
2	0x3f7075c5	0.939297
3	0x3f884a25	1.0647627
4	0x3f8b380a	1.0876477
5	0x3f78c769	0.97179276
6	0x3f89cec7	1.0766228
7	0x3f80430b	1.002046
8	0x3f787fd1	0.9707003
9	0x3f8d81f1	1.105528
10	0x3f8604cd	1.0470215
11	0x3f88b28c	1.0679488
12	0x3f8098b5	1.0046602
13	0x3f7e6617	0.99374527
14	0x3f7fa1ed	0.99856454
15	0x3f7fd910	0.99940586
16	0x3f7232b6	0.9460863
17	0x3f8a39d7	1.0798901
18	0x3f745fcf	0.9545869
19	0x3f87a577	1.0597371
20	0x3f8ef52a	1.1168568
21	0x3f8ab9aa	1.083791
22	0x3f8a4a07	1.0803841
23	0x3f84ab9f	1.0364875
24	0x3f7e9df3	0.9945976
25	0x3f856d6a	1.0424016
26	0x3f792802	0.9732667
27	0x3f846471	1.0343152
28	0x3f7e3dfb	0.99313325
29	0x3f88bd88	1.068284
30	0x3f7fca0f	0.9991769
31	0x3f862e6f	1.048292
32	0x3f7cb164	0.98708177
33	0x3f89d84d	1.0769135
34	0x3f739164	0.95143723
35	0x3f7b56e8	0.98179483
36	0x3f83b160	1.0288506
37	0x3f73c120	0.9521656
38	0x3f897cdb	1.0741228
39	0x3f8aeb86	1.0853126
40	0x3f8b5104	1.0884099
41	0x3f7de5ed	0.99178964
42	0x3f791248	0.9729352
43	0x3f7b18c7	0.9808468
44	0x3f8ad2c2	1.0845568
45	0x3f8bd25e	1.0923574
46	0x3f7021dc	0.93801665
47	0x3f895cc0	1.073143
48	0x3f8b5b94	1.0887322
49	0x3f7baf69	0.9831453
50	0x3f713881	0.94226843
51	0x3f80a19b	1.0049318
52	0x3f786fd0	0.9704561
53	0x3f8d5322	1.1040995
54	0x3f6de449	0.9292646
55	0x3f873d86	1.056565
56	0x3f86a5c5	1.0519339
57	0x3f775e6b	0.96628445
58	0x3f7aea14	0.98013425
59	0x3f77e925	0.96840125
60	0x3f884422	1.0645792
61	0x3f88f49f	1.0699652
62	0x3f89246f	1.0714244
63	0x3f894676	1.0724628

bn3.bias f4 [64]
0	0xbc0c4fae	-0.008563919
1	0xbc743d6e	-0.014907224
2	0xbd75bfea	-0.059997477
3	0x3c328031	0.010894821
4	0x3cbf75db	0.023371628
5	0xbd068043	-0.032837164
6	0x3ca56aea	0.020192582
7	0xbc9d60b9	-0.01921116
8	0xbd047170	-0.032334745
9	0x3bc04887	0.005868021
10	0x3c57e323	0.013176712
11	0x3c282a3c	0.010263976
12	0xbd00b1d5	-0.031419594
13	0xbcbc3a2f	-0.022976963
14	0xbc8d5fcf	-0.0172576
15	0xbcc15d91	-0.023604186
16	0xbd582459	-0.05276904
17	0x3ce374f3	0.027765727
18	0xbd2cc9b2	-0.04218454
19	0x3bcbf9df	0.0062248553
20	0x3bd5d52c	0.006525656
21	0xbb616cab	-0.0034397047
22	0x3b98ad4f	0.004659332
23	0x3af5ded6	0.0018758427
24	0xbcafbdd7	-0.021452827
25	0x3c2d5ee0	0.010581702
26	0xbcb66f9c	-0.022270016
27	0x3b16ff74	0.0023040446
28	0xbd007d4f	-0.031369504
29	0x3cc8dcd0	0.024519354
30	0xbcbd12d0	-0.02308026
31	0x3c706631	0.014672802
32	0xbcf4beb2	-0.029876087
33	0x3bd5dae5	0.0065263384
34	0xbd594492	-0.05304391
35	0xbd007ac8	-0.031367093
36	0xbc230984	-0.009950999
37	0xbd465f35	-0.04843064
38	0xbadd4e1a	-0.0016884238
39	0xbb3939f0	-0.0028263293
40	0x3d022d4a	0.031781472
41	0xbce93397	-0.028466983
42	0xbcbe8044	-0.023254521
43	0xbce19812	-0.027538333
44	0x3c58b57e	0.013226865
45	0x3b10b719	0.002208179
46	0xbd5f74aa	-0.05455462
47	0xba86db19	-0.0010288685
48	0x3ca2bef3	0.019866442
49	0xbcf783f0	-0.03021428
50	0xbd661e15	-0.056181032
51	0xbc83c886	-0.016086828
52	0xbd20171b	-0.039084535
53	0xbc2725c6	-0.010201877
54	0xbd8c4d8c	-0.068507284
55	0x3c35232c	0.011055749
56	0x3b2c13ae	0.0026256847
57	0xbd36aa4b	-0.044595998
58	0xbcfd476e	-0.03091785
59	0xbd1f67fd	-0.03891753
60	0x3be63f41	0.0070265834
61	0x3be691e5	0.007036435
62	0x3c37553e	0.011189757
63	0xbba7a27b	-0.0051158047

bn3.running_mean f4 [64]
0	0x3f66f263	0.902136
1	0xbff0ed68	-1.8822451
2	0xbf7ca41d	-0.98687917
3	0x3f6f9c7f	0.9359817
4	0x3f7dbbfb	0.9911496
5	0x3f86e08c	1.0537276
6	0x3f1981ab	0.5996348
7	0xbf9a0142	-1.2031634
8	0xbf4e9170	-0.8069067
9	0x3f6f5b17	0.9349837
10	0x3f8f440b	1.119264
11	0x3f30508e	0.68872917
12	0xbfe8b43d	-1.8180004
13	0x3f075c96	0.5287565
14	0xbf8cfb35	-1.1014162
15	0xbf94947d	-1.1607815
16	0xbf9255cf	-1.1432437
17	0x3f0477ee	0.517455
18	0xbea3c36d	-0.31985036
19	0x3f53016d	0.8242405
20	0x3f283014	0.6569836
21	0x3f3bc305	0.7334445
22	0x3f8e3046	1.1108482
23	0x3f8ed164	1.1157651
24	0xbff4310b	-1.9077467
25	0x3f735614	0.9505322
26	0x3daa3bd6	0.08312194
27	0x3f987c3a	1.1912911
28	0xbf9b4072	-1.2129042
29	0x3f5a0961	0.8517056
30	0xbf3d9561	-0.7405606
31	0x3fd4bfea	1.6621068
32	0x3f979b70	1.1844311
33	0x3fa8fe69	1.320264
34	0xbfa5cf55	-1.2953898
35	0xbfa15ecb	-1.2607054
36	0xbfb51e7a	-1.4149926
37	0xbe58a2e9	-0.21155895
38	0x3f189cbb	0.5961415
39	0x3f53a249	0.826695
40	0x3f395609	0.72396904
41	0xbf8611ee	-1.0474222
42	0x3f55b538	0.8347964
43	0xbfa8ed5c	-1.3197436
44	0x3f9d99e5	1.231259
45	0x3f930596	1.148608
46	0xbe2e218f	-0.17004989
47	0x3f35e7ac	0.7105663
48	0x3f98c362	1.1934626
49	0xbf2a7cce	-0.66596687
50	0xbf1a4437	-0.6026034
51	0xbf3e4dab	-0.7433726
52	0xbfb40108	-1.4062815
53	0x3f19e612	0.60116684
54	0xbf32ddc4	-0.6986964
55	0x3f6bd049	0.9211469
56	0x3f2b9c1a	0.6703507
57	0xbf8d7c94	-1.1053643
58	0xbf985a35	-1.1902529
59	0xbf68bb0d	-0.90910417
60	0x3f9a22df	1.2041892
61	0x3f8aa174	1.0830522
62	0x3f2d38f6	0.6766504
63	0x3f1be091	0.60889536

bn3.running_var f4 [64]
0	0x3facaf20	1.3490944
1	0x3fe553e2	1.7916224
2	0x3f78ea85	0.9723285
3	0x3f65d00a	0.8977057
4	0x3f8d4b4b	1.1038603
5	0x3f4390f4	0.76393056
6	0x3f5aee73	0.85520095
7	0x3fa51ea4	1.2899976
8	0x3f2c2328	0.67241144
9	0x3f9ab350	1.2085972
10	0x3fb47d72	1.4100783
11	0x3f814219	1.0098296
12	0x3f9036f4	1.126677
13	0x3f2c8458	0.6738944
14	0x3f53b163	0.82692546
15	0x3f8d575c	1.1042285
16	0x3f963d31	1.1737424
17	0x3f38de2c	0.7221401
18	0x3f426e6c	0.7594974
19	0x3f84b337	1.0367192
20	0x3f89119d	1.07085
21	0x3fa199cd	1.2625061
22	0x3f9e3da0	1.2362556
23	0x3f5b3b9a	0.8563782
24	0x3fa17605	1.2614142
25	0x3f5e892a	0.86928046
26	0x3f25ca5f	0.6476192
27	0x3faf5eef	1.3700846
28	0x3face6ec	1.3507972
29	0x3f7d2f41	0.9890023
30	0x3f5e3dfe	0.8681334
31	0x3f947e79	1.1601096
32	0x3f4f2c95	0.809274
33	0x3fcaf6e0	1.585659
34	0x3f376e7b	0.71652955
35	0x3f89a819	1.0754424
36	0x3f6f5624	0.93490815
37	0x3f47e67f	0.78086084
38	0x3f6138e7	0.8797745
39	0x3f930b32	1.1487792
40	0x3f9543d7	1.1661328
41	0x3f91f25c	1.1402087
42	0x3f5d7d7f	0.86519617
43	0x3f1d8bad	0.61541253
44	0x3fb83156	1.4390056
45	0x3fa8938f	1.3170031
46	0x3f1e9e8f	0.6196069
47	0x3f8da1e4	1.106503
48	0x3fca793e	1.581825
49	0x3f5ace9f	0.8547153
50	0x3f593e12	0.84860337
51	0x3f6894da	0.9085213
52	0x3f9a97b6	1.2077549
53	0x3fa735b9	1.306327
54	0x3f7b9a72	0.9828254
55	0x3f54a4ea	0.8306414
56	0x3f4fdcae	0.81196105
57	0x3f840156	1.0312908
58	0x3f693648	0.9109845
59	0x3f854ec3	1.0414661
60	0x3f82497d	1.0178677
61	0x3fb7d517	1.4361905
62	0x3f7be4df	0.98396105
63	0x3f90c844	1.1311116

fc1.weight f4 [128, 64]
0	0x3dbf194a	0.093309954
1	0x3ccc708f	0.024956016
2	0xbb1a6136	-0.0023556477
3	0xbe314fb6	-0.17315564
4	0xbdbceb7f	-0.09224605
5	0xbdd754d3	-0.10514226
6	0xbe28e0dc	-0.16492027
7	0x3e0869a2	0.13321546
8	0x3d2ad14e	0.041703515
9	0xbc368ab8	-0.011141472
10	0xbde6aa74	-0.1126298
11	0x3c34c789	0.011033901
12	0x3b094a30	0.002094876
13	0xbdad3ef5	-0.08459274
14	0x3d1cbb23	0.038264405
15	0x3dc5f696	0.09666173
16	0x3b80cd8c	0.003930753
17	0xbe2e856d	-0.17043085
18	0xbc2372c3	-0.009976092
19	0xbe1397b4	-0.14413339
20	0xbce9d59c	-0.02854424
21	0x3d68003b	0.056640845
22	0xbbba2bf7	-0.0056815105
23	0xbd08a038	-0.03335592
24	0xba7848b3	-0.0009471282
25	0x3b0aeaa7	0.0021196993
26	0xbca360aa	-0.019943554
27	0x3d9b368e	0.07578765
28	0x3ce8a2f2	0.02839801
29	0xbdb2c30b	-0.08728608
30	0x3d3818d9	0.04494557
31	0x3d82d765	0.063887395
32	0x3dd0d255	0.10196368
33	0x3b0f673e	0.0021881605
34	0xbd55af27	-0.05216899
35	0x3cccd2e3	0.025002902
36	0xbd6f1ff3	-0.05838008
37	0x3d3e0bae	0.046397857
38	0x3d8bfb7f	0.068350784
39	0xbe03bfe3	-0.12866168
40	0xbc323742	-0.010877432
41	0x3dc596af	0.09647881
42	0x3d4566f0	0.048193872
43	0x3c1b0702	0.00946212
44	0xbd33b4c8	-0.04387358
45	0xbe1e180d	-0.15438862
46	0x3c404445	0.011735027
47	0xbe0ee47b	-0.13954346
48	0xbdbfb035	-0.09359781
49	0x3dfa71e6	0.12228756
50	0xbdb2355e	-0.08701585
51	0x3df5b73e	0.11997841
52	0x3ca415f1	0.020029994
53	0xbc478ab6	-0.012179067
54	0x3dfa171f	0.12211441
55	0x3d1ce9ad	0.038308788
56	0xbdde5a7e	-0.10857104
57	0x3e007108	0.12543118
58	0x3d29dea7	0.041472103
59	0xbd9bfad9	-0.07616205
60	0xbde9a249	-0.114079066
61	0xbc4ba7b6	-0.012430122
62	0xbd49971f	-0.049216386
63	0xbd525fb6	-0.05136081
64	0x3d9334d7	0.07187813
65	0xbda20633	-0.07911339
66	0xbde50ef2	-0.11184491
67	0x3d3b9a8a	0.045801677
68	0x3db39975	0.08769504
69	0xbdf04dfb	-0.117336236
70	0x3ca238d3	0.019802487
71	0x3caf641d	0.021410042
72	0x3ca65ab6	0.020306926
73	0xbd996110	-0.07489216
74	0x3df5e60b	0.12006768
75	0x3db9743b	0.09055372
76	0xbbd0f7a5	-0.006377178
77	0x3b8dae87	0.004323784
78	0x3d9fb611	0.07798398
79	0x3dedf800	0.11619568
80	0x3e038458	0.12843454
81	0x3ded7cd2	0.11596073
82	0xbe0372ca	-0.12836757
83	0xbd3ad805	-0.04561617
84	0x3ce14fca	0.027503867
85	0xbc9bdf82	-0.019027475
86	0x3e176f35	0.14788516
87	0x3cc1295e	0.023579296
88	0xbdb0efd8	-0.086394966
89	0x3dacc63d	0.084362485
90	0x3db8e306	0.09027676
91	0x3e00ebe6	0.12589988
92	0x3da01d04	0.07818034
93	0x3e066b97	0.1312698
94	0xbda34995	-0.07973019
95	0x3ddcac1f	0.10775017
96	0x3c0c958a	0.008580575
97	0xbd31e93c	-0.04343532
98	0x3d857eb0	0.06518304
99	0x3d11d328	0.035601765
100	0xbd81efa9	-0.0634454
101	0xbb1a0c41	-0.002350584
102	0x3e2cd11d	0.16876645
103	0x3d4b007c	0.04956101
104	0x3d8dee85	0.069302596
105	0x3d512b11	0.051066462
106	0xbd5be126	-0.053681515
107	0xbdd1f79e	-0.10252307
108	0x3dc7818c	0.09741506
109	0x3e0c9961	0.13730384
110	0xbdaa1a31	-0.08305777
111	0x3e16da13	0.14731626
112	0x3dd245a6	0.10267191
113	0xbcfb0545	-0.030642161
114	0x3d2fb0df	0.042893287
115	0xbdf571ca	-0.11984594
116	0xbccb0cfa	-0.024786461
117	0xbd19e4bb	-0.03757165
118	0x3d8930d5	0.06698767
119	0x3dca223c	0.09869811
120	0x3cf14dbe	0.029456016
121	0x3da98efa	0.08279224
122	0xbdde33fe	-0.108497605
123	0xbdbe2d54	-0.092859894
124	0x3d795841	0.06087518
125	0x3e19adca	0.15007702
126	0x3c9e0c8f	0.019293098
127	0x3beecb5f	0.0072874273
128	0x3d335d1c	0.043789968
129	0xbdd6a463	-0.10480573
130	0xbc90a795	-0.017658034
131	0x3e0e9c33	0.13926773
132	0xbd0f87b5	-0.03504153
133	0x39da601a	0.000416518
134	0x3dc9684e	0.09834348
135	0xbcbbc801	-0.022922518
136	0xbda8fdec	-0.08251557
137	0xbccb833a	-0.024842847
138	0xbce3e44b	-0.02781882
139	0xbd885566	-0.066569135
140	0xbde14869	-0.11000139
141	0x3e097146	0.13422117
142	0x3d1397dc	0.036033496
143	0xbd68ffc1	-0.05688453
144	0x3c976e4b	0.018485209
145	0xbd233e0b	-0.03985409
146	0xbca8e1f2	-0.020615552
147	0x3ca53ae0	0.020169675
148	0x3c9282fe	0.017884728
149	0x3e001b2b	0.12510364
150	0xbca0e64c	-0.019641064
151	0x3e04d138	0.12970436
152	0xbd999bc5	-0.07500414
153	0x3c5a2ac6	0.013315862
154	0x3d891652	0.066937104
155	0xbd56be3a	-0.052427508
156	0x3dec328a	0.11533077
157	0x3e21983f	0.15780734
158	0xbd6441e7	-0.055726912
159	0x3dfc2651	0.12311996
160	0xbd6e0b14	-0.058116034
161	0x3df05db8	0.117366254
162	0xbda34a2a	-0.0797313
163	0x3dc775e5	0.097392835
164	0x3b9725dd	0.004612668
165	0x3d09d4ce	0.033650212
166	0x3ce75e11	0.028243097
167	0xbc891b61	-0.016736688
168	0xbc9b58b7	-0.018963201
169	0xbd8e2ea4	-0.0694249
170	0xbd8b451e	-0.068002924
171	0x3dac5026	0.084137246
172	0x3da14380	0.07874203
173	0x3db16d75	0.086634554
174	0x3d24b774	0.040214017
175	0x3df30257	0.11865681
176	0x3de219a1	0.110400446
177	0xbda835c6	-0.082133815
178	0xbd0b5d16	-0.03402432
179	0xbdd3981d	-0.10331748
180	0x3d8e0b0b	0.069357
181	0x3ca421ad	0.02003559
182	0x3de2812e	0.11059795
183	0x3d81d1f1	0.06338871
184	0xbd49a6fc	-0.049231514
185	0xbd529491	-0.051411215
186	0xbda53c39	-0.08068127
187	0x3dbf00e5	0.093263425
188	0x3e03a9ff	0.12857817
189	0x3d9abd6e	0.07555662
190	0x3daae3c4	0.08344224
191	0x3df0a607	0.11750417
192	0xbb734140	-0.003711775
193	0x3dbea8e2	0.093095556
194	0x3dab6caa	0.083703354
195	0xbdc4024a	-0.09570749
196	0xbc6b88c0	-0.014375865
197	0x3df4f572	0.119608775
198	0x3d332648	0.04373768
199	0xbd99235c	-0.074774474
200	0x3dac602a	0.08416779
201	0xbda8acb0	-0.082360625
202	0xbde38c0e	-0.11110698
203	0x3d7549f8	0.059884995
204	0xbc8b37c8	-0.016994372
205	0xbde3992e	-0.11113201
206	0xbdcb3c84	-0.09923652
207	0xbde88802	-0.113540664
208	0x3ddfc6c4	0.109265834
209	0xbddd7e56	-0.10815112
210	0xbdcfd560	-0.1014812
211	0xbce47c80	-0.027891397
212	0xbd3abcb0	-0.045590103
213	0x3d904128	0.070436776
214	0x3da58172	0.0808133
215	0xbcb3e088	-0.02195765
216	0xbdf01aa4	-0.11723831
217	0xbc90bc50	-0.01766792
218	0xbb7c22c0	-0.003847286
219	0xbd137ddc	-0.0360087
220	0xbdfc62e6	-0.12323551
221	0x3d7ca19c	0.06167756
222	0xbdc3874c	-0.0954729
223	0xbdcf7bf0	-0.10131061
224	0x3d354fcc	0.044265553
225	0x3d179e8c	0.037016436
226	0x3d9fc3e8	0.07801038
227	0x3be79020	0.0070667416
228	0xbd4a1960	-0.049340606
229	0xbddc3732	-0.10752715
230	0xbcb5f8c0	-0.02221334
231	0x3da833f2	0.08213033
232	0x3b796140	0.003805235
233	0x3cfaca78	0.030614123
234	0xbd0fb340	-0.035083055
235	0x3d6cd200	0.05781746
236	0xbd2eb9d8	-0.042657703
237	0xbdd46fce	-0.103728876
238	0xbcf487c8	-0.029849902
239	0xbd03b03c	-0.032150492
240	0x3dae0aa6	0.08498125
241	0x3d17a600	0.037023544
242	0xbddcb2bc	-0.107762784
243	0xbbdd8e40	-0.0067613423
244	0xbdafa7ce	-0.08576928
245	0x3c567fd0	0.013091996
246	0xbd8f4a3a	-0.069965795
247	0x3d822d4e	0.063562974
248	0x3dd8b2ac	0.10580954
249	0xbdacddfe	-0.08440779
250	0xbd36e6cc	-0.0446537
251	0xbdca3358	-0.09873074
252	0x3beec5e0	0.007286772
253	0x3d500388	0.050784618
254	0xbd9650b2	-0.0733961
255	0x3dc75e3c	0.09734771

fc1.bias f4 [128]
0	0xbd9c947a	-0.07645507
1	0x3d72bd59	0.059262607
2	0x3d8f43d3	0.06995358
3	0xbddc50d6	-0.10757606
4	0xbda4a1ce	-0.08038674
5	0x3c94b680	0.018153429
6	0xbe0ed249	-0.13947405
7	0x3d18fc73	0.03735013
8	0x3de0ee80	0.1098299
9	0xbc90c300	-0.017671108
10	0x3d1ae82c	0.037819073
11	0x3de24bb6	0.11049597
12	0x3d1e58ed	0.038659025
13	0x3da28a13	0.07936492
14	0x3d9adc9a	0.07561608
15	0xbd1fe978	-0.039041013
16	0xbcaa0273	-0.020753121
17	0x3dac3d17	0.084100895
18	0x3d6494f7	0.055806126
19	0xbb9fa183	-0.0048715486
20	0xbd9b4a81	-0.0758257
21	0x3c6286a0	0.013826042
22	0x3dc2424e	0.09485303
23	0xbdb93818	-0.09043902
24	0x3d67b7f7	0.056571927
25	0x3d8735c9	0.066020556
26	0x3d64a679	0.055822823
27	0xbcfcd55b	-0.030863455
28	0x3d1cd71c	0.03829108
29	0xbde78c5c	-0.11306068
30	0xbd818722	-0.06324603
31	0x3d5285cc	0.05139713
32	0xbd278458	-0.040897697
33	0x3d26360d	0.04057889
34	0x3c3ccd88	0.011523612
35	0xbd2cb77b	-0.042167168
36	0x3d631979	0.055444214
37	0x3dba424b	0.09094676
38	0xbbd66320	-0.0065425783
39	0x3dbcdf05	0.09222225
40	0xbbe420a3	-0.0069618984
41	0x3d656f0c	0.056014106
42	0xbdd7c6ee	-0.1053599
43	0xbdcb4a40	-0.099262714
44	0x3a662000	0.0008778572
45	0x3d3f8fb9	0.046767924
46	0x3d64ebf9	0.055889104
47	0xbcfb0254	-0.030640759
48	0xbdcfa892	-0.10139574
49	0xbcbdee20	-0.023184836
50	0xbcbe1539	-0.02320348
51	0xbd0e5ecb	-0.03475837
52	0xbdbf792c	-0.093492836
53	0x3cc7fd73	0.024412846
54	0x3dda14a5	0.10648469
55	0xbcfca5e9	-0.03084083
56	0xbc49b0cc	-0.012310218
57	0x3bd96972	0.0066348845
58	0x3da76f91	0.081755765
59	0xbcaf4dee	-0.021399464
60	0x3e09c081	0.1345234
61	0xbcdfdebd	-0.02732789
62	0x3d8c211c	0.068422526
63	0xbdd1313f	-0.10214471
64	0xbc888f62	-0.016669933
65	0xbe042226	-0.12903652
66	0x3d0b60b9	0.03402779
67	0x3cc192b2	0.02362952
68	0xbd37989a	-0.044823267
69	0xbc9c53c0	-0.019082904
70	0xbd9e5c33	-0.07732429
71	0xbdc42399	-0.09577102
72	0xbd71d2c0	-0.059038877
73	0x3d6e272b	0.058142822
74	0xbdaddc98	-0.084893405
75	0x3dd53218	0.10409945
76	0xbd8b6d6d	-0.06807981
77	0xbda4e616	-0.08051698
78	0x3b88fcaf	0.004180513
79	0xbd9a39c2	-0.07530548
80	0xbdcb6d23	-0.099329256
81	0xbdd4d386	-0.103919074
82	0xbda93f4f	-0.08264028
83	0xbd91640b	-0.0709916
84	0x3ddc03b9	0.107428975
85	0x3d98e2ef	0.07465159
86	0xbe0d2ec8	-0.13787377
87	0xbc61244b	-0.013741563
88	0xbdef7ead	-0.11694083
89	0x3daafcb6	0.08348982
90	0xbd83953d	-0.06424949
91	0x3c094ad8	0.008379661
92	0xbd96f32a	-0.073705986
93	0x3dd27f06	0.10278134
94	0x3d9ef0ed	0.07760797
95	0xbdb93f3e	-0.090452656
96	0xbdc423ed	-0.09577165
97	0xbdcec1b3	-0.10095539
98	0x3d64eb53	0.055888485
99	0xbd3b552d	-0.045735527
100	0xbda67189	-0.08127124
101	0xbdc8130a	-0.097692564
102	0x3cd2d0cb	0.025734326
103	0x3d9315e5	0.071819104
104	0xbd83f316	-0.06442849
105	0x3ddeb7f0	0.10874927
106	0x3df9bc61	0.121941335
107	0xbcab008d	-0.020874286
108	0xbd2d6287	-0.04233029
109	0xbd7a8c73	-0.0611691
110	0xbc3945b4	-0.011308122
111	0xbd70de04	-0.05880548
112	0xbdbe982c	-0.09306368
113	0x3dd55d48	0.104181826
114	0x3d1b2ae7	0.03788271
115	0xbd843102	-0.0645466
116	0x3cd8c4b6	0.026460987
117	0x3da5137e	0.080603585
118	0x3d4a3d19	0.049374674
119	0xbd291350	-0.041278183
120	0x3d44e77a	0.048072316
121	0xbd900ad4	-0.07033315
122	0xbcdd6ee9	-0.027030425
123	0xbd8a4278	-0.06750959
124	0x3dde0023	0.1083987
125	0xbd32dc92	-0.043667383
126	0xbda0f8ec	-0.07859978
127	0x3d554760	0.05207002
