checkpoints/last_gap.pth (torch, 412119 bytes, 54 tensors)

conv1.weight f4 [16, 3, 3, 3]
0	0x3e119044	0.14215189
1	0x3de037a3	0.10948112
2	0xbdf845ec	-0.121227115
3	0x3d459313	0.048235964
4	0x3e3f7328	0.18696272
5	0x3d56d01e	0.05244457
6	0xbcb0e5fd	-0.021594042
7	0x3e236027	0.15954648
8	0xbe1a874f	-0.15090679
9	0x3df33bab	0.11876615
10	0x3c939adc	0.018018179
11	0x3d31cb33	0.043406677
12	0x3e3c0ca5	0.18364199
13	0x3d90cf4c	0.07070789
14	0xbdb492a2	-0.088170305
15	0x3d66bdf8	0.056333512
16	0x3d8d0c8f	0.06887161
17	0xbceeaa06	-0.029133808
18	0x3be369ee	0.006940118
19	0xbe031d1d	-0.12804075
20	0xbe283270	-0.1642549
21	0xbde03d45	-0.10949186
22	0xbe1be212	-0.15222958
23	0xbe015b21	-0.12632419
24	0x3e152d8a	0.14568153
25	0xbe0e180f	-0.13876365
26	0xbe0125bf	-0.12612055
27	0xbde7cfd9	-0.11318941
28	0xbd72aaa4	-0.059244767
29	0x3e1c8397	0.15284573
30	0x3e1f1872	0.15536669
31	0xbd1feba2	-0.039043076
32	0x3d994608	0.074840605
33	0xbe2b1ba3	-0.16709761
34	0x3ba39cd2	0.0049930597
35	0x3db269c9	0.08711583
36	0xbe097108	-0.13422024
37	0xbd6a5732	-0.057212062
38	0xbda7b727	-0.081892304
39	0x3e42e0e0	0.19031096
40	0x3b52bc02	0.0032155518
41	0xbe09b585	-0.1344815
42	0x3e522ade	0.20524165
43	0x3d7e9c26	0.062160634
44	0xbe268f98	-0.16265714
45	0xbcb64068	-0.022247508
46	0xbe3c7c74	-0.1840685
47	0x3e240354	0.16016895
48	0x3e571478	0.21003902
49	0xbda04b88	-0.078269064
50	0xbdee2a94	-0.11629215
51	0xbcd03915	-0.025417844
52	0xbd8fde1d	-0.070247866
53	0x3d41afd5	0.047286827
54	0xbe20790d	-0.15671177
55	0x3d892295	0.06696049
56	0xbe1e0e67	-0.15435182
57	0x3bc1dde2	0.005916343
58	0x3e29fa74	0.16599447
59	0x3e047cfd	0.12938304
60	0xbc58f8fa	-0.013242954
61	0xbd160475	-0.036625344
62	0x3e2b43b4	0.16725045
63	0x3d5a7c4b	0.05334119
64	0xbe388954	-0.18021137
65	0x3db51d33	0.0884346
66	0xbd134276	-0.035952054
67	0x3e4e9982	0.20175746
68	0xbe0a5cc9	-0.13511957
69	0x3dbc1390	0.09183419
70	0x3ded7db0	0.115962386
71	0x3e0b698d	0.13614483
72	0xbb1889a1	-0.0023275393
73	0xbe70bb64	-0.23508984
74	0xbe12838b	-0.14307992
75	0xbe3c2d36	-0.18376622
76	0xbdc19ed3	-0.094541214
77	0xbe0e4b8e	-0.1389601
78	0xbce02cd8	-0.027365133
79	0xbe02d79c	-0.12777561
80	0x3dd0061d	0.10157416
81	0xbe23fa9a	-0.16013566
82	0x3e35f4ac	0.17769116
83	0x3d1a5e4b	0.03768758
84	0x3d40ebe7	0.047099974
85	0x3ddce2e2	0.10785462
86	0x3e31a2f8	0.17347324
87	0x3e0449d9	0.12918796
88	0xbe412888	-0.18863118
89	0xbd471194	-0.04860075
90	0xbe298b4f	-0.16557048
91	0xbdde68cc	-0.10859832
92	0x3e1c5c2d	0.15269537
93	0xbe154bac	-0.14579648
94	0x3d007e19	0.031370256
95	0xbe05fade	-0.1308398
96	0x3dcf6826	0.101272866
97	0x3d927a87	0.071522765
98	0xbe0c4768	-0.13699114
99	0xbe13ce96	-0.14434275
100	0x3e228b02	0.1587334
101	0x3d0986f8	0.03357598
102	0xbd793e2c	-0.060850307
103	0x3ded0a62	0.11574246
104	0x3d2839c0	0.0410707
105	0x3d955dc3	0.07293274
106	0xbe14fb8d	-0.14549084
107	0xbd92cb1c	-0.07167646
108	0x3e0fb0fd	0.1403236
109	0xbe44963b	-0.19197933
110	0xbe273bfc	-0.16331476
111	0xbce0fda9	-0.027464705
112	0xbdaeafe5	-0.08529643
113	0x3d9abee0	0.07555938
114	0xbd056a5a	-0.032572128
115	0x3ddfb2ef	0.10922801
116	0xbe098967	-0.13431321
117	0x3e395fd1	0.18102957
118	0x3bd78ca2	0.006578044
119	0x3c9e187e	0.019298788
120	0xbe4583eb	-0.19288604
121	0xbe05c58a	-0.13063636
122	0x3ce02497	0.027361197
123	0x3e0d08cb	0.13772886
124	0xbd004967	-0.031320002
125	0x3e273fef	0.16332982
126	0x3e1eae27	0.15496121
127	0xbe073baa	-0.13206354
128	0xbdfa6055	-0.12225405
129	0x3c40da51	0.011770801
130	0x3da2fc5b	0.07958289
131	0x3da22573	0.07917299
132	0x3de181d0	0.11011088
133	0xbdd964bf	-0.10614919
134	0xbc979a25	-0.018506119
135	0xbea2b9b7	-0.31782314
136	0x3d50290c	0.050820395
137	0x3dc58e0e	0.096462354
138	0x3d551166	0.052018546
139	0x3e297fc1	0.1655264
140	0xbe355451	-0.17707945
141	0x3d8a0876	0.06739895
142	0x3da31a7d	0.079640366
143	0xbd017def	-0.03161424
144	0xbda0c1e9	-0.078494854
145	0x3db32d02	0.08748819
146	0xbe74c3a6	-0.23902759
147	0x3d5b5dac	0.05355613
148	0x3e421126	0.18951854
149	0x3dce2313	0.100652836
150	0x3b3b5da1	0.0028589743
151	0xbcf345c3	-0.02969635
152	0xbe350bd1	-0.17680289
153	0xbdb1ae78	-0.086758554
154	0x3da75ed0	0.08172381
155	0x3e1fca6a	0.15604559
156	0x3d47ada1	0.04874957
157	0x3e177f2d	0.14794607
158	0x3e156aa1	0.14591457
159	0x3c03fc3f	0.008055746
160	0xbd00329d	-0.03129827
161	0xbe14973b	-0.14510815
162	0xbd9f1f96	-0.077696964
163	0x3db79c42	0.08965351
164	0x3e59e860	0.2128005
165	0xbe002143	-0.12512688
166	0x3d2240a2	0.03961242
167	0xbe2c60ad	-0.16833754
168	0xbe1414cc	-0.14461058
169	0x3e07c730	0.13259578
170	0xbc76715e	-0.015041677
171	0xbe0c822b	-0.1372153
172	0x3d92e512	0.07172598
173	0xbdbb7dd4	-0.09154859
174	0xbd96e68a	-0.073681906
175	0x3cbfba1b	0.023404172
176	0x3df4d77f	0.11955165
177	0xbd8ed9d4	-0.06975141
178	0xbc9d888d	-0.019230152
179	0xbdae3e54	-0.08507982
180	0x3db266c0	0.08711004
181	0xbde7801a	-0.1130373
182	0xbd64d100	-0.05586338
183	0xbdd5c7ea	-0.10438521
184	0x3e7eb5d6	0.24874052
185	0x3e26da3e	0.1629419
186	0xbdd65dda	-0.104671195
187	0x3e292fab	0.1652209
188	0x3e47649f	0.19471978
189	0xbd03eea6	-0.032210015
190	0x3e16b46c	0.14717263
191	0x3df75b85	0.12078003
192	0x3d3d02e3	0.04614533
193	0xbd9a56ec	-0.0753611
194	0xbe3d156b	-0.18465202
195	0xbe152804	-0.14566046
196	0xbcc16afd	-0.023610586
197	0x3e4f92f6	0.20270905
198	0x3e0c534c	0.1370365
199	0x3e0d1422	0.13777211
200	0xbe120c39	-0.14262475
201	0x3da700fa	0.08154483
202	0xbe5ba46e	-0.21449444
203	0xbe1fd405	-0.15608223
204	0x3df00bd2	0.117210045
205	0xbd881e3b	-0.06646391
206	0xbcf30189	-0.029663818
207	0xbe1faf1e	-0.15594146
208	0x3e4c1b40	0.1993227
209	0x3ddf16e4	0.10893038
210	0xbda1f921	-0.07908846
211	0xbe51a582	-0.20473292
212	0x3e2cd315	0.16877396
213	0xbc666b22	-0.014063628
214	0xbe228431	-0.1587074
215	0x3e17656e	0.14784786
216	0x3e41d683	0.18929486
217	0x3e1af214	0.15131408
218	0x3e0052f7	0.12531649
219	0x3ce6392f	0.02810344
220	0x3d0a8c3d	0.033825148
221	0x3da9da54	0.08293596
222	0xba8c8819	-0.0010721713
223	0xbd61b395	-0.055102903
224	0xbe245dc9	-0.16051401
225	0x3ca9399f	0.020657359
226	0x3cece8f2	0.02891967
227	0x3c54b79a	0.012983227
228	0xbe059c2d	-0.13047858
229	0x3d449e9a	0.048002817
230	0x3dd9b544	0.10630277
231	0xbe272326	-0.16322002
232	0xbd87ac75	-0.066246904
233	0xbe3696e7	-0.17831002
234	0xbcd074c1	-0.025446298
235	0x3d062ad7	0.0327557
236	0xbd9ac559	-0.07557172
237	0xbd2ce57a	-0.042211033
238	0x3c9c6db3	0.019095277
239	0xbde7e9ad	-0.11323867
240	0xbcf97ef4	-0.030456044
241	0xbdf5d816	-0.12004106
242	0x3e1ca8a8	0.15298712
243	0xbda1d5ef	-0.07902133
244	0x3c0d1a91	0.008612291
245	0x3dbd2ff9	0.09237666
246	0x3d086fec	0.033309862
247	0xbdd5dd66	-0.10442619
248	0xbdbebf7f	-0.09313869
249	0x3da8e353	0.08246484
250	0x3e3834be	0.1798887
251	0x3d893d3c	0.06701133
252	0xbe66c4d5	-0.22536023
253	0xbe05ab56	-0.1305364
254	0xbd479428	-0.048725277
255	0x3ddd0c3a	0.10793348

conv1.bias f4 [16]
0	0x3e2a8a4a	0.16654316
1	0x3e40802a	0.1879889
2	0x3e255113	0.16144209
3	0x3c3274a2	0.010892065
4	0xbd8a1f4d	-0.067442514
5	0x3d7d09ec	0.06177704
6	0x3d82db8d	0.06389532
7	0xbd8ee9d5	-0.06978194
8	0xbdc1a617	-0.09455507
9	0x3d14312c	0.036179706
10	0xbc929c49	-0.017896788
11	0x3e36d468	0.17854464
12	0xbc3664dd	-0.011132446
13	0x3e3b0f4e	0.18267557
14	0x3d4542a4	0.048159257
15	0xbd108082	-0.035278805

bn1.weight f4 [16]
0	0x3f704989	0.93862206
1	0x3f820e7e	1.0160673
2	0x3f7cbcef	0.9872579
3	0x3f851469	1.0396854
4	0x3f8df52a	1.1090443
5	0x3f553355	0.8328145
6	0x3f886b05	1.065766
7	0x3f7c9a54	0.98672986
8	0x3f7f3c20	0.9970112
9	0x3f895cad	1.0731407
10	0x3f849750	1.0358677
11	0x3f5f7627	0.8728966
12	0x3f5e90a5	0.8693946
13	0x3f83bc2d	1.0291802
14	0x3f8226c9	1.0168086
15	0x3f88d64f	1.0690402

bn1.bias f4 [16]
0	0xbd9917a9	-0.07475216
1	0x3d933d80	0.071894646
2	0x3d692d16	0.056927763
3	0x3df8908d	0.12136946
4	0x3c72a25b	0.014809216
5	0x3b2a1935	0.0025954966
6	0xbcbeaef6	-0.023276787
7	0xbd23d370	-0.039996564
8	0x3d99bf48	0.07507187
9	0x3cc138a9	0.023586588
10	0x3d4c8f4d	0.04994135
11	0xbdc909f5	-0.09816352
12	0xbcb04b26	-0.021520209
13	0x3cfa9528	0.030588701
14	0x3db42f43	0.08798077
15	0xbc935966	-0.017986964

bn1.running_mean f4 [16]
0	0x3de71137	0.1128258
1	0x3df8ca26	0.12147932
2	0xbe423e3a	-0.1896905
3	0x3ba0113d	0.0048848675
4	0xbdced6c3	-0.10099556
5	0x3eb0c082	0.34521872
6	0x3e7f0961	0.24905922
7	0xbdfaab44	-0.122396976
8	0xbe693d94	-0.22777396
9	0xbd2b29b2	-0.04178781
10	0xbd6ac806	-0.057319663
11	0x3e62fc13	0.22166471
12	0x3eaf6473	0.34256324
13	0x3e4af734	0.19820863
14	0x3e036999	0.12833251
15	0xbd7d0c39	-0.061779235

bn1.running_var f4 [16]
0	0x3e028f0e	0.12749884
1	0x3dab86e8	0.08375341
2	0x3e192cd7	0.14958511
3	0x3db3eca9	0.08785374
4	0x3da5291b	0.08064481
5	0x3e3a1cc1	0.18175031
6	0x3e0eca8a	0.1394445
7	0x3e02f2e1	0.12787963
8	0x3deaf265	0.11472014
9	0x3e23a943	0.15982537
10	0x3d02471e	0.031806104
11	0x3d7d1fea	0.061798014
12	0x3e5ebda0	0.21752024
13	0x3dd597a7	0.10429316
14	0x3e0e35fe	0.13887784
15	0x3da4cba0	0.08046651

conv2.weight f4 [32, 16, 3, 3]
0	0x3cfe8871	0.03107092
1	0xbd02d02c	-0.03193681
2	0x3d249fb2	0.04019136
3	0xbd005dbe	-0.0313394
4	0x3d9b2983	0.07576277
5	0xbd84fcd5	-0.064935364
6	0xbdc159bf	-0.09440946
7	0xbd709423	-0.058735024
8	0x3d3753fd	0.04475783
9	0xbc6563c5	-0.014000838
10	0xbc17aaa9	-0.009256997
11	0xbcf815dc	-0.03028386
12	0xbd34f70b	-0.04418091
13	0x3c3a6174	0.011375774
14	0x3da6fff8	0.08154291
15	0xbd264e8a	-0.040602244
16	0xbd06e5fa	-0.032934166
17	0xbd93f51d	-0.07224486
18	0x3db8698b	0.09004506
19	0xbd0e71a8	-0.03477636
20	0x3dbb4da3	0.091456674
21	0x3d22bd68	0.039731413
22	0x3c56cc7f	0.013110279
23	0x3c196158	0.009361587
24	0x3db73b87	0.08946901
25	0x3a9dd434	0.0012041391
26	0xbdce4486	-0.100716636
27	0xbd228df4	-0.03968616
28	0xbd74ce32	-0.059766956
29	0xbdf50b1f	-0.11965012
30	0xbd7a9205	-0.06117441
31	0x3c98e57e	0.018664118
32	0x3cf80475	0.030275563
33	0xbd61ee66	-0.055158995
34	0xbc89fdbf	-0.016844628
35	0xbe194d3a	-0.14970866
36	0x3b210bc6	0.0024573668
37	0x3d8653e2	0.06558968
38	0xbd8ec644	-0.0697141
39	0x3d12ebef	0.035869535
40	0x3dc29285	0.09500603
41	0x3da1216b	0.07867702
42	0xbe07e8fa	-0.13272467
43	0xbd866897	-0.06562918
44	0xbdb61b83	-0.08891966
45	0xbb8bbefc	-0.0042647105
46	0xbd96fff7	-0.0737304
47	0xbc8473a9	-0.016168432
48	0x3d96a542	0.07355739
49	0xbd52b1ba	-0.051439025
50	0x3d90906a	0.07058795
51	0xbd8b155f	-0.067911856
52	0x3da8e966	0.08247642
53	0xbc888da4	-0.016669102
54	0x3dbd2834	0.09236184
55	0xbcda4aaf	-0.02664694
56	0xbd5a40ec	-0.05328457
57	0x3c8dafae	0.017295685
58	0xbca77fe5	-0.020446727
59	0x3b7a6612	0.0038207811
60	0xbd0b29db	-0.033975463
61	0x3d0a6943	0.03379179
62	0xbdffd90c	-0.1249257
63	0xbdca1549	-0.09867341
64	0xbd947830	-0.072494864
65	0xbd57b2c5	-0.052660722
66	0x3cbcce96	0.023047727
67	0x3c8e8e20	0.017401755
68	0x3d088172	0.033326574
69	0xbc73f867	-0.014890767
70	0x3db4004a	0.08789118
71	0x3ca0f8b5	0.019649843
72	0xbdb331b4	-0.087497145
73	0xbda2c4fa	-0.079477265
74	0xbe03d1c1	-0.12872984
75	0x3d6da4bf	0.058018442
76	0xbd3e0827	-0.046394493
77	0xbd0b8a48	-0.034067422
78	0xbcd6246b	-0.026140412
79	0x3d4defd2	0.05027754
80	0x3d3251a0	0.043534875
81	0x3bef08d5	0.007294754
82	0xbbc9b55b	-0.0061556525
83	0xbd5992f6	-0.05311867
84	0xbd5c0123	-0.05371202
85	0xbcf1ae89	-0.02950217
86	0x3c1410d8	0.009037219
87	0xbe31b977	-0.17355905
88	0xbdad446c	-0.08460316
89	0xbde8732e	-0.11350094
90	0xbd48cbcb	-0.049022477
91	0x3d17ee1e	0.03709232
92	0xbd07037b	-0.032962304
93	0x3c504b94	0.012713332
94	0x3c0c0bef	0.008547767
95	0x3ce2ec12	0.027700458
96	0xbc84499a	-0.016148377
97	0xbd21a393	-0.039462637
98	0xbbc59953	-0.0060302406
99	0xbbcd6b21	-0.0062688743
100	0xbd3302ba	-0.043703772
101	0x3ab9ba93	0.0014169983
102	0xbce13d85	-0.027495155
103	0x3d4845a5	0.048894543
104	0xbca88b4a	-0.02057423
105	0xbd49acf0	-0.04923719
106	0x3ce92e7a	0.028464545
107	0xbd062703	-0.03275205
108	0xbc8586fc	-0.016299717
109	0xbce69838	-0.028148755
110	0xbbc2d028	-0.0059452243
111	0x3b9d93e8	0.0048088916
112	0x3c800f3f	0.01563227
113	0x3d305857	0.043052997
114	0x3cb0980f	0.021556882
115	0x3d796a39	0.060892317
116	0xbd3c6e20	-0.04600346
117	0x3d26eb20	0.040751576
118	0x3cc9f540	0.024653077
119	0xbde3a10f	-0.11114704
120	0xbd42a668	-0.04752198
121	0x3ddf1517	0.108926944
122	0x3cfbf86f	0.03075811
123	0xbe0e3d4d	-0.13890572
124	0x3cf572d4	0.02996198
125	0x3b0dd427	0.0021641345
126	0x3c36d0e7	0.011158205
127	0xba20d252	-0.0006134856
128	0xbd78607b	-0.060638886
129	0xbc56d078	-0.013111226
130	0xb9cad9d8	-0.0003869075
131	0x3d85c91b	0.065324984
132	0xbd8ffdf1	-0.07030857
133	0x3c0cbbf6	0.008589735
134	0xbde254f9	-0.110513635
135	0xbdad6005	-0.0846558
136	0xbe175623	-0.14778952
137	0xbde889bd	-0.113543965
138	0x3cf1d1a3	0.029518908
139	0xbd8ec1fd	-0.06970594
140	0xbd13efc1	-0.03611732
141	0x3d978395	0.07398144
142	0x3ddb4b75	0.10707752
143	0xbd6384bd	-0.05554651
144	0x3cb456d4	0.02201406
145	0xbd89ca3c	-0.06728026
146	0xbc4043d2	-0.01173492
147	0x3d9236b9	0.07139344
148	0x3b2e583f	0.0026602892
149	0xbcb466b9	-0.022021638
150	0xbbe83218	-0.0070860498
151	0x3d47dd02	0.048794754
152	0x3ab5e782	0.0013878199
153	0xbcfedabf	-0.031110166
154	0xbd168f6c	-0.03675787
155	0x3d8dd83c	0.06926009
156	0xbce9432b	-0.028474411
157	0x3dac737c	0.084204644
158	0xbd44aa8c	-0.04801421
159	0xbd8306c5	-0.063977756
160	0xbd257b61	-0.040400866
161	0xbd759ecc	-0.059965894
162	0x3d9425a3	0.07233741
163	0xbd03c0b3	-0.032166194
164	0x3d945a20	0.072437525
165	0xbbe0fb47	-0.006865892
166	0x3dc5f8fe	0.09666632
167	0xbd410bc1	-0.04713035
168	0xbdaeb5b8	-0.08530754
169	0xbd856d55	-0.06514994
170	0x3d9fcb1a	0.078024104
171	0xbdd28238	-0.102787435
172	0xbdba9f86	-0.09112458
173	0x3d503472	0.050831266
174	0xbc2495b4	-0.010045458
175	0xbd718960	-0.0589689
176	0x3d33e05a	0.04391513
177	0xbb04d664	-0.0020269388
178	0xbc52f715	-0.012876292
179	0x3b81f476	0.0039659096
180	0x3db244fb	0.08704563
181	0xbdcb2c38	-0.099205434
182	0xbd76f531	-0.060292426
183	0x3dde54f5	0.10856048
184	0xbdd1144a	-0.10208948
185	0xbc6eb8f9	-0.014570468
186	0xbc550dc6	-0.013003772
187	0xbd5a34b9	-0.053272936
188	0x3d33a4a2	0.043858178
189	0x3cf418ac	0.02979692
190	0x3c7c765f	0.015409081
191	0x3d39fe6a	0.045408644
192	0xbd94a695	-0.072583355
193	0xbd902fa3	-0.07040336
194	0x3d718d29	0.05897251
195	0xbd966443	-0.07343342
196	0xbcff54d8	-0.031168386
197	0x3d7e1630	0.06203288
198	0xbdc31f52	-0.09527458
199	0xbd8dfca9	-0.06932957
200	0x3cdf841a	0.02728467
201	0xbda26a86	-0.07930474
202	0xbdb47ec9	-0.08813245
203	0xbd80d63d	-0.06290863
204	0xbcb6a9f3	-0.022297835
205	0xbdc95ebb	-0.098325215
206	0xbbd00098	-0.006347727
207	0xbd5f0241	-0.05444551
208	0xbcbe5f4c	-0.0232388
209	0xbdc8d53e	-0.09806298
210	0x3d814028	0.06311065
211	0x3ca72979	0.020405518
212	0x3d16b0bd	0.036789645
213	0x3d8003ef	0.0625075
214	0x3d0e483e	0.034736864
215	0x3d50bc0c	0.050960585
216	0xbd94692a	-0.07246621
217	0xbdb478af	-0.08812081
218	0x3d3f37d9	0.04668412
219	0xbcd9d1d8	-0.02658932
220	0x3c6af5c4	0.014340822
221	0xbca74819	-0.020420121
222	0x3dcc647e	0.09980105
223	0xbd240203	-0.04004098
224	0xbd1dcb7d	-0.03852414
225	0xbb02851c	-0.0019915765
226	0xbc8f8e0a	-0.017523784
227	0xbcb7224f	-0.022355227
228	0x3d32e345	0.043673772
229	0xbd6ae455	-0.05734666
230	0xbcdb917f	-0.026802776
231	0xbd912113	-0.070863865
232	0xbdd109e2	-0.10206963
233	0x3bee2291	0.007267304
234	0xbd37a9d6	-0.044839703
235	0xbd53a503	-0.05167104
236	0x3ca4be64	0.020110317
237	0x3d8a7a30	0.06761587
238	0xbd5da5f8	-0.05411336
239	0xbda27790	-0.07932961
240	0xbcdb9a12	-0.026806865
241	0xbd245f07	-0.040129688
242	0x3c04cd16	0.008105537
243	0xbc3c7f8c	-0.011505019
244	0x3cab26f4	0.020892598
245	0x3d25bba0	0.040462136
246	0x3d596bfc	0.053081498
247	0x3d075525	0.033040185
248	0xbd0332ea	-0.032030977
249	0xbd0638ea	-0.03276912
250	0xbbec25a5	-0.007206636
251	0xba4ce2a1	-0.0007815753
252	0xbcd79d6a	-0.026320178
253	0x3cc27bd8	0.023740694
254	0xbd723741	-0.059134725
255	0x3d4fc575	0.05072542

conv2.bias f4 [32]
0	0xbb4636ec	-0.0030245138
1	0x3d1fd2ab	0.039019268
2	0xbb3c28c8	-0.002871083
3	0xbd1ce710	-0.038306296
4	0x3d1f6607	0.03891566
5	0x3d360856	0.044441544
6	0xbd481858	-0.04885134
7	0xbbe8b8f0	-0.0071021244
8	0x3b9a9cee	0.0047184145
9	0x3d2d4074	0.042297795
10	0x3ccbf46c	0.024896823
11	0xbd44f3bd	-0.04808401
12	0xbdaa1ae5	-0.08305911
13	0x39753423	0.00023384443
14	0xbbba70c3	-0.005689712
15	0xbd2047e2	-0.039131053
16	0xbd770d90	-0.06031567
17	0xbda037fb	-0.078231774
18	0x3be73efc	0.007057069
19	0xbcfd11a6	-0.030892204
20	0xbc97ca14	-0.018528976
21	0x3d41b9ba	0.047296263
22	0x3d374050	0.044739068
23	0xbd85ce59	-0.06533498
24	0x3c683dec	0.01417492
25	0xbbddb2f7	-0.006765719
26	0x3d2389cf	0.039926346
27	0xbc3b7cae	-0.0114433
28	0x3da0ba89	0.07848079
29	0xbc8bfd5d	-0.017088586
30	0xbbf32b85	-0.0074209594
31	0x3d169177	0.03675982

bn2.weight f4 [32]
0	0x3f7e4b3f	0.99333566
1	0x3f6b1c48	0.9184003
2	0x3f7475cc	0.95492244
3	0x3f78c826	0.971804
4	0x3f85ea29	1.0462085
5	0x3f80ee2c	1.0072684
6	0x3f5f8fbe	0.8732871
7	0x3f89d5a7	1.0768327
8	0x3f725a2c	0.9466884
9	0x3f78e5d2	0.9722568
10	0x3f824e96	1.0180233
11	0x3f6246bd	0.8838919
12	0x3f7b8941	0.9825631
13	0x3f828cdf	1.019924
14	0x3f74a49e	0.95563686
15	0x3f81326d	1.0093514
16	0x3f62dd41	0.88618857
17	0x3f80ea30	1.0071468
18	0x3f8760af	1.057638
19	0x3f88c118	1.0683928
20	0x3f8336b4	1.0251069
21	0x3f735fa2	0.950678
22	0x3f82804a	1.0195401
23	0x3f77cd1a	0.96797335
24	0x3f831729	1.0241443
25	0x3f7e9593	0.9944698
26	0x3f868bd8	1.0511427
27	0x3f73698b	0.9508292
28	0x3f84e8e9	1.0383579
29	0x3f7ae1e9	0.9800096
30	0x3f898575	1.0743853
31	0x3f73bd5f	0.9521083

bn2.bias f4 [32]
0	0xbda97521	-0.08274294
1	0xbe09a819	-0.1344303
2	0xbe616374	-0.22010595
3	0xbe07de5a	-0.13268414
4	0x3c338d8d	0.010959041
5	0xbdd32889	-0.10310466
6	0xbe590956	-0.21194968
7	0xbd06d04b	-0.032913487
8	0xbda02ba2	-0.07820822
9	0x3c68ad45	0.014201467
10	0x3cf5eebb	0.030021062
11	0xbe2ad7ef	-0.16683935
12	0x3ca6275a	0.020282436
13	0x3cdd2a97	0.026997847
14	0xbd6ef24e	-0.05833655
15	0xbbae21c9	-0.005314086
16	0xbdf2cc53	-0.11855378
17	0xbe30981e	-0.17245528
18	0xbda3e52a	-0.08002694
19	0xbd809c89	-0.06279857
20	0xbd82cc68	-0.06386644
21	0xbe1a8e11	-0.15093257
22	0x3d34dc83	0.04415561
23	0xbbd487af	-0.0064859013
24	0x3c40c472	0.011765586
25	0xbcc59135	-0.024117092
26	0xbce0b463	-0.027429765
27	0xbdb2008f	-0.08691513
28	0x3c5905f0	0.0132460445
29	0xbe12e491	-0.14345004
30	0x3bc707a0	0.006073907
31	0xbe29a4dd	-0.16566797

bn2.running_mean f4 [32]
0	0xbf12a31b	-0.5728013
1	0xbf6f216d	-0.9341038
2	0xbf871c48	-1.0555506
3	0xbfb3740a	-1.4019787
4	0xbe523ac9	-0.20530237
5	0xbfd21354	-1.6412148
6	0xbfe7ad32	-1.809973
7	0xbed918c6	-0.42401713
8	0xbf77e333	-0.96831053
9	0xbef64f72	-0.48107487
10	0xbda5dcd9	-0.08098764
11	0xbf32b0c6	-0.69800985
12	0xbda664b6	-0.08124678
13	0x3deeda4c	0.116627306
14	0xbf62ff97	-0.8867125
15	0xbe9a76ad	-0.30168667
16	0xbf1fa29b	-0.6235749
17	0xbfa426bd	-1.2824322
18	0xbee9b706	-0.45647448
19	0x3dc6f696	0.09715001
20	0xbe85b19a	-0.26112062
21	0xbfcbc53e	-1.5919569
22	0x3e65db48	0.2244693
23	0xbeb9f3c9	-0.36318806
24	0xbe74a280	-0.23890114
25	0x3dca5475	0.0987939
26	0xbf0c7546	-0.54866445
27	0xbfa90ed8	-1.3207655
28	0xbd1658f6	-0.036705934
29	0xbf657442	-0.8963052
30	0xbe6b5d9e	-0.22984931
31	0xbf6aed4d	-0.9176834

bn2.running_var f4 [32]
0	0x3f50f763	0.8162748
1	0x3f509e9a	0.81492007
2	0x3f80b98a	1.0056622
3	0x4001c0a3	2.0273826
4	0x3f0152ca	0.5051695
5	0x3fe21846	1.7663658
6	0x403d81f0	2.9610558
7	0x3fb70b3c	1.4300303
8	0x3faaede1	1.3353845
9	0x3f73412d	0.95021325
10	0x3f346087	0.7045979
11	0x3f4cf68c	0.800637
12	0x3f5ddb48	0.8666272
13	0x3f5945ce	0.8487214
14	0x3fb6b3c0	1.4273605
15	0x3f85eb89	1.0462505
16	0x3f6278a6	0.88465345
17	0x3fa2b52c	1.2711539
18	0x3f7f67d5	0.9976781
19	0x3f498304	0.7871554
20	0x3fbb0e69	1.4613773
21	0x3ffebdbc	1.9901652
22	0x3f0e0947	0.55482906
23	0x3f18dbc9	0.59710366
24	0x3efb139b	0.49038395
25	0x3ef382f0	0.47560835
26	0x3fb51ff4	1.4150376
27	0x3fcc90e6	1.598172
28	0x3f1bbc4b	0.6083419
29	0x3f35030b	0.7070777
30	0x3f9193bf	1.1373214
31	0x3f825026	1.0180709

conv3.weight f4 [64, 32, 3, 3]
0	0x3ba5347e	0.005041658
1	0xbd12675f	-0.035743114
2	0xbd431e50	-0.04763633
3	0x3d493cd1	0.049130265
4	0xbdc9aa79	-0.09846968
5	0xbd16a9c6	-0.036783002
6	0x3d014036	0.031555377
7	0x3dafbf15	0.08581368
8	0x3c89dbda	0.016828466
9	0x3d4afe38	0.04955885
10	0xbcbfce80	-0.023413897
11	0x3b950b49	0.0045484644
12	0x3d9dea64	0.07710722
13	0xbd8f00ef	-0.069826
14	0xbdac9872	-0.08427514
15	0x3c4cf92e	0.012510581
16	0x3cf0d8f9	0.029400336
17	0x3cb7a536	0.022417646
18	0x3cdb8576	0.026797038
19	0xbbd8490e	-0.0066005057
20	0x3d0ff73f	0.0351479
21	0x3d221db4	0.03957911
22	0xbd480d93	-0.04884107
23	0xbd7518a5	-0.059837956
24	0x3d259837	0.040428367
25	0x3cfc90b5	0.03083072
26	0xbca20966	-0.019779872
27	0x3cee04a7	0.029054953
28	0x3cb80480	0.022463083
29	0x3d03792c	0.03209798
30	0xbd5f14ae	-0.05446308
31	0xbd59419f	-0.053041097
32	0xbd17ed9e	-0.037091844
33	0xbcf0877c	-0.029361479
34	0x3d5b45ed	0.053533483
35	0x3cdf0610	0.02722457
36	0xbc9877f6	-0.01861189
37	0x3d777f26	0.060423993
38	0x3db3f892	0.087876454
39	0xbc872562	-0.016497318
40	0xbca03534	-0.01955662
41	0x3d99d29b	0.07510873
42	0x3c592495	0.013253351
43	0xbd18344b	-0.037159245
44	0x3d5eef7e	0.054427616
45	0x3cdb0424	0.026735373
46	0x3d39e248	0.045381814
47	0x3b9dfc0d	0.0048213066
48	0xbd1f0ecf	-0.038832482
49	0xbbf840cd	-0.007576084
50	0x3cff9710	0.031199962
51	0x3c87338b	0.01650407
52	0xbc75ce8d	-0.015002859
53	0xbcd71a56	-0.026257675
54	0x3c192413	0.00934698
55	0x3bb4881b	0.005509389
56	0x3ce28e00	0.027655602
57	0x3cb83bba	0.022489417
58	0xbd92576f	-0.07145583
59	0xbc779de1	-0.015113325
60	0xbc1755f0	-0.009236798
61	0xbd4662e9	-0.04843417
62	0x3d23a7b1	0.039954845
63	0xbc8562ed	-0.016282523
64	0x3d2d6859	0.04233584
65	0x3c77aca3	0.015116843
66	0xbd2d99d6	-0.042383038
67	0x3b5c13e5	0.0033581194
68	0x3e106bf1	0.14103676
69	0x3d06daa1	0.032923345
70	0x3d004fe9	0.03132621
71	0x3dfcd681	0.12345601
72	0x3d1f0810	0.03882605
73	0x3cb65aed	0.022260154
74	0x3af8439c	0.0018941048
75	0x3d81d099	0.06338615
76	0xbc9a5eb1	-0.01884398
77	0xbc9e534b	-0.019326827
78	0xbce926ad	-0.028460825
79	0x3cb4e585	0.0220821
80	0xbd9331b9	-0.07187218
81	0xbc8887e4	-0.01666636
82	0xbd82e12d	-0.06390605
83	0x3d09276a	0.033484854
84	0xbd0c5cd7	-0.034268226
85	0x3c9d849c	0.019228272
86	0x3d173dbe	0.036924116
87	0xbd7434c1	-0.059620623
88	0xbcb0ee26	-0.021597933
89	0x3c571851	0.013128356
90	0xbb103ba7	-0.0022008212
91	0x3d87c2bc	0.066289395
92	0xbc0d9986	-0.00864256
93	0x3cb33d6a	0.02187987
94	0x3c9907f4	0.01868055
95	0x3d820fd7	0.063506775
96	0xbd960b88	-0.07326418
97	0xbda8a716	-0.08234994
98	0x3d1c4a72	0.038156934
99	0xbc2313af	-0.009953423
100	0xbd823e19	-0.063595004
101	0x3c81911b	0.015816262
102	0xbad90430	-0.0016557034
103	0xbdb8c232	-0.09021415
104	0xbb8866c7	-0.0041626426
105	0xbcaab8fc	-0.02084016
106	0x3d2f3a58	0.04278025
107	0x3d25c8fd	0.04047488
108	0x3cd30bfb	0.025762549
109	0x3c705bc4	0.014670316
110	0x3b09ee9c	0.0021046763
111	0x3cf5d838	0.030010328
112	0x3d454175	0.048158128
113	0x3d53ee3b	0.051740866
114	0xbd86b4dd	-0.06577466
115	0xbcfe39e1	-0.031033458
116	0xbd27e0b1	-0.040985767
117	0x3d3c75b6	0.046010695
118	0x3d9c06df	0.07618498
119	0x3d9d59cf	0.07683145
120	0xba5fca16	-0.0008536888
121	0x3d129be9	0.03579322
122	0x3cd00396	0.025392335
123	0x3bb783b8	0.005600419
124	0xbc844e32	-0.016150568
125	0x3bdc0ba9	0.006715257
126	0xbcc7eb71	-0.02440426
127	0x3dd1c633	0.102428816
128	0xbc0fc02d	-0.008773846
129	0xbc691dbd	-0.014228282
130	0x3c5c6bce	0.013453437
131	0xbc01f82e	-0.007932706
132	0x3c0f63e6	0.008751845
133	0x3ad12289	0.0015955727
134	0x3d152d5c	0.03642021
135	0x3cd4d61f	0.025981007
136	0xbc338abe	-0.010958372
137	0xbd9a9e40	-0.07549715
138	0xbb73c3af	-0.0037195494
139	0x3b719c22	0.0036866744
140	0x3db812b7	0.089879446
141	0xbd9a8451	-0.075447686
142	0xbd81bf11	-0.06335271
143	0xbbb21257	-0.005434315
144	0x3c9eea94	0.019398965
145	0xbd926022	-0.07147242
146	0x3ce1e1ed	0.02757355
147	0x3d394666	0.045233153
148	0xbcc58ddd	-0.024115497
149	0xbb1fb84d	-0.0024371326
150	0xbca46a5b	-0.020070245
151	0x3d2ce5ff	0.04221153
152	0x3ab7f6e7	0.0014035375
153	0xbad31dd6	-0.0016106914
154	0x3b5676e0	0.0032724664
155	0xbd004507	-0.03131583
156	0xba8eaa27	-0.001088445
157	0xbd9d5ecd	-0.076840974
158	0xbda82f61	-0.08212162
159	0x3cf9bbba	0.030485023
160	0x3d5628a8	0.052284867
161	0xbd082188	-0.033235103
162	0xbd87c50a	-0.06629379
163	0x3db50b3c	0.088400334
164	0x3cec04ee	0.028810944
165	0xbd522894	-0.05130823
166	0xbc09b983	-0.008406046
167	0xbd9aaee9	-0.07552893
168	0xbd44385a	-0.047905304
169	0x3d8b7b02	0.06810571
170	0x3db5c4ff	0.08875465
171	0x3d3027ba	0.043006636
172	0x3dd259b8	0.10271019
173	0x3dcc895f	0.09987139
174	0x3d1c51a7	0.038163807
175	0x3cec47fb	0.028842917
176	0x3d8014e8	0.062539876
177	0x3d23ee03	0.040021908
178	0xbad511fd	-0.0016255971
179	0xbd0c4775	-0.034247834
180	0xbceb163a	-0.028697122
181	0x3dba1357	0.0908572
182	0x3e097a80	0.13425636
183	0xbd5e4656	-0.054266296
184	0x3d897038	0.06710857
185	0x3e04712e	0.129338
186	0xbcb358bc	-0.021892898
187	0xbd2e4e15	-0.042554934
188	0xbd288a58	-0.04114756
189	0x3cc42d55	0.023947397
190	0x3c9a8e59	0.018866705
191	0x3da13ea3	0.07873275
192	0x3d0b496c	0.034005567
193	0xbd679941	-0.05654264
194	0x3c1eb7c4	0.009687368
195	0xbc85063f	-0.01623833
196	0x3da9d45c	0.082924575
197	0xbc168c12	-0.009188669
198	0xbd2d037e	-0.04223966
199	0x3da6cf96	0.081450626
200	0xbc0afee3	-0.008483621
201	0x3c40e88c	0.0117741935
202	0x3dba472b	0.090956055
203	0x3defdc83	0.11711981
204	0x3d23f389	0.040027175
205	0x3d373277	0.04472586
206	0xbdcd9533	-0.10038223
207	0x3bd49998	0.0064880364
208	0xbd8b7ac7	-0.06810527
209	0xbd1412bd	-0.036150683
210	0x3d983d2f	0.07433545
211	0xbc3c7010	-0.011501327
212	0xbd1d6597	-0.03842696
213	0x3c88ece3	0.016714519
214	0x3cd69bea	0.026197392
215	0xbcc6c561	-0.02426404
216	0x3ccd65d1	0.025072964
217	0x3dd8bfec	0.10583481
218	0x3c92d7e2	0.017925207
219	0xbd44ced4	-0.04804881
220	0x3dad08bb	0.08448931
221	0xbcef1202	-0.029183391
222	0xbd250f62	-0.040297873
223	0xbd413587	-0.04717019
224	0x3d29b932	0.04143638
225	0x3d63ce12	0.055616446
226	0xbdba22b6	-0.09088652
227	0xbd063cdf	-0.032772895
228	0x3c47f848	0.012205191
229	0xbdab6c2b	-0.08370241
230	0xbde35733	-0.11100616
231	0x3d642489	0.055698905
232	0x3c47b231	0.01218848
233	0x3ceed3db	0.029153755
234	0x3d1073f0	0.035266817
235	0xbdca736f	-0.098852985
236	0xbb280dda	-0.0025643022
237	0x3d86f943	0.06590512
238	0x3d49256c	0.049107954
239	0x3d55ff62	0.052245505
240	0xbbc6cd25	-0.0060669356
241	0x3d39dfd0	0.04537946
242	0x3d3d6ca5	0.04624619
243	0x3d0db7ef	0.03459924
244	0x3d243a6f	0.04009479
245	0x3d68b317	0.05681142
246	0xbd252884	-0.04032184
247	0xbd398959	-0.045297
248	0x3d8b3952	0.06798042
249	0x3cc77f8c	0.024352811
250	0x3da0c83a	0.0785069
251	0x3d7c485d	0.06159245
252	0xba3bdef1	-0.0007166705
253	0x3c8b27b4	0.016986705
254	0xbc30b24c	-0.010784697
255	0x3b88c71b	0.004174126

conv3.bias f4 [64]
0	0xba8e9039	-0.0010876722
1	0x3d2aeff6	0.04173275
2	0xbd396b1b	-0.04526816
3	0xbb88c6bc	-0.0041740816
4	0xbce2d3b3	-0.027688837
5	0xbcd6d19f	-0.026223002
6	0xbd1ddb64	-0.038539305
7	0x3d4c9bc8	0.049953252
8	0x3d3529c3	0.04422928
9	0x3d2dbd27	0.042416718
10	0x3c183cc2	0.00929183
11	0xbc37060a	-0.011170873
12	0xbd56ab57	-0.052409496
13	0x3d452df3	0.048139524
14	0x3d4e0e5e	0.05030667
15	0xbd09c4a6	-0.033634804
16	0xbd4d1b8b	-0.050075095
17	0x3cb1442b	0.02163895
18	0xbd5694a0	-0.052387834
19	0xbcd0ec46	-0.025503289
20	0xbb58e67d	-0.0033096366
21	0xbcc44e79	-0.0239632
22	0x3cfcac95	0.030844012
23	0xbc5c8b2f	-0.013460918
24	0xbd594f55	-0.053054173
25	0xbb8db104	-0.0043240804
26	0x3d160261	0.036623362
27	0xbc756814	-0.014978427
28	0xbc9c6462	-0.019090835
29	0x3d12bc6e	0.03582423
30	0x3d50f819	0.051017854
31	0xbbbf76ab	-0.0058430037
32	0xbc7fd0c3	-0.0156137375
33	0x3c8374df	0.01604694
34	0xbd2d5a9b	-0.042322736
35	0x3cfcc54f	0.030855803
36	0x3ca9de4f	0.020735888
37	0xbbf4bb99	-0.0074686524
38	0xbcbaf21c	-0.022820525
39	0xbd195fbf	-0.037444826
40	0x3d4e08c5	0.050301332
41	0xbceb887a	-0.0287516
42	0x3c7bd640	0.015370905
43	0x3d241467	0.04005852
44	0x3d1f3443	0.0388682
45	0x3d3eb669	0.04656068
46	0x3d3a05fe	0.04541587
47	0xbd6674d4	-0.05626376
48	0x3d292f1e	0.0413047
49	0xbd62ad20	-0.055340886
50	0xbd2aa922	-0.041665204
51	0x3c42da1c	0.011892822
52	0x3d055192	0.032548495
53	0x3c6662fd	0.014061687
54	0x3d205d05	0.03915121
55	0x3d307f52	0.043090172
56	0xbc0c7526	-0.008572852
57	0xbd605065	-0.05476417
58	0xbd15863c	-0.03650497
59	0xbbbdbdd7	-0.005790453
60	0x3d244bb3	0.040111255
61	0x3c8f4207	0.017487539
62	0x3b92739e	0.004469349
63	0xbabf2b62	-0.0014585073

bn3.weight f4 [64]
0	0x3f89e445	1.0772787
1	0x3f81d872	1.0144179
2	0x3f694dfc	0.9113462
3	0x3f891fd7	1.0712842
4	0x3f8c8be3	1.098019
5	0x3f77f2c1	0.9685479
6	0x3f8b8e68	1.0902834
7	0x3f7dfc3a	0.9921299
8	0x3f77d21c	0.96804976
9	0x3f8ffbb0	1.1248684
10	0x3f87d4ae	1.061178
11	0x3f8c0099	1.0937682
12	0x3f80b1a5	1.0054213
13	0x3f803f3e	1.00193
14	0x3f7e5463	0.99347514
15	0x3f7e97a7	0.99450153
16	0x3f6ed167	0.9328827
17	0x3f8a6605	1.0812384
18	0x3f72f191	0.9489985
19	0x3f89a7a8	1.075429
20	0x3f923b80	1.1424408
21	0x3f8d283b	1.1027902
22	0x3f8afbc4	1.0858083
23	0x3f8526ff	1.0402526
24	0x3f7db26c	0.99100375
25	0x3f853ff0	1.0410137
26	0x3f756ac8	0.9586606
27	0x3f856205	1.0420538
28	0x3f7e9bc1	0.9945641
29	0x3f8a28a7	1.0793656
30	0x3f7f3a32	0.99698174
31	0x3f8627b4	1.0480866
32	0x3f7d0df2	0.98849404
33	0x3f8aec6b	1.0853399
34	0x3f6e7bf3	0.9315788
35	0x3f77b86b	0.96765774
36	0x3f847e2a	1.0351002
37	0x3f7370eb	0.95094174
38	0x3f8c0550	1.0939121
39	0x3f8c9d8b	1.0985578
40	0x3f8c0296	1.0938289
41	0x3f7be857	0.984014
42	0x3f7849f2	0.9698783
43	0x3f77fd3a	0.9687077
44	0x3f8bee5a	1.0932114
45	0x3f8e255c	1.1105151
46	0x3f6e2b96	0.93035257
47	0x3f89b9ed	1.0759865
48	0x3f8d7a4d	1.1052948
49	0x3f7931a7	0.9734139
50	0x3f719c0b	0.9437873
51	0x3f80a43c	1.005012
52	0x3f74efdf	0.95678514
53	0x3f910f79	1.1332847
54	0x3f6ab363	0.9167997
55	0x3f883f28	1.0644274
56	0x3f8836c0	1.0641708
57	0x3f77377f	0.96569055
58	0x3f7985c0	0.9746971
59	0x3f767647	0.96274227
60	0x3f88dcd2	1.0692389
61	0x3f8a7536	1.081702
62	0x3f8aa927	1.0832871
63	0x3f8b26b0	1.0871181

bn3.bias f4 [64]
0	0xbc79ad78	-0.015239112
1	0xbccab8d5	-0.024746338
2	0xbdab1213	-0.08353057
3	0x3b8549f0	0.004067652
4	0x3c7742a8	0.015091576
5	0xbd0ab99b	-0.033868413
6	0x3c341394	0.010990996
7	0xbd03da69	-0.032190714
8	0xbd0e1042	-0.034683473
9	0xbb3e5972	-0.0029045013
10	0x3b933572	0.004492455
11	0x3b9eecb8	0.0048499964
12	0xbd0dcaf7	-0.03461739
13	0xbd07cdf2	-0.03315539
14	0xbcbd6123	-0.023117607
15	0xbcf0a331	-0.02937469
16	0xbd84fde9	-0.06493742
17	0x3c93ee43	0.018057948
18	0xbd557467	-0.052112963
19	0x3b86c276	0.004112537
20	0xbb333c8f	-0.0027349328
21	0xbc65eb81	-0.014033199
22	0xbbbe48a0	-0.0058069974
23	0xbc319d55	-0.010840734
24	0xbcc5e406	-0.024156582
25	0x3b14c9b9	0.0022703244
26	0xbd103d0c	-0.03521447
27	0xbbad06ad	-0.005280337
28	0xbd08adda	-0.033368923
29	0x3c9b0758	0.0189244
30	0xbcdce3ec	-0.02696415
31	0x3c29181d	0.01032069
32	0xbd3cde5e	-0.046110503
33	0xb98ca6bd	-0.0002682711
34	0xbd9f0bb8	-0.07765907
35	0xbd28d565	-0.041219134
36	0xbbf0283d	-0.0073290155
37	0xbd599d63	-0.05312861
38	0xbc322c21	-0.010874779
39	0xbbbf036a	-0.0058292644
40	0x3cf15d44	0.029463418
41	0xbd2333f9	-0.039844487
42	0xbcee0950	-0.029057175
43	0xbd1df4f9	-0.038563702
44	0x3c07086e	0.008241756
45	0x39fa0763	0.0004768922
46	0xbd8b0e6c	-0.0678986
47	0xbbedc602	-0.0072562704
48	0x3c10a6d0	0.008828834
49	0xbd27be85	-0.040953178
50	0xbd6c75f1	-0.057729665
51	0xbc9d8833	-0.019229984
52	0xbd585402	-0.05281449
53	0xbc7ae162	-0.0153125245
54	0xbdb38bdb	-0.0876691
55	0x3b612adb	0.003435782
56	0xbbd3edad	-0.006467542
57	0xbd4282c3	-0.047487985
58	0xbd15f9b3	-0.036615085
59	0xbd38ed54	-0.04514821
60	0x3bb97345	0.005659493
61	0xb9ad77f9	-0.00033086518
62	0x3b4d4394	0.0031320797
63	0xbc13b4ac	-0.0090152435

bn3.running_mean f4 [64]
0	0x3f89b985	1.0759741
1	0xc004ac60	-2.073021
2	0xbfbb014e	-1.4609773
3	0x3f2a6824	0.66565156
4	0x3f5a6cbf	0.85322183
5	0x3f8e5908	1.112092
6	0x3edb71fc	0.428604
7	0xbfaaa9fe	-1.3333127
8	0xbfaf76b7	-1.3708104
9	0x3eff55c7	0.4987013
10	0x3f781514	0.9690716
11	0x3f0809f3	0.5314018
12	0xbfea8c9a	-1.8324158
13	0x3f60c987	0.87807506
14	0xbfacbe41	-1.3495561
15	0xbfeca58a	-1.8488019
16	0xbf6cc940	-0.92494583
17	0x3f14641a	0.5796524
18	0xbe76b742	-0.24093345
19	0x3f2b9ffb	0.67040986
20	0x3f23483c	0.63782096
21	0x3ec2847a	0.37991697
22	0x3f8ef973	1.1169876
23	0x3f84274d	1.0324494
24	0xc02a1906	-2.6577773
25	0x3f39ca8c	0.72574687
26	0x3ed1af19	0.409539
27	0x3f87a76c	1.0597968
28	0xbfa13fbc	-1.2597575
29	0x3f3b1ff2	0.7309562
30	0xbf215feb	-0.63036984
31	0x3fc6fb60	1.5545464
32	0x3f93dc0b	1.1551527
33	0x3f92422a	1.1426442
34	0xbf99fe83	-1.2030796
35	0xbfdda606	-1.7316291
36	0xbfaef003	-1.3666996
37	0xbef83d7b	-0.48484406
38	0x3f0885b7	0.5332903
39	0x3f505001	0.81372076
40	0x3ed30c17	0.4122016
41	0xbfa5b7a0	-1.2946663
42	0x3f01bfac	0.50683093
43	0xbfeb33bb	-1.8375162
44	0x3f9464c1	1.1593248
45	0x3f3ab835	0.7293733
46	0x3eae45a2	0.340375
47	0x3f1f1390	0.62139225
48	0x3f82df3e	1.0224378
49	0xbef43848	-0.4769919
50	0xbf8cc461	-1.099743
51	0xbf5bf38e	-0.8591851
52	0xbfc05cf9	-1.5028373
53	0x3ee8196f	0.45331904
54	0x3ea30f98	0.31847835
55	0x3f82900e	1.0200212
56	0x3f3f18fa	0.74647486
57	0xbf78f3d9	-0.9724708
58	0xbf95b35c	-1.1695361
59	0xbfb09a80	-1.379715
60	0x3f50232c	0.8130367
61	0x3f75081c	0.957155
62	0x3f64a68a	0.8931662
63	0x3f1414e2	0.57844365

bn3.running_var f4 [64]
0	0x3fc25617	1.5182523
1	0x401187d2	2.2739148
2	0x3f9bf443	1.2183918
3	0x3f5efbc3	0.8710291
4	0x3f97cc08	1.185914
5	0x3f62a8fb	0.88539094
6	0x3f7b4acb	0.98161
7	0x3fcb3e92	1.587847
8	0x3f5074d9	0.81428295
9	0x3fa0388c	1.2517257
10	0x3fb363a1	1.4014779
11	0x3f895e05	1.0731817
12	0x3fa70696	1.3048885
13	0x3f647a05	0.8924869
14	0x3f9c856c	1.2228217
15	0x3fb9a63e	1.4503858
16	0x3fb3f06b	1.4057745
17	0x3f69c228	0.91311884
18	0x3f7bffe8	0.98437357
19	0x3f91f554	1.1402993
20	0x3f980962	1.1877863
21	0x3f97e453	1.1866554
22	0x3fae8cdb	1.3636736
23	0x3f5f4297	0.87210983
24	0x3fe2941c	1.7701449
25	0x3f87eb5f	1.0618705
26	0x3f36df37	0.7143435
27	0x3f9d0fcb	1.2270445
28	0x3fcc5885	1.5964514
29	0x3f8edd27	1.116124
30	0x3f6bef1c	0.92161727
31	0x3f9e3009	1.2358409
32	0x3f767cf3	0.9628441
33	0x3fe07ee9	1.753873
34	0x3f93b85b	1.1540636
35	0x3fc9bb10	1.5760212
36	0x3f71385a	0.9422661
37	0x3f9c7a53	1.222483
38	0x3f712dff	0.9421081
39	0x3fa8440b	1.3145765
40	0x3fa0e406	1.2569587
41	0x3fd1f84d	1.64039
42	0x3f7af042	0.98022854
43	0x3f822f4c	1.0170684
44	0x3fcfdf85	1.6240088
45	0x3fa58e1a	1.2933991
46	0x3f1dd2f0	0.6164999
47	0x3f9bb765	1.2165343
48	0x3fc6182e	1.5476129
49	0x3f816cf4	1.0111375
50	0x3f4b6233	0.79446715
51	0x3f82018a	1.015672
52	0x3fcae732	1.5851805
53	0x3fa7a48c	1.3097091
54	0x3f70f5ca	0.94125044
55	0x3f535afa	0.82560694
56	0x3f8012ba	1.0005715
57	0x3f91ff36	1.1406009
58	0x3f728829	0.94739014
59	0x3fb63cab	1.4237264
60	0x3f83864e	1.0275362
61	0x3fb86e32	1.4408629
62	0x3f9d4558	1.2286787
63	0x3fa39bea	1.2781956

fc1.weight f4 [128, 64]
0	0x3d9cb032	0.07650794
1	0x3cc54794	0.024081983
2	0xbbffa3ed	-0.007801524
3	0xbe396ae6	-0.18107185
4	0xbde2591c	-0.110521525
5	0xbdf45728	-0.11930686
6	0xbe363f67	-0.17797624
7	0x3e060943	0.1308947
8	0x3cfb8a3b	0.030705562
9	0xbcc640d6	-0.024200838
10	0xbdfd55f2	-0.123699084
11	0xbb9f0499	-0.004852843
12	0xbb9719ae	-0.0046112156
13	0xbdc680b4	-0.09692517
14	0x3d1105ae	0.035405807
15	0x3dbcedf4	0.092250735
16	0x3a843cbb	0.00100889
17	0xbe3aae30	-0.1823051
18	0xbc844ae5	-0.016148994
19	0xbe2b0fca	-0.16705242
20	0xbd5b7aaa	-0.05358378
21	0x3d00627d	0.031343926
22	0xbc9249a4	-0.01785738
23	0xbd1d24ae	-0.03836506
24	0xbbd2100b	-0.006410604
25	0xbb08c1a1	-0.0020867365
26	0xbcff50f1	-0.031166526
27	0x3d7eae2b	0.06217782
28	0x3ceaca42	0.028660897
29	0xbdd8041c	-0.10547659
30	0x3d1dab86	0.038493656
31	0x3d83de45	0.06438879
32	0x3dbaaf95	0.09115521
33	0xbc5e7f7e	-0.013580201
34	0xbd594f9a	-0.05305443
35	0x3ca47d0a	0.020079155
36	0xbd853eff	-0.06506156
37	0x3d3f86b7	0.046759333
38	0x3d3dd27b	0.046343308
39	0xbe14e157	-0.14539085
40	0xbd0433a7	-0.032275822
41	0x3dbc9262	0.09207608
42	0x3d48a49f	0.04898512
43	0x3b130524	0.0022433484
44	0xbd676e31	-0.05650157
45	0xbe367c04	-0.17820746
46	0x3b1f69a1	0.0024324434
47	0xbe1f51f1	-0.15558602
48	0xbddb1085	-0.1069651
49	0x3df2004a	0.118164614
50	0xbdcdf0ba	-0.100556806
51	0x3de92421	0.11383844
52	0x3c92d946	0.01792587
53	0xbd1dffc8	-0.03857401
54	0x3def68c1	0.11689902
55	0x3cc3f2f3	0.023919558
56	0xbdfbf6e7	-0.12302952
57	0x3df6d5e7	0.120525174
58	0x3d18ea45	0.03733279
59	0xbda48ea4	-0.08035019
60	0xbe02797d	-0.12741657
61	0xbd043ccd	-0.032284547
62	0xbd9048fb	-0.0704517
63	0xbd92c3ca	-0.0716625
64	0x3d8680b8	0.0656752
65	0xbdb7e364	-0.08978918
66	0xbdf25d02	-0.11834146
67	0x3d18ad03	0.03727437
68	0x3daad9df	0.08342337
69	0xbdf6ef4e	-0.120573625
70	0x3c62366f	0.013806923
71	0x3c6d3d37	0.014479927
72	0x3b97fc38	0.004638221
73	0xbd9f87e5	-0.07789592
74	0x3df143bf	0.117805
75	0x3db24a2b	0.08705553
76	0xbcb09e57	-0.021559877
77	0x3b04d96b	0.0020271193
78	0x3d8da46f	0.06916129
79	0x3ddff9ee	0.10936342
80	0x3dff4b73	0.12465563
81	0x3dd59749	0.10429246
82	0xbe119e8c	-0.14220637
83	0xbd5e1e69	-0.05422822
84	0x3c9c2927	0.019062592
85	0xbcdd5ab8	-0.027020797
86	0x3e0cbedd	0.13744684
87	0x3c845a65	0.016156385
88	0xbdc86230	-0.09784353
89	0x3da79da6	0.08184366
90	0x3daa91d8	0.08328599
91	0x3dfed238	0.1244244
92	0x3d8e4159	0.06946058
93	0x3e03d9ba	0.12876025
94	0xbdb86887	-0.09004312
95	0x3ddf7545	0.10911039
96	0x3b807a33	0.0039208173
97	0xbd424ac4	-0.047434583
98	0x3d6956a1	0.05696738
99	0x3ce3ecfe	0.027822968
100	0xbd9e94d4	-0.077432305
101	0xbb4560fe	-0.0030117626
102	0x3e214b5a	0.157514
103	0x3d294688	0.04132703
104	0x3d78622e	0.060640506
105	0x3d343196	0.0439926
106	0xbd66992b	-0.056298416
107	0xbdea6ea7	-0.114468865
108	0x3db6ce74	0.089260966
109	0x3e05f3db	0.13081305
110	0xbdc29a45	-0.09502081
111	0x3e0cb0b9	0.1373929
112	0x3dc8045a	0.09766455
113	0xbd283a92	-0.041071482
114	0x3cd764b4	0.026293136
115	0xbe07c6ee	-0.1325948
116	0xbd0ca87b	-0.034340363
117	0xbd3e716e	-0.046494894
118	0x3d6f5859	0.058433864
119	0x3dc99eb9	0.09844727
120	0x3ca0aab8	0.019612655
121	0x3d90da70	0.07072914
122	0xbdf13a63	-0.117787145
123	0xbdce48b4	-0.10072461
124	0x3d58f547	0.05296829
125	0x3e0d5d96	0.13805231
126	0x3c1d010f	0.009582772
127	0x3b35106e	0.00276282
128	0x3d3c7dd7	0.046018448
129	0xbdd3b161	-0.10336567
130	0xbc7912a4	-0.015202198
131	0x3e130bba	0.14359942
132	0xbcb50bd4	-0.022100367
133	0x3adbbd13	0.0016764723
134	0x3dce17b0	0.10063112
135	0xbcaa4bde	-0.02078813
136	0xbda3ebdd	-0.08003972
137	0xbcc476d8	-0.02398245
138	0xbcd3b0d7	-0.02584116
139	0xbd85bf52	-0.06530632
140	0xbdde88f8	-0.108659685
141	0x3e132639	0.1437005
142	0x3d1b9c75	0.037991006
143	0xbd599f65	-0.053130526
144	0x3ca61e4d	0.02027812
145	0xbd153bf3	-0.036434125
146	0xbc781335	-0.015141298
147	0x3c9140d5	0.01773111
148	0x3c9e6b1f	0.019338189
149	0x3e054b92	0.13017109
150	0xbc51e767	-0.012811518
151	0x3e146758	0.14492548
152	0xbd960e4e	-0.07326947
153	0x3cb2cdc0	0.021826625
154	0x3d958480	0.07300663
155	0xbd202589	-0.039098296
156	0x3deff007	0.117157035
157	0x3e278f07	0.16363154
158	0xbd4f2c85	-0.050579567
159	0x3e024556	0.12721762
160	0xbd447612	-0.047964163
161	0x3df20076	0.11816494
162	0xbda1a6ae	-0.0789312
163	0x3dcd309b	0.100190364
164	0x3bea41d6	0.0071489615
165	0x3d1f6c83	0.038921844
166	0x3d221468	0.039570242
167	0xbc93ece9	-0.018057304
168	0xbbdc560a	-0.006724124
169	0xbd83111f	-0.0639975
170	0xbd84afd9	-0.06478853
171	0x3dafae20	0.085781336
172	0x3da449f0	0.08021915
173	0x3db68d0c	0.08913621
174	0x3d28ea19	0.041238878
175	0x3df419d5	0.119189896
176	0x3def11c6	0.11673312
177	0xbda0cb94	-0.078513294
178	0xbd077407	-0.033069637
179	0xbdcbb500	-0.099466324
180	0x3d9202cb	0.07129439
181	0x3cf5680f	0.029956846
182	0x3de81b4c	0.113333315
183	0x3d8aa88b	0.06770428
184	0xbd3ecffa	-0.04658506
185	0xbd46e860	-0.048561454
186	0xbd9c9171	-0.07644928
187	0x3dc26f13	0.09493842
188	0x3e0eb9de	0.1393809
189	0x3da4a642	0.08039524
190	0x3dac972c	0.08427271
191	0x3df9d316	0.121984646
192	0xbb734140	-0.003711775
193	0x3dbea8e2	0.093095556
194	0x3dab6caa	0.083703354
195	0xbdc4024a	-0.09570749
196	0xbc6b88c0	-0.014375865
197	0x3df4f572	0.119608775
198	0x3d332648	0.04373768
199	0xbd99235c	-0.074774474
200	0x3dac602a	0.08416779
201	0xbda8acb0	-0.082360625
202	0xbde38c0e	-0.11110698
203	0x3d7549f8	0.059884995
204	0xbc8b37c8	-0.016994372
205	0xbde3992e	-0.11113201
206	0xbdcb3c84	-0.09923652
207	0xbde88802	-0.113540664
208	0x3ddfc6c4	0.109265834
209	0xbddd7e56	-0.10815112
210	0xbdcfd560	-0.1014812
211	0xbce47c80	-0.027891397
212	0xbd3abcb0	-0.045590103
213	0x3d904128	0.070436776
214	0x3da58172	0.0808133
215	0xbcb3e088	-0.02195765
216	0xbdf01aa4	-0.11723831
217	0xbc90bc50	-0.01766792
218	0xbb7c22c0	-0.003847286
219	0xbd137ddc	-0.0360087
220	0xbdfc62e6	-0.12323551
221	0x3d7ca19c	0.06167756
222	0xbdc3874c	-0.0954729
223	0xbdcf7bf0	-0.10131061
224	0x3d354fcc	0.044265553
225	0x3d179e8c	0.037016436
226	0x3d9fc3e8	0.07801038
227	0x3be79020	0.0070667416
228	0xbd4a1960	-0.049340606
229	0xbddc3732	-0.10752715
230	0xbcb5f8c0	-0.02221334
231	0x3da833f2	0.08213033
232	0x3b796140	0.003805235
233	0x3cfaca78	0.030614123
234	0xbd0fb340	-0.035083055
235	0x3d6cd200	0.05781746
236	0xbd2eb9d8	-0.042657703
237	0xbdd46fce	-0.103728876
238	0xbcf487c8	-0.029849902
239	0xbd03b03c	-0.032150492
240	0x3dae0aa6	0.08498125
241	0x3d17a600	0.037023544
242	0xbddcb2bc	-0.107762784
243	0xbbdd8e40	-0.0067613423
244	0xbdafa7ce	-0.08576928
245	0x3c567fd0	0.013091996
246	0xbd8f4a3a	-0.069965795
247	0x3d822d4e	0.063562974
248	0x3dd8b2ac	0.10580954
249	0xbdacddfe	-0.08440779
250	0xbd36e6cc	-0.0446537
251	0xbdca3358	-0.09873074
252	0x3beec5e0	0.007286772
253	0x3d500388	0.050784618
254	0xbd9650b2	-0.0733961
255	0x3dc75e3c	0.09734771

fc1.bias f4 [128]
0	0xbdaaf6d4	-0.0834786
1	0x3d366e24	0.044538632
2	0x3d9495d6	0.072551414
3	0xbddc50d6	-0.10757606
4	0xbd6c21f4	-0.057649568
5	0x3c94b680	0.018153429
6	0xbe119abf	-0.14219187
7	0x3d1858e1	0.037194137
8	0x3ddd02f4	0.10791579
9	0xbc90c300	-0.017671108
10	0x3d1ae82c	0.037819073
11	0x3dce8b9f	0.10085224
12	0x3c93753e	0.018000241
13	0x3da122fa	0.078679994
14	0x3d9cc42d	0.07654605
15	0xbd1fe978	-0.039041013
16	0xbc9a3db2	-0.018828247
17	0x3dad6e02	0.08468248
18	0x3d57da75	0.05269857
19	0xbbb04497	-0.0053792703
20	0xbda82439	-0.08210034
21	0x3c6286a0	0.013826042
22	0x3ddb99e8	0.10722715
23	0xbdc3b212	-0.095554486
24	0x3d43ca93	0.04780061
25	0x3da2c9b7	0.0794863
26	0x3d962d1a	0.07332821
27	0xbd0a2883	-0.03373004
28	0x3d3d4dfa	0.046216942
29	0xbde1ae5e	-0.11019586
30	0xbd7ef8b9	-0.06224892
31	0x3d5285cc	0.05139713
32	0xbd41722f	-0.047228035
33	0x3cc90ff3	0.024543738
34	0x3b8fc6b5	0.0043877014
35	0xbd4fecaf	-0.05076283
36	0x3d6316bc	0.055441603
37	0x3da58e15	0.080837406
38	0xbbd66320	-0.0065425783
39	0x3de20bff	0.11037444
40	0xbc04fffb	-0.008117671
41	0x3d3d4cc1	0.046215776
42	0xbdd8c357	-0.10584133
43	0xbdf0ec5a	-0.117638305
44	0x3a662000	0.0008778572
45	0x3d390e47	0.04517963
46	0x3d7ab6c4	0.061209455
47	0xbcfb0254	-0.030640759
48	0xbde1b7c9	-0.11021382
49	0xbd0b8d9d	-0.0340706
50	0xbcbe1539	-0.02320348
51	0xbd069769	-0.03285924
52	0xbdbf792c	-0.093492836
53	0x3c7a896c	0.015291553
54	0x3dd0b597	0.101908855
55	0xbc57a06a	-0.013160804
56	0xbbfb7c48	-0.0076747276
57	0x3afbdffa	0.001921653
58	0x3db036ef	0.08604228
59	0xbcf733fb	-0.030176153
60	0x3e064b8a	0.13114753
61	0xbcdfdebd	-0.02732789
62	0x3d60d011	0.054885928
63	0xbdeaf05d	-0.11471627
64	0xbc8384c8	-0.016054526
65	0xbe061d37	-0.13097082
66	0x3d404f1c	0.046950445
67	0x3cbfd392	0.023416314
68	0xbd2c8354	-0.04211743
69	0xbc8a0d29	-0.016851978
70	0xbd9b6963	-0.0758846
71	0xbda50b04	-0.08058742
72	0xbd71d2c0	-0.059038877
73	0x3d500871	0.0507893
74	0xbdaddc98	-0.084893405
75	0x3dcdc265	0.100468434
76	0xbd8b6ddc	-0.068080634
77	0xbda4e616	-0.08051698
78	0x3c61f25c	0.013790693
79	0xbd9a39c2	-0.07530548
80	0xbdcb6d23	-0.099329256
81	0xbdd4d386	-0.103919074
82	0xbda07adb	-0.07835933
83	0xbd7a06d9	-0.061041687
84	0x3de2c43d	0.11072586
85	0x3d627c15	0.055294115
86	0xbe050320	-0.12989473
87	0xbc8e4c3d	-0.017370338
88	0xbdf102ac	-0.11768088
89	0x3d9d44a3	0.07679107
90	0xbd83953d	-0.06424949
91	0x3c2eff99	0.010681056
92	0xbd93aa52	-0.072102204
93	0x3dd27f06	0.10278134
94	0x3d9c807a	0.076416925
95	0xbdb5e9a1	-0.08882452
96	0xbde27b91	-0.11058725
97	0xbdcec173	-0.10095491
98	0x3d936ca0	0.07198453
99	0xbd23db2b	-0.040003937
100	0xbdb3cbdc	-0.087791175
101	0xbdc8130a	-0.097692564
102	0x3ccb2d64	0.024801917
103	0x3d80e9f4	0.06294623
104	0xbd3866ec	-0.04502003
105	0x3dff4afc	0.12465474
106	0x3dd794fb	0.10526463
107	0xbd014960	-0.031564116
108	0xbd415c78	-0.047207326
109	0xbd91f588	-0.071269095
110	0xbca5562e	-0.020182695
111	0xbd970302	-0.073736206
112	0xbdcbbf08	-0.09948546
113	0x3dcf1964	0.10112265
114	0x3d01b763	0.03166903
115	0xbd843102	-0.0645466
116	0x3cd8c4b6	0.026460987
117	0x3d8dc3ee	0.06922136
118	0x3d53d474	0.051716283
119	0xbd406078	-0.046967
120	0x3d5c0d3e	0.053723566
121	0xbd7008c0	-0.058602095
122	0xbc310c7a	-0.010806197
123	0xbd6a4a7a	-0.057199933
124	0x3dde0023	0.1083987
125	0xbd7a0861	-0.061043147
126	0xbd8c2f26	-0.0684493
127	0x3d28fece	0.041258626
