checkpoints/last_gap.pth (torch, 412119 bytes, 54 tensors)

conv1.weight f4 [16, 3, 3, 3]
00000000: 5a59 513e 509b adbd 182d 80be 46ff 5d3e
00000010: 462f 973d 94fc 41be d1c0 f63d fac1 063c
00000020: dac1 67be 5aab 283e 247f 463c f9a4 97be
00000030: 7341 393e e86b a4bd 8976 07be fd13 353e
00000040: 2df9 03be 0d0c 6a3d ff9b 96bd 82ba c73d
00000050: c7ba 13bd b45c 8a3c 7a71 0f3e 6850 73be
00000060: 5639 c4bd 5817 113d 9c71 8e3d 78e8 653e
00000070: 7c51 5a3e 50e8 913d 7293 63be dbcb a9bd
00000080: c00a 223d d0b9 2abe 879a 0abe 3309 2cbd
00000090: 186f 903d 80f2 b03d 882e 363c 3fba 2dbe
000000a0: fd19 333d a0f3 19be abff b63c ab35 1d3e
000000b0: 441d 793d b17c 433e c14d 25bd bf7e 1b3c
000000c0: f638 95be e8ff 89bd fa7d 03bd 46d3 da3d
000000d0: fae3 94bd 3bde a23c a6f3 f83d a500 8c3d
000000e0: 3bd8 a0bc 7461 7fbd 81b7 3a3e 960d 0c3e
000000f0: b057 13be 9cc0 26bd f479 01be b7c7 f7bc
00000100: 8107 48bc 6b8a 323e 8d89 49be c9e2 9b3d
00000110: e548 3d3e 8e51 d5be 83ae 03be 58d0 573d
00000120: f9f8 ddbd 5329 d93c 722d 073e 0827 09bd
00000130: 32fa 4dbd f25a 443e 1fe7 76be 4325 c2bd
00000140: f356 703e 4d23 eebd 16ce 98be 40dc 3d3e
00000150: 16f5 563e ef3b 1fbe 69d5 0d3e 8563 36bd
00000160: e344 113d c11f 153e 88ab 033e a500 e6bd
00000170: 5235 f73c 2ade b23d ab59 72bd d7d6 6bbc
00000180: 414f 0abe c590 0bbe 65b5 953d eaa1 003e
00000190: 2603 153d 5f12 23be cbce 773a 50c1 12be
000001a0: 86e4 443e 393d 483e ca27 2ebe 9b05 04be
000001b0: 4172 bebc 3b55 4cbd e2b0 8b3d 078f 333d
000001c0: a28d 573d 5423 91be c8ae cd3d 1496 363d
000001d0: d385 6f3d 3002 1a3e e009 1abe 5f1e 9cbd
000001e0: a2ab d83d 8622 5f3d d9b7 01bf 8271 793e
000001f0: 4097 62bd f27b 65be adcc a73d e234 463e
00000200: e27b 00be 55ed b83c ee69 32be 0997 19be
00000210: b393 ea3b 5c37 d63b b3b8 8b3d bfd1 3d3e
00000220: f042 533e 6095 d23d 2576 a7bd cb24 bd3d
00000230: 7cb7 223e 5003 ddbd a36d 6bbe ab5a 66be
00000240: c981 7bbd 95d8 07be 8688 f7bd f957 ef3d
00000250: 513e ddbd 6234 bcbd 4c49 ee3c 64bc 573d
00000260: 00c9 4dbe d5e4 913d cc4f 373e 00b9 c63d
00000270: 3eb8 0e3e cfb3 06bd 4c86 c0bd 2962 eabd
00000280: a1ac 013e faca f7bd 6b69 083d 3437 b43d
00000290: 4ffa b3bd f8bf dfbd 9c8b bdbd 3df3 023e
000002a0: a047 633d 61e2 243e 1c15 e83d ed31 8abe
000002b0: 1d5a 31bd e4e1 493d 727a a8bd 201c ca3b
000002c0: 9552 be3d a2be 6bbe d62f 113e e387 c6bd
000002d0: 1294 3fbe 64ba ad3d 7981 8fbd 4664 00be
000002e0: 9b64 a63d 6b0b fb3d 57d0 56be 56ea 343c
000002f0: c57e 453e 0acf 4ebe 083a 04be 0bea 2abe
00000300: 38fa da3d 12e4 54bd 6321 3d3d 94a6 b6bd
00000310: 91b6 ab3c 7a27 213e 62a5 58be d878 01be
00000320: 92a7 cfbd 0e98 263e c3c7 963d 81b4 2a3e
00000330: ed5f a5bd 6edc 963d 0ebd 833d 9b31 8abe
00000340: 0e26 26bd a100 3cbe d826 9a3d 4767 353e
00000350: 5563 8b3d 62d0 3d3d 9792 b63d 8051 203e
00000360: 5700 1d3e ef75 95be f28c f3bd 69ab f83d
00000370: e48f 11be 6464 b83a edf1 c03b 94e2 5f3d
00000380: 8466 1cbe 0ae8 99be 1d2e cdbe 78c0 f1bc
00000390: 5fcf b0bd 9ffd 71be 3c40 f3bd 9315 30be
000003a0: ef11 0bbd 3cab 0f3d c2e1 d73d cb1f 1dbe
000003b0: aea2 8c3d 5890 223e 0e12 743d a8fe 893d
000003c0: eca6 8d3d fb6a 003e 62bd 4b3e 1dd3 6fbd
000003d0: 1afd 323d 150b 193e 9b7c 253c 455a 09be
000003e0: 4588 033d d091 0f3e ea66 103e 8ee5 503e
000003f0: ebe7 08be 1502 143e dd91 4f3e 21dd 9e3b
0.20444241 -0.08476889 -0.25034404 0.2167941 0.073820636 -0.18944007 0.120484956 0.008224959
-0.22632542 0.16471615 0.012115274 -0.29618052 0.18091373 -0.08028394 -0.13228811 0.17683406
-0.12888022 0.0571404 -0.07353973 0.097523704 -0.036066797 0.016889907 0.14008132 -0.23761141
-0.095812485 0.035422653 0.06955263 0.22451961 0.21320146 0.07124388 -0.22224215 -0.082908355
0.039561033 -0.16672444 -0.1353551 -0.04200096 0.070524395 0.08640003 0.011119492 -0.16965578
0.043725956 -0.15034342 0.022338709 0.15352504 0.060818925 0.19090535 -0.040357355 0.009490668
-0.2914502 -0.06738263 -0.032102562 0.106848285 -0.072700456 0.019881358 0.12155847 0.068360604
-0.019634357 -0.062348798 0.18234064 0.13677058 -0.14388919 -0.04071103 -0.12644178 -0.030246599
-0.01220882 0.17435615 -0.19681378 0.07611615 0.18484838 -0.41663784 -0.1285954 0.052688926
-0.108385034 0.026508963 0.1320093 -0.03348449 -0.050287433 0.19175318 -0.24111603 -0.09479763
0.23470668 -0.11627827 -0.2984473 0.1854105 0.2099193 -0.15550207 0.13850941 -0.044528503
0.035466086 0.14562894 0.12858403 -0.11230592 0.030176792 0.08733781 -0.059167545 -0.0143944835
-0.13506795 -0.13629444 0.07309989 0.12561765 0.036379956 -0.15924977 0.0009453117 -0.14331555
0.192278 0.19554605 -0.17007366 -0.12892763 -0.02324784 -0.04988597 0.06820847 0.043837573
0.052625306 -0.28347266 0.100431025 0.04457672 0.058477234 0.15039897 -0.1504283 -0.0762298
0.10579611 0.054476283 -0.50671154 0.24359706 -0.055320024 -0.22410563 0.08193336 0.1935611
-0.12547258 0.022574106 -0.17423221 -0.14999022 0.0071587204 0.006537361 0.06822338 0.18537043
0.20631003 0.10282397 -0.08176831 0.09235533 0.15890306 -0.107916474 -0.22991042 -0.22495525
-0.06140307 -0.13266213 -0.12086587 0.11686701 -0.108029015 -0.09189679 0.029087685 0.052669898
-0.20096207 0.07123724 0.17901534 0.09703255 0.1393747 -0.032886323 -0.09400615 -0.11444504
0.12663509 -0.120992616 0.03330366 0.08799592 -0.08787977 -0.10925287 -0.09255144 0.127881
0.05548823 0.16101982 0.11332151 -0.26991215 -0.04329883 0.04928769 -0.082264796 0.0061679035
0.09293095 -0.2302194 0.14178404 -0.09693887 -0.18708828 0.08482817 -0.07007117 -0.12538251
0.08124658 0.12258037 -0.20977913 0.011042198 0.1928664 -0.20196167 -0.12912762 -0.16690843
0.10692257 -0.051975317 0.04617442 -0.08918491 0.020961078 0.15737715 -0.21156839 -0.12643754
-0.101393834 0.16268942 0.0736232 0.1667042 -0.08074937 0.073662624 0.06432544 -0.2699097
-0.040563636 -0.18359615 0.0752694 0.17715178 0.068060555 0.046341307 0.089146785 0.1565609
0.15332161 -0.2919154 -0.118921176 0.12142069 -0.14215046 0.0014068005 0.005888215 0.05465944
-0.15273482 -0.30059844 -0.40074244 -0.029510722 -0.08633303 -0.23631905 -0.11877486 -0.1719573
-0.03395265 0.03507541 0.10541107 -0.1534416 0.06866966 0.15875375 0.05958753 0.06738025
0.069166034 0.1254081 0.19896463 -0.058550943 0.043698408 0.14945634 0.010100509 -0.13413341
0.03211238 0.14020467 0.14101759 0.20400068 -0.1336972 0.14453919 0.20270486 0.004848138

conv1.bias f4 [16]
00000000: f894 e2bd c41b 063e fe0e 293c 3452 123d
00000010: a3be cb3d 5bf1 1bbe d967 913d ab7a 3d3e
00000020: 3dee 803b c554 babd 1616 063e 61ab 683e
00000030: 9ca9 a43c 40b5 373e 9922 343e fd4d 913e
-0.1106357 0.13096529 0.010318516 0.035722926 0.099484704 -0.15228789 0.070998855 0.18503825
0.00393465 -0.090982 0.13094363 0.22721626 0.020100407 0.17940235 0.17591323 0.28379813

bn1.weight f4 [16]
00000000: 0e11 873f b357 703f a1e0 863f 449c 713f
00000010: d4fd 7b3f 5e75 7e3f f134 413f 8765 903f
00000020: bcad 743f a581 273f b4e3 873f ac48 5f3f
00000030: d764 883f dd09 a03f 79d4 5f3f 7cc1 8f3f
1.055208 0.9388382 1.0537301 0.9437907 0.98434186 0.9939784 0.7547141 1.1280984
0.955776 0.65432197 1.0616364 0.87220263 1.0655774 1.250301 0.8743358 1.1230922

bn1.bias f4 [16]
00000000: 7199 f3bd ecb2 85be 2916 f2bd 317d b3be
00000010: 81b8 81be af27 1dbe 1d93 75bd 8d8b 31be
00000020: 5715 8fbd 786e eebd 738d 0dbe 3474 d5be
00000030: cea1 77be 9d7d a1bd 3b04 cbbd 3cb3 1dbe
-0.11894501 -0.2611307 -0.11820633 -0.3505645 -0.25336078 -0.1534717 -0.05995475 -0.1733839
-0.06986492 -0.11642164 -0.1382349 -0.41690218 -0.24182817 -0.07885287 -0.09912916 -0.15400404

bn1.running_mean f4 [16]
00000000: 0a3b 98be d6ef ceba 4b15 cabd 2040 79bd
00000010: 582d a1be 8185 7ebe cc6d 17be 5b6f 993d
00000020: efe1 38bf 2a43 773e a122 0cbf 10ce b8be
00000030: d106 2ebe d7e6 943d 9e0c b93f 4f54 543d
-0.29732543 -0.0015788029 -0.098673426 -0.06085217 -0.31479907 -0.24855615 -0.14787978 0.074919425
-0.7221975 0.24146715 -0.5474034 -0.36094713 -0.16994788 0.07270592 1.4456975 0.051838215

bn1.running_var f4 [16]
00000000: f016 5e3e 3a39 b93d 850e 7e3e 8f07 583d
00000010: 4c87 9f3e 1927 d13d a86a 0e3e 5f0f 523e
00000020: 7841 263f c51f 5a3e 236c d43e f6fe b63e
00000030: 3afb 403e 1e2e 333e 312a cc3f ed41 2c3e
0.21688437 0.09044118 0.24810226 0.052741583 0.3115791 0.102125354 0.13907874 0.20513676
0.6494365 0.21301182 0.41488752 0.35741395 0.18845835 0.17498061 1.5950376 0.16822024

conv2.weight f4 [32, 16, 3, 3]
00000000: c4e3 f5bd 43c1 30bd d111 353c 5b04 0dbe
00000010: fd55 9c3d c7ef 59bc 2a6d 2dbe d7f3 15be
00000020: 7e1f 87bd ee67 123d e8fd 6a3d 8edd d0bc
00000030: 7902 383d 28a8 f2bc 2942 bcbd 3c12 833d
00000040: acac 6d3b a053 9cbc 6696 343e 5d28 e63b
00000050: 6d6c b2bc f6f6 4b3d e410 f33d 7eb3 b3bd
00000060: 5bc2 c03c d008 073d 98ac bc3b ecd7 083d
00000070: a7f9 96bc 9535 a7bd fdcd 0abd c586 82bd
00000080: 6700 783b 08fd fcbd f6b7 82bd 3742 adbd
00000090: d79b dabd 5e8c b4bd 2ef0 863d 70bb 4c3d
000000a0: 80b7 233d a388 9a3c e71d 5fbd c4f0 6a3d
000000b0: bf54 b2bd 53a7 823d 2453 fc3d 9730 403e
000000c0: ba1d a23d 470e 993d 828e e23d 278a aa3d
000000d0: c05f b63d 8f77 db3d 82e2 c8bc ea23 d0bd
000000e0: caf9 ed3c e01b ddbd 1ce0 8bbd 9d4c 69bd
000000f0: 1c19 ebbd a5c3 f6bd 3ffa 9bbd cad1 06be
00000100: 5062 93bd 2e90 44be 074c 32bd 751b 05be
00000110: db81 823c 3497 da3c 6a8e 253d 7b6e 223d
00000120: e18b e4bd 8de9 e7bb f919 cfbc 128b 513d
00000130: 7302 39bd f7aa 70bd 4ece f83c 323f cd3d
00000140: e979 863d 911b cd3c 1c88 d83b e720 803b
00000150: cb19 30bd 0ff7 89bd 0d0a 56bd e036 34bd
00000160: d323 f5bd 0ca2 95bd 3363 8d3d b9f3 a13d
00000170: f7b3 dd3d d5da 1e3d b9bc b73d c5f9 b63d
00000180: 47a5 8c3d df9f 2e3e f4f4 1e3e 4e26 013c
00000190: 223f aebd 1ddf 633c 7e79 653b bd15 0c3e
000001a0: 9e2a a73d 7b1e 1f3e 87fd 093d 41d3 c73d
000001b0: 42bb cdbd aff0 5bbb b7ba bfbd cf03 663d
000001c0: 07b9 25bc 7dbe e5bc d298 e3bc d5fa 74bd
000001d0: 6dda c3bd dfec a13d 61be c1bb 6a5f 373d
000001e0: ed3c d03d 1f2f ea3c 3317 873d d834 223e
000001f0: 00d6 363e 2079 223e 380a 6fbc 5a51 39bc
00000200: f9e2 e83c 259e babd 09dc 6b3c 1f63 9bbd
00000210: ba85 b4bd f75f 543d 66b8 04bc 482c 10be
00000220: 4b82 40bd a143 0dbe 2b9d ecbd 352e 14be
00000230: 5bb6 c8bd 7487 123e 9cf8 083c d292 5d3d
00000240: e018 e8bd 5950 8a3a 9aaf a7bd a2a4 f6bd
00000250: 7eec 823d 3eb0 b0bd 6751 08be f392 1ebe
00000260: d944 80be 9d48 adbc 5d23 4ebd 966a 9fbc
00000270: 2301 fbbc 489f 193d 053e 393c 23e2 4cbd
00000280: d17f 443d 1ca3 f3bc 0d75 aa3c feb3 9d3d
00000290: 72f0 2dbc 9c4f 07bd 6cbc 8b3c f375 103d
000002a0: 5091 a5bc 6a1e 50bd 80c3 e13c cd83 a93c
000002b0: 9044 ba3c bb45 9a3d fbb2 7d3c d2da bc3d
000002c0: 98aa 9b3d d0e6 07bd fea6 42bd 4e51 b5bc
000002d0: 0f88 e7bd f301 bd3d 1c61 9f3d 1e64 2c3d
000002e0: d8a0 ff3c f661 3e3c ef21 26be 5f6c 5fbd
000002f0: 2095 513c d7af 273d 9527 c33c 574f a7bb
00000300: a99f 353d d4e7 a93d 54ab b33d 4d24 703c
00000310: 70e9 cc3c 1ba2 3c3e 8c6b abbc 1c2c 823c
00000320: bc11 68bc 4d5f bfbd cc11 c83c 13ea 32bd
00000330: e8ff 7fbd 3bcc e7bd 467e 11bd 8da6 00be
00000340: cc3b aabd 61ae f1bd fd0e be3d 15b5 293e
00000350: 1ef7 093d a7e7 87bd bd24 15be 2353 67bd
00000360: 62e0 463d 41f2 eb3d 48da 863d bde5 18bb
00000370: c01c 103e 038e 103e e460 a73c 72ca 033d
00000380: fd07 0c3c c563 adbd 9058 03be 93b6 3cbd
00000390: fdf1 cabd 5574 8dbd dda1 9abd e4c1 36be
000003a0: 99a5 3abe 9a9c 0cbe 8ff2 0abd c17b 2bbd
000003b0: 570b 52bc db0a 4c3d f3da 2ebd 6251 563d
000003c0: 619f 14bc b80c e1bd 668a ac3a 2212 bebd
000003d0: 52fc 623d 0968 1e3c 147f 0abd edb3 0d3c
000003e0: f471 5c3c 1f6a 0cbe c21d 0b3d 29dd d1bd
000003f0: 59b8 cabd c62a 1dbd d7c5 e3bc 508f 0a3d
-0.120063335 -0.04315306 0.011051611 -0.13771193 0.076335885 -0.013301796 -0.16936174 -0.14643799
-0.065978035 0.035743646 0.05737105 -0.02549627 0.044924233 -0.029621199 -0.091923065 0.06399962
0.003626625 -0.019082844 0.17635497 0.0070238546 -0.021780217 0.049796067 0.11868456 -0.0877447
0.023530176 0.03296739 0.0057578795 0.033409044 -0.01842959 -0.08164517 -0.033887852 -0.063733615
0.0037842037 -0.123529494 -0.06382744 -0.08459895 -0.10674255 -0.088158354 0.065887794 0.04998344
0.03996992 0.018863982 -0.054471876 0.05735852 -0.0870757 0.06379571 0.12320545 0.18768536
0.07915826 0.07473426 0.110623375 0.08327132 0.089049816 0.10716163 -0.02452207 -0.101631
0.029049773 -0.10796332 -0.06829855 -0.05695783 -0.114793986 -0.12049035 -0.0761609 -0.13165966
-0.07196486 -0.19195625 -0.043529537 -0.12998755 0.01593106 0.026683427 0.04041902 0.039656144
-0.11159492 -0.007077402 -0.02528094 0.05115802 -0.04516835 -0.058756795 0.030371811 0.10021819
0.06566221 0.025037559 0.0066080224 0.0039101723 -0.042993348 -0.06736576 -0.05225568 -0.043997645
-0.119697236 -0.073062986 0.069036864 0.079078145 0.10825341 0.038782913 0.08971543 0.089343585
0.06867462 0.17053173 0.1552313 0.007882668 -0.085081354 0.013908175 0.0035015042 0.13680167
0.081624255 0.15538971 0.03368905 0.0975709 -0.10045482 -0.0033560207 -0.09361785 0.056155976
-0.010114915 -0.028044933 -0.027782831 -0.059809525 -0.09563146 0.07906508 -0.0059125875 0.04476873
0.10167871 0.028586922 0.06596222 0.15840471 0.17855072 0.15866518 -0.014589839 -0.0113109
0.028428541 -0.09112195 0.014395722 -0.07587265 -0.08814569 0.05184933 -0.008100605 -0.14079392
-0.046999257 -0.1379533 -0.11553415 -0.14470752 -0.098004065 0.14309484 0.008360054 0.054095097
-0.113328695 0.001055251 -0.0818779 -0.1204312 0.063927636 -0.086273655 -0.13312303 -0.15485744
-0.25052527 -0.021152789 -0.050326694 -0.019460004 -0.03064019 0.037505418 0.0113062905 -0.05002035
0.047973458 -0.029740863 0.020807767 0.077003464 -0.010616409 -0.033034906 0.01705762 0.035268735
-0.020210892 -0.050810255 0.027559042 0.02069273 0.022737771 0.07532831 0.015484567 0.09221424
0.076008976 -0.033179104 -0.047522537 -0.022133496 -0.11305248 0.092288874 0.07782194 0.042087667
0.031204626 0.011620035 -0.16223882 -0.05454671 0.012791902 0.04093918 0.023822585 -0.0051058936
0.044341717 0.08296171 0.087729126 0.014657092 0.025013655 0.18421213 -0.020925306 0.015890174
-0.014164384 -0.09344349 0.024422549 -0.04368026 -0.06249991 -0.11318251 -0.035520814 -0.12563534
-0.083121866 -0.11800838 0.092802025 0.16572984 0.033682935 -0.06635981 -0.14564796 -0.05647577
0.048553832 0.11520816 0.065846026 -0.0023330294 0.14073467 0.14116673 0.020431943 0.03217549
0.008546826 -0.08466295 -0.12826753 -0.046072554 -0.09909437 -0.06906954 -0.07550404 -0.17847401
-0.18227233 -0.13731614 -0.03392273 -0.041866068 -0.012820086 0.04981504 -0.042689275 0.052323706
-0.009071202 -0.10988754 0.0013163805 -0.09280802 0.055416413 0.009668359 -0.033812597 0.008648855
0.013454903 -0.13712357 0.033963926 -0.10247261 -0.09898443 -0.03837087 -0.027804298 0.03382808

conv2.bias f4 [32]
00000000: c7c9 97bd 128e b5bb 7d0e 603d dc14 12bd
00000010: fdf6 793d 65a7 65bd 6f63 893d 53b5 a93d
00000020: dd2a 733d f879 2f3d f27f 823d c9ce 65bd
00000030: 221f 76bd 30c5 f93c de56 76bd b31b c5bc
00000040: 6fd0 673d c87e 443d 6557 2ebc 1753 c63b
00000050: 6e54 77bd 2749 2dbd 72b4 a93d 6913 803d
00000060: 208d 123c f668 a1bd 4dc8 2e3d b3ea 243d
00000070: 8cb0 433d 0041 d33c 6f65 3c3d ff73 69bd
-0.07411533 -0.0055406177 0.054701317 -0.035664424 0.061026562 -0.056067843 0.067084186 0.08286538
0.05936705 0.042840928 0.0637206 -0.05610541 -0.060088284 0.030489534 -0.060141437 -0.02406106
0.056595262 0.04797247 -0.010640954 0.0060523855 -0.060383253 -0.04230609 0.0828637 0.06253702
0.00894478 -0.07881348 0.04267149 0.04026289 0.04777579 0.02578783 0.045995172 -0.056995388

bn2.weight f4 [32]
00000000: 5eb6 793f c0d9 713f 8482 743f 9314 833f
00000010: 85da 703f dd2c 713f 306b 693f 6280 5a3f
00000020: b562 843f 8966 763f 14bb 5e3f faf1 733f
00000030: 1ffb 683f 5219 8a3f 12e0 5d3f 263a 4c3f
00000040: 4e85 7a3f d5dd 7c3f 358a 763f 2f61 773f
00000050: 491a 7c3f ef5d 603f 6082 743f 0802 813f
00000060: 007d 6e3f 4b45 7a3f febe 7e3f 6897 573f
00000070: e8e8 5b3f 3c4a 803f 48df 833f 9f16 783f
0.97543895 0.94472885 0.9551165 1.0240654 0.94083434 0.9420908 0.9117918 0.85352147
1.0342623 0.96250206 0.8700421 0.952911 0.9100818 1.0788977 0.8667003 0.7977623
0.97859657 0.9877599 0.9630464 0.96632665 0.9847761 0.8764333 0.95511436 1.0078745
0.93159485 0.9776198 0.9951018 0.842154 0.8590226 1.0022655 1.0302515 0.9690952

bn2.bias f4 [32]
00000000: ecb1 90be 57bc 91be 1d38 21be e74e 05bf
00000010: cf16 57bf c2f2 6f3e b90a e0bd bd2c 27bd
00000020: bd94 7cbe d772 d0bc cf37 4abe e931 cdbb
00000030: c9ef 48bd 0f47 edbe 0b7f 54be b622 94be
00000040: 4681 4bbe 955a 863c b545 9a3d e11f 4ebe
00000050: 4f95 44be 2764 bbbe 54b5 21be e8a8 83be
00000060: 2967 5fbe 50b1 13be b270 8ebe 40f9 6abe
00000070: 3ee4 91be 7721 7dbe 68d4 09be d034 7cbe
-0.28260744 -0.28464004 -0.15744062 -0.5207352 -0.8401918 0.23432449 -0.10939545 -0.04081415
-0.24666114 -0.025445385 -0.19747852 -0.0062620533 -0.049056802 -0.46343276 -0.20751588 -0.28932732
-0.19873533 0.016400615 0.07532827 -0.20129348 -0.19197582 -0.36599848 -0.15791827 -0.25714803
-0.21816696 -0.14423108 -0.27820355 -0.22946644 -0.28494447 -0.24719797 -0.13459933 -0.24629521

bn2.running_mean f4 [32]
00000000: 4457 733c b6d0 9abf 36a4 863e 1350 2d3f
00000010: 661f ad3f 87c8 05c0 8bb6 9fbf 1fdf bcbf
00000020: a927 2b3d 0d9d d4bf 8fcc b83f 93b4 78bf
00000030: dc95 3ac0 b683 263f 29e8 d33f 3d30 21bf
00000040: 6d1a d23f 39c6 0fc0 923d debf f5a8 d23e
00000050: a2ba 8abc 61e4 c83e 8b47 453f 1809 813f
00000060: 9859 9c3f b894 bbbf 295f 163e 0044 cf3f
00000070: 531e 023f 6bfe 2e3d 9b9a 8e3e a798 0e3f
0.014852349 -1.2094944 0.26297158 0.6770031 1.3525207 -2.0903642 -1.2477583 -1.4755591
0.04178587 -1.6610428 1.4437426 -0.97150534 -2.9153967 0.65044725 1.6555225 -0.6296423
1.6414315 -2.2464736 -1.736254 0.4114453 -0.016934697 0.3923674 0.7706229 1.00809
1.2214842 -1.465476 0.14684738 1.6192627 0.5082752 0.0427231 0.2785233 0.5570168

bn2.running_var f4 [32]
00000000: 5365 7740 e232 2740 3533 2140 f882 3340
00000010: a4d7 c140 ecf4 4841 fefe 2541 7483 d740
00000020: 0495 c73f f924 7141 9317 1341 b714 7f40
00000030: b743 d941 b411 3040 4fc1 3441 2b34 b340
00000040: 1af1 2941 78d8 9141 8699 1d41 356f 7f40
00000050: c0e3 f63f c3d7 0540 8a96 8640 7072 b740
00000060: e6b0 e440 4cd1 3541 7e8e 7640 35ed 2841
00000070: 1009 9040 1148 c240 1959 2040 1c51 5840
3.8655593 2.6124806 2.5187504 2.8048687 6.0575733 12.559795 10.374754 6.7347965
1.5592351 15.071527 9.193255 3.9856393 27.158064 2.7510805 11.2971945 5.600118
10.621363 18.230698 9.849981 3.9911625 1.9288254 2.091294 4.2058764 5.7327194
7.146594 11.363598 3.852447 10.557912 4.5011063 6.071297 2.505438 3.3799505

conv3.weight f4 [64, 32, 3, 3]
00000000: 8717 633e e189 4b3e f96d 4f3e 38fb 4f3e
00000010: 7f99 1f3e 6eb2 543e b5ff 363d d436 a83d
00000020: 63fa c73d 61d0 c03d b33f 4d3d 59c5 e63d
00000030: 2c0a 693d 26b0 053c 374d 223c 71dc d1bd
00000040: c3a6 a2bd 2201 f8bd d930 2a3c 296a acbd
00000050: 8a3b 79bc 64c9 61bd 2a80 92bd 9317 d83a
00000060: a206 60bd f6d6 46bd deb2 86bd 067d a0bd
00000070: 580a 86bd ce78 f839 58a4 99bd e744 dbbc
00000080: bffe 94bd 9b74 1ebe c72c dcbd 1c3d f5bd
00000090: f290 13bd 3fe9 083c e6c0 76bc f556 5abd
000000a0: db77 b7bd e470 b0bc 9715 aebd 766e ddbd
000000b0: 5ac9 0dbe 5951 d53d 68da e0bb 2bbd 6b3d
000000c0: 4734 143d cc88 73bd c2f9 98bd 09e6 783c
000000d0: 9e13 bdbc d0d6 e93b 968c b33d 3e45 173e
000000e0: 3b13 283e 89dd a93d 89ae 083c c131 823d
000000f0: 69ff 9cbd 4c6c f3bd a5bd 13bd 769d f43d
00000100: df7a d83c 5c5d 953c 25cf a63c ff46 43bd
00000110: 5162 f2bc ebf2 02bc 57e9 0c3d 8d0f 1ebd
00000120: 2fe1 b1bd 8a0f b4bd 08c7 e3bc 4068 0bbe
00000130: c388 75bd b053 d2bd d3a2 6c3c 1c89 37bd
00000140: dfa9 4e3d d649 983d 7a87 f53d 274b f03d
00000150: aac6 893b cea7 263d 106d cbbb 2b61 943c
00000160: ba44 6abd b257 703d cf45 c23d cc69 e23c
00000170: a22a 013e daaf 593d 8aff 2c3d b1e9 b93d
00000180: c23a a43d d8f1 463d 4a63 1c3d 7cab d23c
00000190: d024 1bbb 2dfb ce3b eca4 8d3c 214b ad3b
000001a0: e527 bc3b 8623 c83d 0fea 983d a5ab 8a3c
000001b0: 8deb 8f3d 4b68 f33d 86ea a73d 77ef a43d
000001c0: bc0f 563d 8379 e53d d772 553d 7606 a73d
000001d0: 9c3d c03d be86 b7bd 211f 91bd c656 85bd
000001e0: ce21 afbd dca9 e6bd 0ae8 04be 9d10 b4bd
000001f0: 0de8 c9bd 688c e9bd 9e99 f839 1672 533c
00000200: 07e0 583d ebc9 373c 4b25 523c 77a6 963d
00000210: f4d9 1c3e ee3f 623d 8ea3 973d 9ee9 203a
00000220: b8b7 223c c771 253d f151 a8bc 07a1 d73c
00000230: 76fd 8d3d 8da3 043e aaac a03d cbc5 883d
00000240: ed75 673d 123b 8bbd 525c a83d 4c1f 98bc
00000250: f608 1d3d 6cc3 bc3c ebc6 4c3d 4c36 8d3d
00000260: f1d4 163e a093 a13d a2e8 f23d f3ce f43d
00000270: 2763 023e 0ebd c03d 8a63 6e3b a6fb af3d
00000280: 4cec c93d c213 403d cab0 173d 3e87 ba3c
00000290: 6230 973c 715a d7bc bc0e 363c 613e 0f3c
000002a0: 3800 e53c 4175 433d 5145 ba3d 79b9 66ba
000002b0: 7840 90bd 0afe b83c 7345 c7bc e7c8 c2bc
000002c0: 606e 523d 3c4f f03c d148 303d cef1 2d3d
000002d0: 907e 87b9 b1b4 01bd ff2b ae3d bc4e b6bd
000002e0: 4c9e 00bc df66 863d b4a1 43bd 8229 6d3d
000002f0: 253f 1d3e bb6a d93d 0040 323d cff4 fe3d
00000300: 7b82 d33d 2203 aa3d 4e43 363d 651e e93b
00000310: 50fd a8bd 4b07 48bd c26c e53b 65f5 6a3c
00000320: 9c60 77bc 01cf 3f3d 7157 76bd b449 f4bb
00000330: 3b8a 003e 33bd 703d 8088 8a3d 5442 1c3e
00000340: 3ad6 833d a5ab 153e 3313 d63d 2304 a93d
00000350: ed09 233e 3d32 ae3d 55bd 7f3d b32d 133e
00000360: 44c1 c23d 1876 ee3c 723f a83d 513f 003e
00000370: 3a3c 06bc 1b77 733d 46ec 4b3d bee1 1a3c
00000380: d379 183d 100b 153e 22c6 6f3d 5b12 88bd
00000390: ac46 393e d585 793d ad03 333c 6751 863d
000003a0: 60a6 833d 379d 703d 1eda 423e 22c0 173e
000003b0: 3ff9 5a3e 7a06 493e 4f16 db3d deb0 0d3e
000003c0: d967 ca3d 460b a03d 81d8 ab3d f23d 713d
000003d0: ca3f 513d aacf 6e3d 7d97 743d 40fe 343d
000003e0: 3a9e 9f3d e5d8 633c 5744 6b3d e4c1 853d
000003f0: ebfa 3a3d 40f2 203c 20b4 7f3d 115e 663c
0.22176944 0.19876815 0.20256795 0.20310676 0.15585898 0.2077119 0.044677455 0.08213583
0.09764554 0.09414745 0.050109576 0.1126811 0.056894466 0.008159673 0.009906105 -0.10247124
-0.079419635 -0.12109591 0.010387623 -0.08418686 -0.015211949 -0.0551237 -0.071533516 0.0016486518
-0.054693826 -0.048544846 -0.06577085 -0.07836346 -0.06544942 0.00047392253 -0.07502049 -0.026766254
-0.072751515 -0.15474169 -0.10750728 -0.11974546 -0.036026902 0.008356391 -0.015060639 -0.053305585
-0.089584075 -0.021538205 -0.08500212 -0.108120844 -0.13846341 0.104159065 -0.0068619736 0.05755345
0.036182668 -0.05945663 -0.074695125 0.015191563 -0.023080643 0.0071362033 0.08767049 0.14772508
0.16413586 0.082942076 0.008342394 0.06357146 -0.07665903 -0.1188589 -0.03606953 0.11944096
0.026425777 0.018232994 0.020362446 -0.04767513 -0.029587897 -0.0079924865 0.034402218 -0.03858905
-0.086855285 -0.08792026 -0.027804866 -0.13613987 -0.05994488 -0.102698684 0.014443117 -0.044808492
0.05045497 0.07435958 0.11988731 0.11733084 0.004204591 0.040687375 -0.0062080696 0.01811274
-0.05719445 0.058677383 0.09485971 0.027638339 0.1261392 0.05314622 0.04223589 0.09077776
0.0801902 0.048570484 0.038180627 0.025716536 -0.0023673065 0.0063165636 0.017290555 0.005288497
0.0057420605 0.097724006 0.07466518 0.01692755 0.070273496 0.11885127 0.08199029 0.08053487
0.0522611 0.11204817 0.052111473 0.08155529 0.09386751 -0.08961247 -0.070860155 -0.06510691
-0.085513696 -0.11262867 -0.12979141 -0.08792231 -0.09858713 -0.114037335 0.000474167 0.012905618
0.052948024 0.011217575 0.012826274 0.073559694 0.15317518 0.05523675 0.074042425 0.00061383273
0.009931497 0.04039171 -0.020546885 0.026321901 0.069331095 0.12953015 0.07845433 0.06678351
0.056508947 -0.06798376 0.08220734 -0.018569611 0.038338624 0.023042403 0.04999439 0.06895122
0.14729668 0.07889485 0.118607774 0.11953535 0.12733136 0.09411059 0.0036375248 0.0859292
0.09859523 0.046893843 0.037033834 0.022769567 0.018455688 -0.026288243 0.011111911 0.0087429
0.027954206 0.047719244 0.09095252 -0.0008801441 -0.070435464 0.022582073 -0.024325108 -0.023777438
0.051374793 0.029334657 0.043038193 0.04246693 -0.00025843503 -0.03166646 0.08504485 -0.08901736
-0.007850241 0.0656259 -0.047761634 0.057900913 0.15356119 0.1061606 0.043518066 0.12449037
0.103276215 0.08301379 0.04449778 0.007114219 -0.082514405 -0.04883508 0.0070014903 0.014340733
-0.015098717 0.046828274 -0.060141984 -0.007455075 0.1255273 0.058774184 0.067643166 0.15259677
0.06437345 0.14616258 0.10452881 0.08252742 0.15921755 0.08505676 0.06243642 0.14372902
0.09509519 0.029109046 0.08215226 0.12524153 -0.00819307 0.05943976 0.049785875 0.009453235
0.037225556 0.14555001 0.058538564 -0.06644126 0.18093365 0.060918648 0.010926169 0.06558495
0.06428218 0.05874368 0.19028518 0.14819387 0.21384142 0.19631377 0.106976144 0.13837
0.098830886 0.0781465 0.08390904 0.058896966 0.051086225 0.058303513 0.059714783 0.044187784
0.07793851 0.013906692 0.05743822 0.06531122 0.04564945 0.009823382 0.06242764 0.014060513

conv3.bias f4 [64]
00000000: 5e3d 04bd ee12 b2ba 81f8 513d bc5c d63b
00000010: cacd 28bc e4c2 833b e78e 1abd 8862 8d3c
00000020: 8a58 0dbd 652d 6e3d 842e ac3c 69d0 f73b
00000030: e7a6 65bc 56ab a9bc fece b1bc 8cd1 bebb
00000040: 48f8 703d b795 9bbc c126 8e3d b25f 14bd
00000050: 82f6 db3c 0ec3 843d ae4c 623a 381d f13c
00000060: 4eb3 90bc 1145 22bc 7eec 76bc afc2 27bc
00000070: 6be0 5cbd 729b 35bd 8d96 6f3d 07fb 8b3d
00000080: 71e1 33bd ac3b 2fbd 47ab 6f3d f36b cfbc
00000090: e27f 973b 8105 f8bc 80dd 383d 6925 aa3b
000000a0: b95c d83c 70c8 dc3c 1f61 6e3b 5016 6ebd
000000b0: fe42 f5bc 2876 a43d 7cca 7a3b 7009 d83b
000000c0: e1f4 f3bc 3c65 373d 5ce2 bebc cb8b 10bd
000000d0: a546 6c3d 6b0e d73c bd8d 0b3d d06b e2bc
000000e0: bbc1 34bc 90e9 a6bc d210 813c d0be 333d
000000f0: 4cef 663c 0abc dbbc ee8d 0c3d ccd6 ae3c
-0.032285087 -0.0013585964 0.051262382 0.0065418165 -0.01030297 0.0040210355 -0.03773394 0.017258897
-0.034508266 0.05814876 0.021018274 0.007562686 -0.014016843 -0.020711582 -0.021705147 -0.00582332
0.05883053 -0.018992288 0.069409855 -0.036224075 0.026850943 0.06482516 0.0008632642 0.029432878
-0.017663624 -0.009904162 -0.015071033 -0.010239287 -0.05392496 -0.044337697 0.058493186 0.06834989
-0.04391617 -0.042781517 0.058512952 -0.025320029 0.004623399 -0.030276062 0.045133114 0.005192448
0.026411401 0.026951045 0.0036373807 -0.058126748 -0.02993917 0.08030349 0.0038267663 0.006592922
-0.029779853 0.04477428 -0.023301296 -0.035289567 0.05768456 0.026251992 0.03407072 -0.0276393
-0.011032517 -0.020375043 0.01575509 0.043883145 0.014095139 -0.026823062 0.034315042 0.021342658

bn3.weight f4 [64]
00000000: 7f12 853f 0eaa 6f3f 7710 563f b8cf 6a3f
00000010: c89c 723f 83f1 8b3f b4b9 863f c343 953f
00000020: d4c9 7b3f d24a 5f3f e3ce 763f 79f0 863f
00000030: c4a0 6c3f 55f4 6d3f 2bd6 8f3f 301c 8e3f
00000040: b134 563f e224 7a3f e4a2 8b3f 432d 593f
00000050: c3ac 6b3f 5d68 883f 27f0 7f3f 52c7 943f
00000060: 9ea0 883f 74be 643f 0207 8c3f 5987 843f
00000070: a895 633f c89d 663f 5c5a 873f 0acb 8f3f
00000080: 3939 8a3f aac7 7d3f c270 5a3f e4cc 913f
00000090: 2f46 8a3f 5cab 813f 8dc5 563f 44b8 603f
000000a0: db38 963f 5751 8f3f 9b2d 913f 1b91 733f
000000b0: e789 783f c2b2 8c3f f99f 7c3f fb7f 7a3f
000000c0: 4b9d 7a3f 214a 673f 4731 8a3f 56e5 533f
000000d0: 89e8 7e3f 9317 9c3f 73c5 743f 8f57 813f
000000e0: af42 813f 65ea 833f 0b98 8a3f d0b9 873f
000000f0: c6e9 863f 34fe 843f 35e6 863f 4978 863f
1.039627 0.9361886 0.83618873 0.91723204 0.9477048 1.0933079 1.0525422 1.1661304
0.9835484 0.8722354 0.96409434 1.0542136 0.9243281 0.92950946 1.1237234 1.1102352
0.8367415 0.9771253 1.0909085 0.8483469 0.9206049 1.0656849 0.9997582 1.1623328
1.0674016 0.8935311 1.0939639 1.0353805 0.8890023 0.90084505 1.057445 1.1233838
1.0798713 0.9913279 0.85328305 1.1390653 1.0802668 1.013042 0.8389519 0.8778117
1.1736101 1.1196698 1.1342043 0.9514329 0.9708542 1.0992053 0.986816 0.9785153
0.9789626 0.90347487 1.0796288 0.82771814 0.9957357 1.2194694 0.95613784 1.0104846
1.0098475 1.0305907 1.082765 1.060358 1.0540092 1.0390077 1.0539004 1.0505458

bn3.bias f4 [64]
00000000: 923b 70be bed0 a3bd 91e4 9cbe 0386 63be
00000010: 4fd4 033d 3c58 d3be 803d a2be e4f7 babe
00000020: 1c17 80bd b442 bbbd 1e7d 39be 51cf a93d
00000030: 4cca c7bd ddcf 67be be90 c6be be11 bcbe
00000040: c9d3 ccbd 8b3a 01be cb81 dbbe ef02 a8bd
00000050: 68ff 66bd 7751 b9be b4da 1ebe aebc acbe
00000060: f0b0 a8be 3701 28be 76a1 cebe db3a d1be
00000070: 4e41 7ebe c584 b5bc e2f5 d5be 40d6 d6be
00000080: 86b8 64be 7ddb a03d fc12 56be 05fb acbd
00000090: a4d6 debe 0aaf 943d a4b0 84be e92e d8bd
000000a0: 7feb c6be de45 d6be f958 bebe 8771 8cbe
000000b0: 706c 99be 9db9 d6be 4bd9 753d 7de0 033d
000000c0: 4fa3 e93c 282a 1ebc 273f d8be 0838 1fbe
000000d0: 8973 7abe 9684 c3be a121 73bc 98b7 7bbe
000000e0: 1233 95be 2bca 6dbe 2f66 d3be 637c d2be
000000f0: a973 d4be fe69 983d ae18 cbbe 56b7 7fbe
-0.23460224 -0.07998799 -0.30643132 -0.2221909 0.032184895 -0.41278255 -0.31687546 -0.3651725
-0.06254408 -0.09143582 -0.18114135 0.082914956 -0.09755382 -0.22637887 -0.38782305 -0.36732286
-0.10001332 -0.12619989 -0.42872462 -0.082036845 -0.056395918 -0.36194965 -0.15513116 -0.337377
-0.32947493 -0.16406713 -0.4035756 -0.40865216 -0.248296 -0.022158036 -0.41789156 -0.41960335
-0.22336015 0.07854364 -0.2090568 -0.08446316 -0.43523133 0.072599486 -0.25916016 -0.105558224
-0.38851544 -0.4185018 -0.37177256 -0.27430364 -0.29965544 -0.41938487 0.06002168 0.03219651
0.028520254 -0.0096536055 -0.4223568 -0.15548718 -0.24458136 -0.38187093 -0.014839561 -0.24581754
-0.29140526 -0.23221652 -0.41288897 -0.41110525 -0.41494492 0.074420914 -0.39667267 -0.24972281

bn3.running_mean f4 [64]
00000000: 2ee0 ef3f 19d7 0940 c8c5 2cc0 9cd5 cbbe
00000010: 8884 2cc0 3489 133e 3a67 1e3f 9fe5 83be
00000020: a0bf dbbf a3f6 1240 748b 7040 8337 30c0
00000030: 12ea 6b40 f5e1 0ac0 9fea 58be 4aeb a4bd
00000040: f116 e1be 085b 7a40 8d7e a93d f4a3 39c0
00000050: 4890 a3be fe97 213e 30ce 00c0 b888 16bf
00000060: 8758 dd3e b8a5 a43f c73c 1d3e aa7c 513e
00000070: 18e4 6b40 ddf1 bcbf 886c 893e c946 b73c
00000080: 7579 c23f e0dd f4bf df53 7640 c4aa 7abf
00000090: a7e4 173d e492 08c0 2a06 7a40 42ef 22c0
000000a0: e02b 9cbe 20ce 0dbc 47f5 c4be 20b9 7140
000000b0: 6e47 56bf 5e3f fbbc 14fd 48c0 fe6e fbbf
000000c0: 99d8 09c0 88e9 773e 9ea9 893d 725d 923f
000000d0: 338c bd3f 7f14 99be 38f3 2bc0 fd0f ba3f
000000e0: 66f6 cb3f 9df6 463e ca35 ba3d 0faf 493e
000000f0: b156 1d3e 93d0 12c0 a739 e8bc a599 ae3f
1.8740289 2.1537535 -2.6995716 -0.3981141 -2.695589 0.14407808 0.6187626 -0.25761124
-1.7167854 2.2963035 3.7585115 -2.7533882 3.6861615 -2.1700413 -0.21183251 -0.0805269
-0.43962815 3.911806 0.08276091 -2.900632 -0.31946015 0.15780637 -2.0125847 -0.58802366
0.43231604 1.2863073 0.15355216 0.20457712 3.6857967 -1.4761311 0.26840615 0.02237262
1.5193316 -1.9130211 3.848869 -0.9791682 0.037083294 -2.1339655 3.9066262 -2.5458531
-0.30502224 -0.008655101 -0.38468382 3.7769241 -0.83702743 -0.030669864 -3.1404467 -1.9643247
-2.153845 0.24210179 0.06721805 1.1434767 1.480841 -0.2989845 -2.68672 1.4536129
1.593457 0.19430013 0.09092291 0.19695686 0.15365101 -2.2939804 -0.028347803 1.3640639

bn3.running_var f4 [64]
00000000: fdf3 ea40 85d6 b040 f688 ae41 e9b2 6c41
00000010: cb7f c741 2580 7c40 ea39 8d40 1682 7740
00000020: a528 7741 bec8 3741 c7ae 9841 cf15 fc40
00000030: 181a 9a40 df8e 2941 817b 7f40 39f9 8340
00000040: 08a7 f540 086b 8640 b57f 9040 6c25 7341
00000050: be77 e840 3754 7040 26cf e540 9f49 8140
00000060: b5ff 9240 d5f5 3541 f1bc 7e40 6cfd 8740
00000070: 1782 8340 943e a140 ca98 8c40 5c24 8140
00000080: fe76 ed40 d839 8040 858a a540 696a 2c41
00000090: 16d1 8b40 b941 8340 f0e6 a240 d893 3a41
000000a0: 967f 8140 f155 8340 f2b9 8c40 49cf e441
000000b0: 878a 7341 a9bb 8040 a306 ac41 af31 cc40
000000c0: 2084 9840 f0a0 f240 1ab2 8540 0324 9641
000000d0: e40b c540 e5a8 8240 7f15 3a41 38dc c340
000000e0: e81e af40 4b3b 8341 424d 8340 6dd1 8740
000000f0: e8f1 8640 7443 8d40 25a7 8740 7613 d940
7.3422837 5.5261865 21.816875 14.793679 24.937399 3.9453213 4.4133196 3.8673148
15.447423 11.486509 19.08534 7.877662 4.8156853 10.597381 3.991913 4.1241727
7.6766396 4.2005653 4.515589 15.196636 7.264617 3.75514 7.1815367 4.040237
4.593714 11.372518 3.980282 4.2496853 4.10963 5.038889 4.393651 4.0356884
7.4207754 4.007061 5.173159 10.775979 4.369273 4.101773 5.0906906 11.661095
4.0468245 4.104241 4.3976984 28.601213 15.22132 4.0229077 21.50324 6.381065
4.7661285 7.5821457 4.177991 18.767584 6.1577015 4.083117 11.630248 6.120632
5.4725227 16.403952 4.103181 4.2443147 4.2170296 4.414484 4.2391534 6.7836256

fc1.weight f4 [128, 64]
00000000: ea83 0b3e bb06 783d 7838 49bd 7bf7 073e
00000010: 8cac 1c3c 825f 083e 3e08 153b 21ff 1f3d
00000020: 6141 f03c 42ca a1bd d848 1dbe 92e1 40be
00000030: 20d2 b2bd 292b 8d3d 6f0b 2f3e c2c4 3d3e
00000040: 5949 923d 6713 0a3c 6fc7 5f3e 1047 82bc
00000050: 0efc 62bc 9aa9 6c3d c043 2c3e 9848 ed3d
00000060: 033c e93b 02ae f6bd 9f7d 593e 067c 8d3d
00000070: 8c4f e53d 6f07 e1bd 84fc 883d bb12 fd3d
00000080: c476 6d3d 0447 00be a8f1 d13d 3849 c9bd
00000090: 1c89 f33d 4612 8ebd 350c c73d c02b ed3d
000000a0: 60fd 293c 563a 8b3e e999 b43d 9c8f 03be
000000b0: 7ebd a03c 0b42 d03d bb8b 11be 8cba 0abe
000000c0: f92e 31be 5671 c33c 229e 993e 5984 a53d
000000d0: 077d 283e 8046 853e db38 dabd 2a55 653e
000000e0: 7b0c 823e a6e9 2d3e 4634 bc3d 5341 923e
000000f0: 084c 393e 0e77 2ebc 574b e93d 4d57 1a3e
00000100: 226d c73d 8080 40bd 067d 523d fca7 093e
00000110: df41 9f3d c193 6a3e 234c 463e 8208 383e
00000120: c5c6 9abd 7e82 00bd 7417 463c d36e 14be
00000130: 9400 ba3c 81fc 143e e8d1 323e 90a3 2b3e
00000140: 0d00 0cbd f6c6 2dbd c2ae 843e d0f5 91bd
00000150: cb2c 3f3d 743e df3d b50e d23d f9b3 9ebd
00000160: f4e9 153e 175b 843d ebe1 ed3d 215b 433e
00000170: fa3d 6c3b 6d86 aebd 5835 0a3e 72ce 253e
00000180: f30f dd3b 4907 8ebd c434 c43d 1ea0 eabd
00000190: 6569 843e 7d12 d83c f5b4 b13d 2764 dc3c
000001a0: 2718 9d3d 9992 963d 024e 47bd 31f5 93bd
000001b0: 22a0 323c c9da 803e b87e 2ebd ba94 17be
000001c0: 124a 453d 09e6 c3bd 4f3c e93d 45df c93d
000001d0: 51d1 023e 187a 0f3e 6533 51bd 8943 fd3b
000001e0: b5d0 eaba 29be 7a3e ccf5 793e 7b8b 053e
000001f0: 344a de3d ab30 90bd d48f 373e 1bc7 033e
00000200: 13f9 54bd 18cc cebd 4e43 06bd e410 1bbd
00000210: 93ff b23d f51e 87bd 5541 23bd 0de2 ffbc
00000220: 31b2 8ebc c2bb 88bd 7d2f adbd 3453 f8bd
00000230: b40d b7bc 867a fabc 7467 d9bd 132d 7e3c
00000240: 4e46 28bc 75f8 353d 276d d7bc d4b9 c0bd
00000250: 6108 ebbd 9ae7 f63a 3a7b 993d 4f7a babd
00000260: 2714 20bd 8d36 b63d ca02 46bd 8e9f c93d
00000270: 1caa 78bc 4eca a6bd b6aa 3f3c 7db8 a4bc
00000280: e3d2 06be f569 883d 633c d63d edad 90bd
00000290: 677d e0bd e9bc e5bd 4fea f2bc 9f73 f6ba
000002a0: 534b 813d e3bd 7cbd c4a9 9cbd 5649 a0bd
000002b0: ff35 67bd 1037 8e3d a03a b6bc 4dd8 5bbd
000002c0: df75 26bc d7c9 0cbb 4a7d 97bd c6eb 9ebd
000002d0: 7b34 843d 9242 92bd b36c d7bd 7dbf d73d
000002e0: 222b cd3d 3018 0fbd 06b1 1abd c12f bc3d
000002f0: 2bc3 b13d 8c94 0cbe e3c6 cabd 9001 2c3c
00000300: b593 a7bd 0035 9d3d 7331 d8bd 7b0d 34bd
00000310: 13cf f53c e6fe 4cbe 026b 633d dd72 07be
00000320: cda3 e0bd e4c5 793d ba88 97bc 24d4 003d
00000330: a475 2ebe 2c83 9a3c 933d 4bbe 8d53 103d
00000340: 119b 593d 71ed 45be acc8 62be e8fd a93b
00000350: 80d1 8a3d bc07 3fbd d14b 1f3e 60ca 38bd
00000360: 20d8 89bd 3f18 acbd 9718 30be bf41 71bd
00000370: b9f7 52be 5765 e33d 9b84 bbbd 5e6e 38be
00000380: 3242 12bd 6eae 1a3e 66ae 8fbd 9068 9dbd
00000390: 85e6 1ebd 0b9e 013d b0b8 99bd 23ee 94bd
000003a0: be89 21be 5ada 90bc 61fc 1abe 2808 f3bd
000003b0: d243 7bbd e275 4ebe 6803 183e 603f 133e
000003c0: 205a 973c 422b 013b 01ac f8bd 51d7 77bb
000003d0: b137 00be 8da9 973c 5a17 d73c aad4 29be
000003e0: 1977 813d 11df cabc 2527 2bbe 2ed6 5abd
000003f0: 69ee 3abd 1468 1a3e 1120 a2bd e348 6ebc
0.1362454 0.060553294 -0.04912612 0.13278 0.009562623 0.13317683 0.0022740508 0.03906167
0.02932805 -0.07899906 -0.15359819 -0.18836048 -0.087314844 0.06892998 0.17094205 0.18532088
0.07142896 0.008427477 0.21853422 -0.015903026 -0.01385404 0.057778932 0.1682272 0.11586112
0.0071177497 -0.12044908 0.21239327 0.06908421 0.11196813 -0.10987746 0.066887885 0.12357088
0.05797459 -0.1252709 0.102511704 -0.098284185 0.11891386 -0.06937079 0.09719125 0.1158061
0.010375351 0.27192944 0.088184185 -0.12847751 0.019621607 0.10168847 -0.14213459 -0.13547724
-0.17303075 0.023857754 0.30003458 0.08081884 0.16453944 0.2603035 -0.106553756 0.22395769
0.25400147 0.16983661 0.09189658 0.28565463 0.1809541 -0.010648502 0.11391323 0.15072365
0.09737612 -0.046997547 0.051388763 0.13442987 0.07776236 0.22907926 0.19364981 0.17971995
-0.075574435 -0.031374447 0.012090553 -0.14495401 0.022705354 0.14549448 0.17462885 0.16761613
-0.034179736 -0.042426072 0.2591458 -0.07126963 0.046673577 0.10900584 0.102567114 -0.07749171
0.14640027 0.064626865 0.11615356 0.19077732 0.0036047683 -0.085217334 0.13496912 0.16192034
0.006746286 -0.06934983 0.09580377 -0.11456321 0.2586166 0.026376003 0.08677093 0.026903225
0.07670622 0.0735218 -0.04865838 -0.07224501 0.010902436 0.2516692 -0.042601317 -0.14802828
0.048166342 -0.0956536 0.11388456 0.098570384 0.1277516 0.14011419 -0.051074404 0.007728998
-0.0017914983 0.24486603 0.2441017 0.13041489 0.10853997 -0.07040533 0.1792596 0.12868921
-0.05199535 -0.100975215 -0.03277903 -0.037857905 0.08740153 -0.065977015 -0.039857227 -0.03123572
-0.017418953 -0.06676437 -0.08456323 -0.12125245 -0.022345401 -0.030576002 -0.10615435 0.015513676
-0.010270668 0.0444264 -0.026297165 -0.09410444 -0.114762075 0.0018837333 0.07494207 -0.0910536
-0.03908172 0.088971235 -0.048342504 0.09844886 -0.015177276 -0.08144055 0.0116984155 -0.020107502
-0.13166384 0.06660835 0.104607366 -0.07064424 -0.109614186 -0.112176724 -0.029652743 -0.0018802768
0.06313195 -0.061704528 -0.07649568 -0.07826488 -0.05644798 0.06944096 -0.022244751 -0.053673077
-0.010159939 -0.002148261 -0.07396944 -0.07759814 0.06455322 -0.071416035 -0.105187796 0.1053457
0.100179926 -0.034935176 -0.03776648 0.09188796 0.086798035 -0.13728541 -0.09901216 0.010498419
-0.0818247 0.076761246 -0.10556307 -0.04395817 0.030005967 -0.20019111 0.055521972 -0.1322741
-0.109687425 0.06097974 -0.018497813 0.031452313 -0.17037064 0.018861376 -0.19847707 0.03523593
0.0531264 -0.19328858 -0.22146863 0.0051877387 0.0677824 -0.046638235 0.15556265 -0.045114875
-0.06730676 -0.08403062 -0.1719688 -0.05890059 -0.20602311 0.111033134 -0.09156152 -0.18010852
-0.03570766 0.15105602 -0.07015686 -0.07685959 -0.03879406 0.031644862 -0.075059295 -0.072719835
-0.157752 -0.017682243 -0.15135337 -0.1186679 -0.061343975 -0.20162156 0.1484505 0.14379644
0.018475592 0.0019709622 -0.12142182 -0.0037817548 -0.12521245 0.018513465 0.026256252 -0.16585031
0.06321544 -0.02476457 -0.16714151 -0.053426914 -0.045637522 0.15078765 -0.079162724 -0.014543745

fc1.bias f4 [128]
00000000: 64aa d23b d7ef bdbd 41a9 92bc 624c 473e
00000010: a935 0ebd dc05 4f3e 8328 993c e13f ac3c
00000020: 6fa8 8b3d a1cd 67bd f429 00bd d1af eb3d
00000030: 3173 9fbc 5cb3 24be 519c 7b3d 3f2b 90bc
00000040: 71bb ad3d 5353 bf3d 54fe c9bd be41 4a3e
00000050: 7070 093e c053 b53d 345d 383e 168f e13c
00000060: 3795 18bb 40cc 2c3d 72c9 d8bd 4f35 b8bc
00000070: b825 ffbd e1fd 02be c720 293e 3f6a 643e
00000080: 123d f33d 454e abbd 940f 283b ad95 07be
00000090: ce03 07bc c7d1 6b3c aac4 4a3e 59d0 ca3d
000000a0: 1a34 e5bd d9b6 c43d 7fc5 2dbd a3d2 383e
000000b0: bfef 703d be1a eabd 8bcd 4abb b72d 1a3d
000000c0: a2e7 5dbd 8c75 353e 1c1a 3f3e 02ba 64bd
000000d0: 3502 b5bd 2667 6d3d 5d47 4a3e ab7f b9bd
000000e0: 1654 c4bd 6605 90bd c507 87bd 3c32 f0bd
000000f0: fc11 2e3e e7c2 fc3d 3a81 47bd 66b2 84bc
00000100: 1dab 7d3e 15f1 2fbe 40c5 2a3e bb12 c83b
00000110: 370c f63c dc2c edbb 394e 193e e39d 12be
00000120: 23c4 b63d e433 54bd 1435 143e bc65 54bd
00000130: 63c7 90bc 0e30 8fbd 2359 493e 9576 82bd
00000140: 5928 923c 11c2 c53d 378b f43d 30d5 333e
00000150: c930 1f3e f8c1 cbbd 8911 eb3c e8ca babd
00000160: 9998 a5bc 8771 e2bd 68fc aebc 4f5a 633e
00000170: 8968 003d e276 46bd 4630 2f3e 6f02 cc3d
00000180: f39a 393e e1bb 1c3c d94d fbbd 3aed 073e
00000190: da3e 3b3e 4880 0d3e 3e69 3bbd 0bcb 29be
000001a0: 08e5 df3d d8d3 2dbd bf1a 373d 7359 63bc
000001b0: 579f 0f3d 891f 0a3e b478 343e 2a8a a33d
000001c0: dcc3 e0bd 12e0 30be 8ff6 5e3a 2002 16be
000001d0: d33c 0b3d 0bb7 c1bd b575 1d3e f2ca 043e
000001e0: c67f f63d 1cea 173e dfa3 a1bc 6665 d23d
000001f0: 3a7f 07be a176 b73d 2928 613e 6ee5 cebd
0.0064290036 -0.092742614 -0.017902972 0.19462731 -0.034719143 0.20217079 0.018696075 0.021026554
0.068192355 -0.056592587 -0.03129001 0.11508144 -0.019464107 -0.16084045 0.06142837 -0.017598746
0.08483017 0.09342065 -0.09862962 0.19751641 0.13421798 0.08853865 0.18004304 0.027534049
-0.0023282298 0.042186975 -0.10585298 -0.022486357 -0.12458366 -0.1279216 0.1651641 0.22306155
0.118768826 -0.08364538 0.002564405 -0.1324069 -0.008240653 0.014393277 0.19801584 0.099030204
-0.11191578 0.09605188 -0.042424675 0.18049102 0.05882239 -0.11430882 -0.0030945267 0.037641253
-0.05417598 0.17720622 0.18662304 -0.055841453 -0.088383116 0.0579597 0.19753785 -0.09057554
-0.095863506 -0.0703228 -0.06593279 -0.117283314 0.16999048 0.12341862 -0.048707224 -0.016198348
0.24772306 -0.17181809 0.16676807 0.0061057485 0.030035121 -0.0072380137 0.14971246 -0.14318042
0.08924129 -0.0518073 0.14473373 -0.051854834 -0.0176732 -0.069915876 0.19662909 -0.06370274
0.017841505 0.09656156 0.119406156 0.17561793 0.15545954 -0.09949106 0.028694885 -0.091207325
-0.020214366 -0.1105681 -0.021360591 0.22202419 0.031349692 -0.04845322 0.17108259 0.09961402
0.18125515 0.009566278 -0.12270708 0.13274089 0.18285695 0.13818467 -0.045754664 -0.16581361
0.10932356 -0.042438358 0.04470324 -0.013876307 0.035064068 0.13488592 0.1762417 0.07985337
-0.10974857 -0.17272976 0.0008505368 -0.14649248 0.033993553 -0.09458741 0.15376933 0.12968042
0.120360896 0.148354 -0.01973146 0.102732465 -0.13232127 0.089581735 0.21987976 -0.10102354

fc2.weight f4 [2, 128]
00000000: 61c1 cdbd de84 aabd 2b83 30bd 0aa0 8f3d
00000010: b0f4 8bbd 5de5 403e db69 8f3e 6fba 443e
00000020: 88cb 383e 74a3 4e3c 3a35 283d 6e09 103e
00000030: 28c0 6abd 9a61 98bd 80b0 063e b30b 783e
00000040: ad93 26bd 019c 073e 10e3 6cbd c1cd 1a3e
00000050: f6f2 e63d bf7a 253e 5ab3 443e 6e84 c33d
00000060: bb26 d7bd 2bd5 18be 8eb5 0abd 1dea 783e
00000070: 213d 7ebd ba9e f9bd b5d7 e83d 3830 643e
00000080: e365 373e cd00 57be d1cf ccbd f27b 89bd
00000090: ec87 0bbe 400c 8c3e 3e6a 693e 8120 2f3e
000000a0: ee74 bdbd da87 883e d234 dcbb f59d 973e
000000b0: c36e 603e fcc3 85bd fb9d 223e 92f8 eabd
000000c0: 9718 d93d 84dc 633e c873 7e3e 4995 d2bd
000000d0: 5012 98bd 9762 dc3d 703e 0f3e 37f5 0fbe
000000e0: df91 4bbd 88bd 99bd 606c 89bd c8a7 66bd
000000f0: 0929 543e c915 2b3e d228 01be b2b3 1abd
00000100: 6f7a 1a3e 3751 7ebc 1414 8e3e 0cab 5dbd
00000110: 900e 903e 8d0d f8bd 30c9 0c3e edc4 84bd
00000120: 2f10 9cbc 2b35 37be 632b 5c3e b109 14be
00000130: 603f 24be 1b09 0abe 30de 5a3e 5faf 2c3c
00000140: 5c58 673e d18e 7d3e c2d7 c6bc 6b88 0d3e
00000150: 861a d03d 803a 32bd 7d9e 283c 629b 403d
00000160: da78 a8bd 1072 28bd 8b76 3dbd ba74 323e
00000170: 5c5c d2bd 4eac 3abd c22d bb3d 9b3a 6a3e
00000180: 2fa3 723e 23ce 553e 61d6 07be 07b3 6d3e
00000190: 002d 6d3e 516c a23e 3d4c dcbd 8295 1abe
000001a0: b301 b83e d0dc dbbd f074 433e e7d4 fbbc
000001b0: 825a 82bc 3753 563e cba7 6a3e f78c 383e
000001c0: 0616 513d 9f1e 13be a370 21bd 5c64 bebd
000001d0: 06a8 f6bb 5f80 8c3c eac8 8e3e f86f a83e
000001e0: 6c05 a13e de14 943e e2ca 1dbe 7a3a 393e
000001f0: 0dda 96bd 24f9 5c3e 9bcd 603e 9065 43be
00000200: 8899 a03d 757f df3d 70c9 403c ecfc 68bd
00000210: 495d a23d bdf9 60be f451 3dbe 2da2 babe
00000220: c165 65be 746c b33c 04fd debc e7c5 4cbe
00000230: 1197 da3d 8643 de3d d133 e2bd 9b12 6ebe
00000240: 74b3 1e3d 9a82 0abe 7650 debb bb8d 85be
00000250: b6db 78be 5a4d 43be f85c 71be 6484 22bd
00000260: 16d9 f03d 9f89 e93d eb74 023e 79c0 8bbe
00000270: a3ac 8f3d af72 603e 590d 40be 7bdf 41be
00000280: 585d 15be 9849 323e 6374 123e 9eb5 133e
00000290: 23e1 803d b204 65be e758 82be 85bc 19be
000002a0: fc13 403e 3936 89be 0c42 4f3c 6736 67be
000002b0: 4f04 2ebe 2e6c 6bbd f7ac 49be 6c29 ac3d
000002c0: b6c9 03bd 3469 67be 22f0 80be b52c 603d
000002d0: f1fc 3a3d fb92 0cbe 6fe0 88be 03e3 2f3d
000002e0: 3372 813d 7c4d 663d cd43 b13c c789 adbd
000002f0: d105 82be befe 92be 1f3c 103e 31d5 87bc
00000300: 7cda 74be 2047 ba3d 33c3 5abe b53e f53d
00000310: 575d 93be e502 f63d 588a 53be 3862 a43d
00000320: b789 34bd ac08 093e 9edb 43be 0335 df3d
00000330: 1273 193e 8b51 943d 1141 3fbe c7f2 28bc
00000340: 5c6c a8be e62f 3cbe 6ca5 cabd 1d0e 47be
00000350: 004b 60be 25c0 0a3e da14 923c a64a 483d
00000360: 1759 a73d 566c 0c3e f8b9 1a3e 1dbd 44be
00000370: bf96 d73d 77a1 b4bd e802 b8bd 459f 7cbe
00000380: c726 3ebe 28c4 69be 6375 353e 1939 90be
00000390: b7c5 17be 73df 55be 9d7a 7e3e e845 b13d
000003a0: cc6d b0be 2ee0 0f3e 12df 64be 0cc7 e33d
000003b0: 9675 803c 506f 63be 1c0e c5bd a422 21be
000003c0: 2af5 2a3d c0c2 d63d a8b6 f4bd e6e9 063e
000003d0: d0ed d73c f308 c9bc 923e 93be 44a8 95be
000003e0: 7773 80be f663 3ebe 3599 0a3e 9863 28be
000003f0: d741 d83d 39c1 6fbe ffad 95be 8ed0 ab3d
-0.1004665 -0.08326124 -0.04309384 0.07012947 -0.0683378 0.18837495 0.2801045 0.19211744
0.18046391 0.012612212 0.041066386 0.14066097 -0.05731216 -0.07440491 0.13153267 0.24223213
-0.04066818 0.13243105 -0.05783373 0.15117551 0.1127681 0.16160105 0.19209042 0.09546743
-0.10505434 -0.14925067 -0.03386455 0.24308057 -0.062070016 -0.12188478 0.11369268 0.22284019
0.1790996 -0.20996399 -0.10000575 -0.06713094 -0.13626069 0.27353096 0.22794434 0.17102243
-0.09250818 0.26666147 -0.006720164 0.296127 0.21917252 -0.06531522 0.15880577 -0.11473192
0.10600393 0.22252089 0.24848855 -0.1028238 -0.07425368 0.10760992 0.13988662 -0.14058386
-0.04969966 -0.07506853 -0.06710124 -0.056312352 0.20718779 0.16707529 -0.12613228 -0.037769027
0.15085767 -0.015522293 0.27749693 -0.0541182 0.2813611 -0.121119596 0.13748622 -0.06482873
-0.019050686 -0.17891376 0.21500926 -0.14456822 -0.160398 -0.13480036 0.2137382 0.010539859
0.225923 0.24761511 -0.024272803 0.1382157 0.10161309 -0.04351282 0.010291693 0.047023185
-0.082261756 -0.041124403 -0.04625563 0.1742734 -0.102715224 -0.04557448 0.09139587 0.22873919
0.23695062 0.20879416 -0.13265373 0.23212825 0.23161697 0.31723264 -0.10756729 -0.15096095
0.35938796 -0.10735476 0.19087577 -0.030741168 -0.015912298 0.20930181 0.2291557 0.18022524
0.051046394 -0.1436715 -0.03941406 -0.09296486 -0.007527354 0.017151056 0.2788766 0.32897925
0.3144945 0.2892217 -0.15409425 0.18088713 -0.07365809 0.21579415 0.21953432 -0.19081712
0.07841784 0.109129824 0.011766776 -0.05688183 0.07927949 -0.21970268 -0.18488294 -0.36451855
-0.22402097 0.0219023 -0.027220257 -0.19997369 0.10673345 0.10852723 -0.110450394 -0.23249285
0.03874536 -0.13526383 -0.006784494 -0.26084694 -0.24302563 -0.19072476 -0.23570621 -0.03967704
0.11760156 0.11403202 0.12739913 -0.27295282 0.0701535 0.21918748 -0.18755092 -0.18932907
-0.14586389 0.17410886 0.1430221 0.1442475 0.062929414 -0.22365072 -0.25458452 -0.1501332
0.18757623 -0.2679918 0.012650024 -0.22579347 -0.16993831 -0.057476215 -0.19694887 0.08406338
-0.03217479 -0.22598726 -0.25183207 0.054730136 0.04565138 -0.13727944 -0.2673373 0.042941105
0.0632061 0.05622624 0.021638775 -0.084735446 -0.25395063 -0.28709978 0.14085434 -0.01658115
-0.2391147 0.09095597 -0.21363525 0.11974851 -0.2878215 0.12012271 -0.20658243 0.08026546
-0.044076648 0.13382214 -0.19126746 0.10898783 0.14985302 0.072421156 -0.18677165 -0.010311789
-0.32895172 -0.18377647 -0.09894833 -0.19438978 -0.2190361 0.1354986 0.017832208 0.048899315
0.081712894 0.13713202 0.15110004 -0.19212766 0.105267994 -0.088198595 -0.08984929 -0.24670132
-0.1856948 -0.22828734 0.1772056 -0.28168562 -0.14821516 -0.2088602 0.24851461 0.08655912
-0.34458768 0.14050362 -0.2235072 0.111219496 0.01568107 -0.22210431 -0.09621832 -0.1573587
0.041737713 0.10486364 -0.119489014 0.13175163 0.026358515 -0.0245404 -0.28758675 -0.2922994
-0.25088093 -0.1859282 0.13535006 -0.16444242 0.10559433 -0.23413552 -0.2923431 0.08389388

fc2.bias f4 [2]
00000000: 8454 eb3c 9688 7e3b
0.028726824 0.0038838736
