checkpoints/trained_dynamic_32x32_20251211_194820.pth (torch, 631930 bytes, 22 tensors)

conv1.weight f4 [16, 3, 3, 3]
000000 e8 39 59 bd f3 1c 0d 3d d8 75 3d 3d 58 30 d5 3d
       -0.05303374 0.034451436 0.046254963 0.104096115
000010 c1 43 ad 3c 01 0f 7c 3d f7 fe 28 3d d7 58 e0 3c
       0.021150472 0.061537746 0.04125878 0.027386112
000020 cd 79 0a 3e 07 49 d5 bc 5e 44 c6 bd 7c fa 01 be
       0.13523026 -0.026035799 -0.09681009 -0.12693208
000030 13 ec 50 3e 15 cc 54 3c 16 2a c9 bd fb 84 02 be
       0.20402555 0.01298811 -0.098224804 -0.1274604
000040 cd e9 3e be 72 35 b9 3d 8f fb eb 3c f0 b2 05 bc
       -0.18643875 0.09043397 0.028806476 -0.008160338
000050 98 79 3b 3e db e2 51 3e c8 51 79 bd ab a3 40 be
       0.18308103 0.20496695 -0.06086901 -0.18812434
000060 be 8c 47 be 10 42 87 be 4d f1 0e be 9e af 5b 3d
       -0.19487283 -0.2641759 -0.13959236 0.05363428
000070 0e a3 bb 3d 5e c8 3e be 97 57 31 3e 8d bd 60 3d
       0.091619596 -0.18631122 0.17318569 0.05486827
000080 e3 de 7a bd d5 e0 0d 3e 47 d5 84 bd ae ea d0 3d
       -0.061247718 0.13855298 -0.06485992 0.102010116
000090 8d e5 0b bd d3 48 11 be bf 5a 67 be 00 7a 0e be
       -0.034154464 -0.14187936 -0.2259321 -0.13913727
0000a0 8b 90 77 bd e5 47 2b 3d d2 1e ff 3d 15 41 bb 3d
       -0.06044058 0.04181661 0.124570504 0.09143273
0000b0 de c3 fb bd b6 38 5d bc bb f7 6d bd 8d 40 8a bc
       -0.12293218 -0.0135022905 -0.058097582 -0.016876483
0000c0 5f 95 b8 3c ad a6 2c 3e ee 8d 70 bd ab 87 09 be
       0.022532163 0.16860457 -0.058729105 -0.1343066
0000d0 16 6f 35 3e 22 23 a7 bc ae ec 8d bb 27 4b 1f 3e
       0.17718157 -0.020402495 -0.004331193 0.15556012
0000e0 3b b5 cf ba e7 07 3f be be 00 2f 3e e0 4a 9f 3b
       -0.0015846858 -0.18655358 0.17090127 0.0048612207
0000f0 a3 95 00 be f1 99 3e be ae e3 10 be 99 83 55 bd
       -0.12557082 -0.18613411 -0.14149353 -0.052127454
000100 63 0c 17 3e b3 57 ab 3c 15 fe d8 3a dc a5 38 3e
       0.14750819 0.020915842 0.0016555215 0.1803202
000110 64 e6 3e 3e 36 c7 67 be d9 04 1f 3e 28 e3 b4 bd
       0.18642575 -0.22634587 0.15529193 -0.08832389
000120 94 d4 53 be e7 ce 24 3e 86 b1 08 be b7 0f 21 be
       -0.20686561 0.16094552 -0.1334897 -0.15728651
000130 a2 79 54 bd de c1 2a 3d f7 2e 19 be 93 30 0d 3e
       -0.05187381 0.041688792 -0.14959322 0.13788061
000140 14 fc 4f 3e 26 2e c7 3d f3 c2 80 3d f1 e3 40 be
       0.20311004 0.09725599 0.062871836 -0.18836953
000150 cd 9a 90 3d 96 96 d1 3d f3 5b a6 bd 06 e0 ce bd
       0.07060776 0.102338 -0.08123007 -0.10101323
000160 68 5b 44 be 83 ba 2a 3e 6d 55 fa bd b1 d7 fa 3d
       -0.19175494 0.16672711 -0.12223325 0.12248171
000170 d4 f1 1d 3e 4c e1 84 3d 0c 27 33 3c e1 d4 1f 3d
       0.15424281 0.064882845 0.0109346025 0.039021377
000180 35 6b 21 bd d5 77 45 be e4 b9 ef bc 2e 86 4b 3d
       -0.03940888 -0.19283994 -0.029263444 0.04968851
000190 8b f9 1c 3e 16 25 59 3c 42 03 86 bd c4 b4 03 3e
       0.15329568 0.013253471 -0.0654359 0.12861925
0001a0 90 28 58 be ac 5b 0d 3e 5e 0c f6 bd f9 4a bc bd
       -0.21109223 0.13804501 -0.120140776 -0.091939874
0001b0 31 31 c4 bd 4b ec 7d bc 35 e0 2a be 25 40 b4 3d
       -0.09579695 -0.015498231 -0.1668709 0.08801297
0001c0 b2 af f0 bd 53 48 d8 3d 76 af eb 3b 14 96 64 3c
       -0.11752261 0.1056067 0.0071925474 0.013951797
0001d0 3c 69 74 bd 96 96 14 be f4 b5 84 bc 8d af 59 be
       -0.05967067 -0.14510569 -0.016200043 -0.21258374
0001e0 e0 ca 0f 3e b4 3b 87 3d 94 6f 08 bc 3a 68 78 3d
       0.14042234 0.06603184 -0.008327384 0.060646273
0001f0 b7 4c 8e bc a2 ed 58 3e 70 20 dd 3c a0 a4 7e 3d
       -0.017370565 0.211844 0.026993006 0.062168717
000200 b1 a3 64 be 79 14 44 3c c8 21 ef bc f6 f9 40 3e
       -0.22328068 0.011967772 -0.029190913 0.18845353
000210 e0 99 25 3e 1a 7d 1f 3e 63 7e d5 bd 89 32 59 3e
       0.1617198 0.15575066 -0.10424497 0.21210684
000220 17 84 25 3b ee b0 98 3d b2 c9 71 3d c4 91 f4 bd
       0.0025255734 0.07455622 0.059030242 -0.11941865
000230 c0 cc 55 be 1b 58 c0 bd bb f2 a4 bd 6e 0e 03 3d
       -0.20878887 -0.09391805 -0.0805411 0.031996183
000240 56 8a 13 be 4f a3 86 3d 3f 7c 12 3d 38 da f9 3d
       -0.1440824 0.065741174 0.03576302 0.12199825
000250 28 09 e8 3d e1 b0 08 3d 01 ce fd 3d 4a a5 3c be
       0.113298714 0.03337181 0.12392808 -0.18422428
000260 4f 70 c2 3b bf ed 82 3d 76 ab ad bc ee 32 68 ba
       0.0059337984 0.06393003 -0.021199923 -0.0008857687
000270 0c 45 49 3e 72 9e c0 bd fc 35 9a 3b a5 0b f2 3d
       0.19655246 -0.09405221 0.0047061425 0.11818627
000280 75 af 37 be bc 79 48 bd 90 be bd 3d bb 2d ae bd
       -0.17938025 -0.04894422 0.092648625 -0.08504816
000290 8b e3 0b be 47 fa 0a be 21 57 88 3d cc be 4d 3d
       -0.1366102 -0.13572036 0.066572435 0.050230786
0002a0 c6 bd 8c 3d 20 61 41 bd 57 17 c8 3c d4 0d e6 bd
       0.06872134 -0.047211766 0.024425192 -0.11233106
0002b0 68 e6 2e be 2b 56 93 3d e3 20 2c 3e df 09 a3 3c
       -0.1708008 0.071941696 0.1680942 0.019902168
0002c0 04 84 41 3c f9 c8 98 bd 09 c7 fc bd d6 e6 10 3e
       0.01181126 -0.074602075 -0.123426504 0.14150557
0002d0 95 da 41 3e cf 7c 61 bc 6e 3d eb 3d 03 c5 a4 3d
       0.18931039 -0.013762667 0.11486326 0.080453895
0002e0 2b 3b 7f bc e5 99 76 be 15 44 40 3e 23 4a a6 bd
       -0.015578072 -0.24082144 0.18775971 -0.08119609
0002f0 cc e8 41 be a1 5f eb bc 29 c0 e7 bd 5e 05 dc 3d
       -0.18936461 -0.028732123 -0.113159485 0.10743211
000300 81 78 3c 3e 89 6c 52 bd 0f 01 87 3d 8b 97 2b 3e
       0.18405344 -0.05137304 0.06591999 0.16757028
000310 fc 64 45 bd d8 16 e3 3b 30 46 b6 bd d2 a3 31 be
       -0.04819201 0.0069302134 -0.08900106 -0.17347649
000320 42 06 e9 3c d9 1c c6 bd be db 3f be 30 8e 76 bd
       0.028445367 -0.09673471 -0.18736169 -0.060194194
000330 cf 4f 4a 3e 4d f3 0d 3e 99 77 21 be 43 af c5 3d
       0.19757007 0.13862343 -0.15768279 0.09652569
000340 36 d6 00 3d f5 16 41 3e 80 39 17 3d 07 1a 62 be
       0.031454287 0.18856414 0.03692007 -0.22080241
000350 09 60 22 3e c7 44 d7 bd 83 72 06 be 77 23 cc bb
       0.15856947 -0.10511165 -0.1312962 -0.0062298137
000360 7a 94 5c bd 17 7e 0f 3d 59 a0 1a 3e bc 40 33 bd
       -0.053852536 0.035032358 0.1510023 -0.043762907
000370 15 5c 18 3e a1 0d b0 3d 6d fd 46 be 54 35 2e be
       0.14878877 0.085963495 -0.19432612 -0.1701253
000380 43 9d 10 bc 7c 22 0e 3e c1 54 af bd 9e 84 d8 bd
       -0.008826557 0.13880342 -0.085610874 -0.1057217
000390 c1 18 97 3c 3f 19 25 3e f7 a4 35 3e b8 84 f1 3d
       0.01844442 0.16122912 0.1773871 0.11792892
0003a0 d8 8c f7 bc 21 48 32 be 96 e1 23 3d 45 4c b1 bb
       -0.030218527 -0.17410327 0.040010057 -0.0054107034
0003b0 de d2 c2 3d 5e 0b 73 3d 19 f7 03 3d c4 2b bc bd
       0.09512876 0.059337012 0.032218073 -0.09188035
0003c0 9a 5c dd bd 0f 7d e8 bd 3e cc 02 be 87 ac 16 3e
       -0.10808678 -0.11351978 -0.12773225 0.14714251
0003d0 c5 a5 96 bd a6 20 44 3d e1 f4 4b be c4 42 4f bd
       -0.07355837 0.0478827 -0.19917633 -0.050600782
0003e0 01 db 8a 3c 25 81 29 3e fd 02 fb 3d 31 4e 38 be
       0.016950132 0.16553171 0.12256429 -0.17998578
0003f0 7b 04 81 bd cb 48 49 bc 12 69 2d be 10 91 c4 bd
       -0.06299683 -0.012285422 -0.16934612 -0.09597981

conv1.bias f4 [16]
000000 18 5f 5e bc 76 8d 78 3c 43 53 7f 3c 1c 62 b1 bd
       -0.013572477 0.015170446 0.015583816 -0.08661291
000010 04 b6 3c 3e 07 cb fb 3d 1f cd de bd 93 91 ce bd
       0.18428808 0.12294584 -0.108789675 -0.1008636
000020 67 60 3d 3e 02 16 40 be 36 44 37 be fa bc 91 3d
       0.18493806 -0.18758395 -0.17897114 0.071161225
000030 bf aa 50 bd 4b fb c1 bd 94 69 08 bd b1 33 49 be
       -0.050944086 -0.094717585 -0.033303812 -0.19648625

bn1.weight f4 [16]
000000 a9 2b 74 3f 71 c5 74 3f c9 0d 8b 3f 0a 08 80 3f
       0.9537912 0.9561377 1.0863582 1.0002453
000010 03 48 80 3f b7 70 66 3f ce 5f 86 3f 01 62 8d 3f
       1.0021976 0.9001574 1.0497987 1.1045533
000020 99 ad 85 3f 32 64 7e 3f 84 c1 74 3f f1 2b 7f 3f
       1.0443603 0.99371636 0.9560778 0.99676424
000030 65 fa 6c 3f eb 7c 87 3f f9 64 82 3f 96 ad 7a 3f
       0.9256957 1.0584997 1.0187064 0.9792112

bn1.bias f4 [16]
000000 48 bc c6 bc 8d 40 b4 bb 0e 97 f6 bc d4 cf c1 bc
       -0.024259701 -0.005500859 -0.030101325 -0.02365867
000010 68 2f 94 bd c8 90 71 bd 74 c9 76 bd b1 30 49 bc
       -0.072356045 -0.058975965 -0.060250714 -0.012279675
000020 2b 62 4b bb 18 53 6d bd 96 b6 9a bd b8 5c 10 bc
       -0.0031033854 -0.057940573 -0.07554357 -0.008811168
000030 cb d4 5b bc ff 85 b9 3c d8 16 09 bd 65 75 78 bc
       -0.013417433 0.022646902 -0.03346905 -0.015164708

bn1.running_mean f4 [16]
000000 bc 24 ca be 63 7f ad bd f1 9f d1 bd 36 a4 27 be
       -0.3948115 -0.08471563 -0.102355845 -0.16371235
000010 58 fc 99 3e 2e 56 4d 3e b7 5a 5c be 79 90 1c be
       0.30075336 0.20052406 -0.2151898 -0.15289487
000020 f2 fd d2 3d 4f 62 a1 bd 94 64 08 bf 42 62 c4 bd
       0.103023425 -0.07880079 -0.5327847 -0.09589054
000030 2e 19 a6 3e f7 6b ec bd ab 23 24 3b 67 dc 25 be
       0.32441086 -0.1154403 0.0025045674 -0.16197358

bn1.running_var f4 [16]
000000 c1 94 12 3e 30 6c e7 3d 8b 95 73 3e 6b 11 b6 3d
       0.14314558 0.11299932 0.23787515 0.08890041
000010 19 8c 2f 3e dd f7 e5 3d 30 3e 69 3d a9 d7 b7 3d
       0.17143287 0.11228917 0.056944072 0.08976681
000020 ad c6 05 3e cf 49 2f 3d d3 ed 0e 3e 05 b4 54 3d
       0.1306407 0.042795 0.1395791 0.051929493
000030 0c 46 5d 3e eb c9 d6 3d 65 8d b0 3d 70 af b9 3d
       0.21608752 0.104877315 0.08620719 0.09066665

conv2.weight f4 [32, 16, 3, 3]
000000 9a 59 01 bd 43 f0 83 bd 9f 52 dd 3c 10 12 de 3c
       -0.03157959 -0.06442311 0.027016936 0.027108222
000010 0a 07 f4 bc eb 8e 71 bc fb d5 00 bc c5 3c 45 bd
       -0.029788513 -0.014743547 -0.007863517 -0.048153657
000020 39 c8 f4 3c 69 fb 96 3d 6a 03 cc bc cd 1a 74 bd
       0.02988063 0.073721714 -0.024903972 -0.05959587
000030 94 d8 3e 3d 96 09 2b 3d 72 f6 92 bd f6 fe 26 bc
       0.046593264 0.04175719 -0.07175912 -0.010192623
000040 64 f7 e3 3d 9c cd 8e 3d d8 e5 87 3b 0c 27 cb 3d
       0.111311704 0.069728106 0.0041472726 0.09919557
000050 b8 a7 87 3d 9a c5 10 bd 37 8b fa b9 0c 9f a3 3d
       0.06623787 -0.035344698 -0.0004778744 0.0798932
000060 a9 fa bc bb ce f3 5c b9 a3 d8 49 3d 3d bc 80 bd
       -0.0057671857 -0.0002107166 0.049278866 -0.062859036
000070 7a 79 fe 3b 71 bb 89 bd b9 b6 d5 3d 6c 53 9d bc
       0.007765946 -0.06725205 0.10435242 -0.019204818
000080 a2 56 7b bc 0a 16 45 bd ce bc 34 3d be 0b 94 3b
       -0.015340479 -0.04811672 0.04412537 0.0045180013
000090 27 cd 2a bc 8e 92 4d bc 54 98 a6 3a 62 1e 1d 3d
       -0.010424889 -0.012547148 0.0012710192 0.038359053
0000a0 4f fb ac 3d 0a ac b6 bd 4b c3 7b 3d 52 60 b9 3d
       0.08446371 -0.089195326 0.061465543 0.09051575
0000b0 a4 d3 98 3c cf cf e2 bb ab 25 39 bd b8 84 d5 bb
       0.018655606 -0.0069217454 -0.04520194 -0.0065160654
0000c0 62 d8 9b bd 25 f3 94 3d 1b 0d c0 3a f3 fa aa 3d
       -0.07609631 0.07272939 0.0014652343 0.08348646
0000d0 e3 49 dd bc 7e c2 26 bd e0 2c 00 3d 58 70 36 bd
       -0.027012771 -0.040712826 0.031292796 -0.044540733
0000e0 cf b1 3b bd bd 3a 8d 3d 11 5a d5 3c 1e 4d 8f 3d
       -0.04582387 0.06895969 0.026043924 0.06997131
0000f0 5c d0 cf bd 50 3a 71 bd b2 49 a6 bc 8a fe 25 3d
       -0.10147163 -0.0588935 -0.020298813 0.04052595
000100 42 e1 8a 3d 79 ea 00 3d 65 95 79 3d 03 52 ef 3d
       0.06781246 0.03147361 0.06093349 0.11685564
000110 cc 4f 1f 3d 6a 96 a0 bd 7f b2 e5 3c f0 a4 2b 3e
       0.03889446 -0.07841189 0.028039215 0.16762137
000120 37 07 e4 3d eb 85 78 3d 27 14 a6 3b 79 79 c3 3d
       0.111341886 0.06067459 0.0050683203 0.095446534
000130 c4 42 36 3d 30 ee 75 3d db 0e 51 bc cc 6b 22 3a
       0.044497266 0.060041606 -0.0127598895 0.00061958726
000140 3b 7f 10 3b b3 93 a7 3c ce 25 05 bd 71 e2 4a 3d
       0.0022048492 0.02045617 -0.032506756 0.049532358
000150 da 06 8d 3c f3 41 9a bd 7a 85 e2 bd 6d db b6 3d
       0.017215181 -0.0753211 -0.11060615 0.08928571
000160 02 6a 08 bd ca cc 8d 3d 4b 9d 4c 3d 23 0f 07 bd
       -0.033304222 0.06923826 0.049954694 -0.03297342
000170 b3 64 99 3d 84 49 e3 3d 34 5d 6e 3d 53 cf 05 3d
       0.0748991 0.11098006 0.058194354 0.032668423
000180 86 a1 21 3b 75 c4 81 3d 96 04 ea bc d9 81 18 3d
       0.0024662926 0.06336299 -0.02856664 0.037233207
000190 67 71 c1 bc 6f 74 0d bd ed 4b c5 3b 2c 41 9b 3d
       -0.023613645 -0.034534868 0.006021014 0.0758079
0001a0 d6 86 c7 bc bd b2 62 3d d4 e9 89 bd 5b d9 bf 3d
       -0.024356287 0.05534624 -0.06734052 0.09367629
0001b0 c3 4d 0d bc 65 52 2a 3d 51 0a b2 bd 1f 8d 08 bb
       -0.008624497 0.041582484 -0.08693374 -0.0020836068
0001c0 0e dc 50 3d b7 94 1b bd 70 42 c4 bb e9 a9 80 bc
       0.05099111 -0.037983622 -0.0059893653 -0.01570602
0001d0 57 e4 23 3d cd 96 a3 bd 2f a6 50 bd 77 a1 b6 3d
       0.040012684 -0.07987747 -0.050939735 0.08917516
0001e0 58 57 99 3c 15 55 82 bc 5d 7e 53 bd e0 60 05 3e
       0.018718407 -0.01590971 -0.05163418 0.13025236
0001f0 88 d9 a3 3d cc 89 c7 3c f9 15 55 3d 93 58 92 bd
       0.08000475 0.024357699 0.052022908 -0.071458004
000200 12 b6 42 bd 57 db 99 3c fb 32 fc b9 95 d4 14 bd
       -0.047536917 0.018781347 -0.0004810317 -0.036335547
000210 c1 38 8f bb 85 85 d3 3d 1f 2b d8 3d f2 c5 9a 3d
       -0.0043707793 0.10328201 0.105551 0.07557286
000220 fe e9 8a 3c 67 20 87 bd ee 6e 41 bd 9a 0f b9 3c
       0.01695728 -0.06597977 -0.04722493 0.022590447
000230 cf c7 da 3d 2a 55 57 bd e6 1b 8c 3b 5f 33 8d 3d
       0.10682642 -0.052571453 0.0042757867 0.06894564
000240 f9 93 8f bd 4c d3 92 bd 60 ba 78 bd ed 2f 98 bd
       -0.070106454 -0.07169208 -0.060724616 -0.07431016
000250 27 d9 a3 bd ba 5e f3 bb cc 88 82 bd d1 2e bb 3c
       -0.08000403 -0.007427064 -0.06373748 0.022849472
000260 2d 6f bb bd db 02 7e bd 15 78 ef bc 6c 90 c0 3d
       -0.091520645 -0.062014442 -0.029232064 0.09402546
000270 fd 10 9a bd 3f 9b cf 3d a7 06 99 bc 8e 16 0a bd
       -0.075227715 0.10137033 -0.01867993 -0.033712916
000280 4e c3 89 3d cf ee 95 bd 97 85 7d 3d df 41 fa bd
       0.067267045 -0.0732094 0.06189498 -0.12219595
000290 e0 7b b5 bd 47 37 65 bd 18 d6 bc bd 32 de 86 bc
       -0.08861518 -0.05596092 -0.09220523 -0.016463373
0002a0 a8 1c 10 bd 45 2e 91 3d b3 4b 28 bd 31 28 98 3d
       -0.03518358 0.07088903 -0.041087817 0.07429541
0002b0 4b f3 15 bd af ca 4a bd 37 49 38 bd 68 e5 a8 3d
       -0.036608975 -0.0495097 -0.044991698 0.08246881
0002c0 a6 bc 84 3d 24 3b 43 3c 05 2b 3c 3d c7 8e b5 bc
       0.06481294 0.011915956 0.045939464 -0.022162808
0002d0 e7 75 94 3d 82 94 29 bd ca 3e 22 3c 29 87 63 bd
       0.072490506 -0.041401394 0.009902665 -0.05554882
0002e0 38 b0 cf bc b6 12 a8 3d 43 e2 95 3b e9 ae 0e 3d
       -0.025352582 0.08206694 0.0045740916 0.034834776
0002f0 f2 4f c2 bd 03 e8 5f 3d c4 60 85 bd 57 be 0c 3c
       -0.094879046 0.054664623 -0.06512597 0.008590302
000300 fc 6e 1e 3c 86 d7 ed 3d 60 90 7f 3d aa b9 9e bd
       0.009670015 0.116133735 0.062393546 -0.07750256
000310 00 21 d1 bc 81 f8 de 3c 61 88 eb 3c 15 45 06 3a
       -0.025528431 0.027218105 0.028751554 0.00051219884
000320 65 40 b9 bd 6b 57 ec bd 5a 6b f8 3d 99 ba 30 3d
       -0.090454854 -0.11540111 0.12129851 0.043146703
000330 a5 09 16 bc 00 9d ef 3d fc 5b 49 3d 97 a4 e2 bd
       -0.009157573 0.11699867 0.04915999 -0.11066549
000340 80 ff b9 3c e9 be 84 bb 23 e2 a4 bd 69 84 57 3d
       0.02270484 -0.0040510786 -0.08050945 0.05261651
000350 a2 95 ba 3d dc 30 ae 3d a1 c9 08 3c af e9 05 3d
       0.091105714 0.08505413 0.008348853 0.03269356
000360 cf fb 79 3d 02 4b 43 bd 1c 9c 5f 3b 09 fc 22 3d
       0.06103116 -0.047678955 0.0034120148 0.03979114
000370 78 c3 2d 3d d9 8e bb 3d f8 77 94 3c ac fa 18 3d
       0.04242274 0.091581054 0.018123612 0.037348434
000380 da 68 2b bc df 81 ac bc 76 46 ac bc d9 7b bc bb
       -0.01046201 -0.021058021 -0.021029692 -0.0057520685
000390 c9 f5 93 3d 0c 1f c5 3d 20 c6 22 3d 62 83 6d bc
       0.07224614 0.09625062 0.039739728 -0.014496656
0003a0 89 c0 3d bd bb 43 b8 3c 45 69 e0 bd da 96 0b bc
       -0.046326194 0.022493234 -0.109575786 -0.0085198525
0003b0 ea e9 80 bd de 2a bc bd b4 a5 58 3d a7 a7 c8 bd
       -0.062946156 -0.09187864 0.0528924 -0.09797602
0003c0 e3 f6 c7 bd 18 20 f2 3c 55 5b 88 bd 22 82 4d 3c
       -0.09763887 0.02955632 -0.06658045 0.012543233
0003d0 19 a0 d5 3d 40 6f ee bd c4 a1 66 3d 29 dc 36 bd
       0.10430927 -0.11642313 0.056306615 -0.044643555
0003e0 a6 3e 0f bc ca 0a 48 bd 99 57 80 3d 4f 28 05 bd
       -0.008742964 -0.048838414 0.06266708 -0.032509144
0003f0 89 64 8d 3c d2 38 f0 bc 6d 6e ef bd 50 92 6e bd
       0.017259853 -0.029323969 -0.11690984 -0.058245003

conv2.bias f4 [32]
000000 33 73 3f 3d 0a d6 b9 bc c5 a3 ee 3c 78 02 9f 3d
       0.046740722 -0.02268507 0.029130826 0.07764143
000010 39 ad 69 3d 7f 23 80 3d e2 5a c7 3c 6a b5 d7 bc
       0.057049964 0.0625677 0.024335328 -0.026331622
000020 e1 13 8c bd c0 aa f6 3c 67 ee 4f bd 31 a9 78 bd
       -0.06839729 0.030110717 -0.050764468 -0.06070823
000030 ba d9 94 bd 4c ea 87 bc 9c f7 95 bd 36 73 9a bc
       -0.072680905 -0.016591214 -0.07322618 -0.018853765
000040 40 1b c2 bc b1 0c e0 3b 15 3b 2f 3d 5f 69 03 bd
       -0.023694634 0.0068374504 0.042780954 -0.03208291
000050 37 72 88 3d 07 8a c8 bc 2b 78 7b bd 11 8d 75 bd
       0.0666241 -0.024479879 -0.061393898 -0.059948985
000060 2c 8e 8f bd 3d 76 84 bd 28 25 9c bc c6 05 7b 3d
       -0.07009539 -0.06467865 -0.019060686 0.061284803
000070 9c ba b4 bd 9d 9e 63 3d 6c 69 91 3c 1d 51 4d bc
       -0.088246554 0.055571187 0.017750464 -0.012531546

bn2.weight f4 [32]
000000 2f b0 7d 3f 5c 7b 70 3f 72 f9 74 3f f3 bf 8b 3f
       0.9909696 0.9393823 0.95693123 1.0917953
000010 37 c8 83 3f 69 fb 83 3f f6 a0 81 3f cb 6e 7d 3f
       1.0295476 1.0311099 1.0127246 0.9899718
000020 33 ea 7b 3f 17 f5 78 3f bd 6e 74 3f ab 74 80 3f
       0.98404235 0.9724898 0.95481473 1.0035604
000030 9b d4 74 3f e8 44 78 3f 23 39 80 3f a0 ac 73 3f
       0.9563691 0.9698014 1.0017437 0.9518528
000040 5f b6 81 3f a8 c4 80 3f 6d 1b 88 3f a9 9a 6c 3f
       1.013378 1.0060015 1.063337 0.9242349
000050 29 3a 88 3f a8 06 72 3f 0f e9 7c 3f f9 aa 7b 3f
       1.0642749 0.94541407 0.9879312 0.9830776
000060 6f 20 8c 3f 77 cf 86 3f eb 9e 6b 3f 4e fb 82 3f
       1.0947398 1.0532063 0.92039365 1.0232942
000070 55 19 7b 3f 9a f4 7c 3f 7b 36 80 3f a6 e4 87 3f
       0.9808553 0.9881073 1.0016626 1.0616653

bn2.bias f4 [32]
000000 59 ba 3b bd 21 09 7f bd 12 71 01 be 55 a2 e7 bd
       -0.04583201 -0.062264565 -0.12640789 -0.11310259
000010 41 7e 07 be 09 3a 08 be af e1 5a bd af 49 9e bd
       -0.13231756 -0.13303389 -0.053437885 -0.07728898
000020 d0 6c 61 bd 1d 00 38 bc 02 c4 de bd af 33 bc bd
       -0.055035412 -0.011230496 -0.10877229 -0.09189545
000030 15 62 51 bd 53 27 54 3c 39 50 9a bd 86 9a 26 bd
       -0.05111893 0.012948829 -0.075348325 -0.04067471
000040 79 3e 0a 3c 40 18 ba 3c 7b 5e ee bb 2f ec 03 be
       0.008437746 0.022716641 -0.0072744465 -0.12883066
000050 78 ff a4 bd 74 0a 5f bd d6 8c c4 bd b0 b5 02 be
       -0.08056539 -0.05445333 -0.09597175 -0.12764621
000060 bc f8 9e bd 62 54 df bd e2 a6 84 bc 29 65 95 bd
       -0.07762286 -0.109047666 -0.016192857 -0.072946854
000070 11 14 22 bd a5 be c6 bd df f6 95 bc 5e 00 78 bd
       -0.039569918 -0.09704331 -0.018306194 -0.060547225

bn2.running_mean f4 [32]
000000 6d 3a 41 3f 8e 69 18 bd aa 0d 78 bf 6c 72 7b be
       0.75479776 -0.03721004 -0.9689585 -0.24555367
000010 32 61 dc be 72 20 3f bf a6 81 a3 be 9b 2c 15 bf
       -0.43042904 -0.7465888 -0.3193485 -0.5827119
000020 02 3d f7 be 3e 08 55 be 3e 16 85 bf ae 63 ce 3e
       -0.48288733 -0.20803925 -1.0397413 0.40310425
000030 89 dc 8c be ee 08 69 be 7d 9e ff bf 1e 94 9a be
       -0.27512005 -0.22757313 -1.9970242 -0.3019113
000040 1a 2c 1d be d3 55 a0 be e1 90 0f be 91 2a fd be
       -0.15348855 -0.3131548 -0.1402011 -0.49446538
000050 ab 73 a0 be 75 12 56 3e 12 a3 96 bf 2a 02 ac bf
       -0.31338248 0.20905478 -1.1768515 -1.343816
000060 cd f3 23 bf 50 5d 8e be a4 9a f4 be ff 81 be bf
       -0.64043885 -0.27805567 -0.4777423 -1.4883422
000070 68 18 a6 be 98 96 26 bf bc 49 6f be a4 a3 71 bd
       -0.32440495 -0.6507354 -0.23367971 -0.05899395

bn2.running_var f4 [32]
000000 82 83 75 3f 49 dd 36 3f 28 c7 c6 3f 91 88 a6 3f
       0.9590379 0.71431404 1.5529528 1.3010427
000010 26 cd 65 3f 1d fe e6 3f 12 8d d8 3f cc 2b 92 3f
       0.89766157 1.8046299 1.6918051 1.1419616
000020 48 c5 14 3f fa ad 86 3f bb 20 8c 3f 0b 08 64 3f
       0.5811353 1.0521843 1.0947489 0.8907477
000030 a5 fd dd 3e a6 bb ba 3e 21 dd 70 40 62 2d de 3e
       0.43357578 0.3647129 3.7634966 0.43394
000040 b4 9f d5 3e 74 ea 0c 3f 79 ea 3e 3f 56 93 32 3f
       0.41723406 0.5504525 0.74576527 0.69756067
000050 8e 56 ae 3f 8e b6 67 3f ff ff ef 3f 40 fe e3 3f
       1.3620164 0.9051293 1.8749999 1.7811966
000060 bb d7 c6 3f c8 70 53 3f a5 35 5e 3f 1e f1 13 40
       1.5534586 0.82593966 0.86800605 2.3115916
000070 43 17 e6 3e a2 f6 8d 3f 20 00 98 3f 61 f2 5d 3f
       0.44939622 1.1090891 1.1875038 0.86697966

conv3.weight f4 [64, 32, 3, 3]
000000 78 f5 0f 3d f0 5a 5a 3c 3c 85 10 3d c0 4f 5d 3b
       0.035146207 0.013327345 0.035283312 0.0033769459
000010 88 3e c6 bc ef 61 96 3c 66 d8 19 3d 3e 38 8a 3b
       -0.02419974 0.018357245 0.03755989 0.0042181304
000020 25 6d 55 bd bf 68 94 bc 1b d4 85 3d 7a f0 01 bc
       -0.05210604 -0.018116353 0.065345965 -0.007930869
000030 50 8b ba 3c 9a 31 13 3d 88 10 e3 3c 09 2b d9 bc
       0.022771508 0.035935976 0.027717844 -0.026509779
000040 a0 0a c6 bd ec 29 b6 3c 60 20 8b 3d a9 e4 57 3d
       -0.09669995 0.022236787 0.067932844 0.0527083
000050 ed 3f f0 3b 18 20 25 3d 54 fd c5 3d 46 30 c7 bc
       0.0073318393 0.04031381 0.09667459 -0.02431501
000060 ed 90 f9 bc 72 3d 6e bc ad 33 98 3a 07 be 4d 3c
       -0.030464614 -0.014541017 0.001161208 0.012557513
000070 93 bc 9c 39 99 25 d8 3b 62 7e de 3d b7 d4 2e 3d
       0.00029895137 0.006596279 0.10863949 0.04268333
000080 7c 05 fb 3b 34 00 17 3d d0 64 25 3e 0f 90 07 3d
       0.007660566 0.036865428 0.16151738 0.03309637
000090 28 e4 9a 3d 76 0b 64 bd f6 e0 93 3d df 75 a0 3d
       0.075630486 -0.055674993 0.07220642 0.07834982
0000a0 e9 d3 21 3d 4d b7 dc 3c bc ae 23 bd d7 93 80 bd
       0.039508734 0.026942873 -0.03996156 -0.06278198
0000b0 05 4e 10 bd c5 c3 8d 3d 7e 3e d4 bc 63 41 dd 3c
       -0.035230655 0.06922106 -0.025908705 0.027008718
0000c0 c4 f4 83 3d 30 c7 8b 3d d3 16 03 bd cd 34 aa 3c
       0.0644317 0.068251014 -0.03200419 0.02077713
0000d0 0e 0c 89 bd b6 23 c7 bc 04 90 38 bc 23 14 18 bd
       -0.066917524 -0.02430902 -0.011264805 -0.03712858
0000e0 ec a6 37 bd c2 bd 36 bc 9d 7d f8 bc e3 c2 41 3d
       -0.044836923 -0.01115364 -0.030333335 0.047305
0000f0 07 cd 6c 3d 0c d0 31 bd e0 dc a6 3d 66 2b 62 bc
       0.057812717 -0.0434113 0.08147597 -0.013804292
000100 e2 ba 4a 3d 65 1a 06 3d 4b c0 d3 3a f7 0c 34 3d
       0.04949463 0.032740016 0.001615533 0.043957677
000110 ca ea d5 3c 78 b4 b4 bd c9 11 65 bd 5b 28 5d 3d
       0.026112933 -0.08823484 -0.055925164 0.053993564
000120 6b c2 5f 3c 54 ca b3 bb 62 40 27 3d 20 c5 06 bd
       0.013657193 -0.005486766 0.040832885 -0.032902837
000130 5b 08 79 bd 24 42 3c 3d 90 dc 0d 3c c4 b9 0a 3e
       -0.060798984 0.045961514 0.008658543 0.13547426
000140 4e a6 9b 3d f0 b9 26 bd 05 3a 57 3d e1 47 bd 3b
       0.076000795 -0.040704668 0.052545566 0.005776391
000150 e3 2d bb 3c 5c 99 70 3b ad ec b4 bc 2e 38 8f 3d
       0.022849029 0.0036712503 -0.022085512 0.06993137
000160 af 15 70 bc e8 08 17 3d 42 72 f0 bb e2 11 6a 3c
       -0.014653607 0.036873728 -0.0073378393 0.01428649
000170 d1 42 82 3c e4 67 32 bd 10 b8 d7 3d d6 9e f4 3c
       0.015901001 -0.04355611 0.10533154 0.029860895
000180 38 36 2b bd 5c db 71 bd c5 53 2e bc 1a 90 d2 3c
       -0.041799754 -0.059047088 -0.010640089 0.025703479
000190 61 58 07 ba 41 20 e9 3c 19 9d bc bc c5 0a 61 3c
       -0.0005163011 0.028457763 -0.023024129 0.013735478
0001a0 6b 78 46 bc 67 9c 87 bd a3 b9 12 bd e6 26 e4 3c
       -0.012113671 -0.06621628 -0.03582157 0.02785058
0001b0 ac eb 91 bc f6 72 ef bc 6d 3b 9e bc 88 ca 7a bd
       -0.017812572 -0.029229622 -0.019315446 -0.061228305
0001c0 63 94 05 ba 44 94 00 3d 74 95 d8 39 84 3d 35 bd
       -0.00050956587 0.031391397 0.00041310082 -0.04424812
0001d0 61 b4 0b bd 88 10 14 bd 7c 11 a2 bd fa f6 7e bb
       -0.03410757 -0.036148578 -0.07913491 -0.0038904534
0001e0 72 3a 60 bc 2b 32 29 3c 97 39 16 bd d2 f1 09 3d
       -0.013685809 0.010326902 -0.036676016 0.033677883
0001f0 0d 80 50 3d 84 12 8f 3d 47 5c 23 3d fd e1 5f 3d
       0.05090337 0.069859535 0.039882924 0.05465888
000200 3d 3b 8a 3d 98 20 30 bd fa a0 1d 3d 73 97 45 bc
       0.0674958 -0.042999834 0.038483597 -0.012060034
000210 da 57 62 bd 82 0e 54 bd 2a e1 8a 3c 27 78 83 bd
       -0.055259563 -0.05177165 0.01695307 -0.064194016
000220 6c b0 78 bd b3 3a 2d 3c 8a 7b da 3b 6b ac 1e 3d
       -0.060715124 0.010573077 0.006667559 0.03873865
000230 98 63 3e 3c b7 40 51 3d eb 04 7a 3c f6 c4 48 3d
       0.011620425 0.051087108 0.015259962 0.04901596
000240 2a 77 41 3d 02 de 3d bd 10 4d 2c bd 76 11 83 3d
       0.047232784 -0.0463543 -0.04206568 0.06399815
000250 ff 2d 2f bd 6d d0 a2 bd 8d 05 0e 3e 6b 80 90 3d
       -0.042768475 -0.0794991 0.13869305 0.07055744
000260 21 16 2e 3c db 5a 5a 3d 73 91 b1 bb 19 ea 17 bd
       0.010625393 0.053309303 -0.00541895 -0.037088487
000270 fa ad b4 3c 89 44 24 bd 66 5c 24 3c c0 e6 38 3d
       0.022055615 -0.040104423 0.010031795 0.045141935
000280 00 55 5d 3d 01 7a 9f bc 3c db 4c ba 8f 2f 80 bd
       0.05403614 -0.019467356 -0.0007814651 -0.06259071
000290 30 b9 02 bd a0 25 b0 3c 31 ec a0 bc f0 5c 2c 3c
       -0.03191489 0.021502316 -0.019643875 0.010520205
0002a0 fc c5 33 3c e0 15 0f 3d c9 18 a3 bb 0d 04 68 3d
       0.010972496 0.03493297 -0.00497732 0.056644488
0002b0 b8 8d ce 3d 7a a8 6a bd bc 1a a0 bc 09 9f d7 bc
       0.100856245 -0.057289578 -0.019543998 -0.026320951
0002c0 43 95 71 3c b1 91 de 3c 03 e3 1b bc 80 6b ce 3c
       0.014745059 0.02716908 -0.009514573 0.025197744
0002d0 de 13 85 3d 6f e5 87 bc 7c e0 b4 ba 39 78 47 3d
       0.0649793 -0.016588895 -0.0013799812 0.048698638
0002e0 13 90 6f 3d f5 cc 98 bd 42 b4 76 bd a3 56 51 bd
       0.05848701 -0.074609675 -0.0602305 -0.051108014
0002f0 ae 2a 5e bc 2b 31 09 3d f7 11 94 bc e2 6a 2e bd
       -0.01355998 0.033494156 -0.018074973 -0.0425824
000300 34 ee f4 bc fe d0 93 3d dd b9 22 3d 29 cc 96 bc
       -0.02989874 0.072175965 0.039728034 -0.018407898
000310 46 a5 4d bc 10 b6 8e bd ec fe f9 3c 63 78 ea bc
       -0.012551611 -0.069683194 0.030517064 -0.028621858
000320 ab e8 98 3d c0 a6 88 3c fd f3 39 3d eb 7f 3a 3d
       0.07466253 0.016681075 0.0453987 0.04553215
000330 d0 c3 f3 bd aa 0d 94 bd 6a f4 72 bd e6 7e ef ba
       -0.11902583 -0.07229169 -0.059315123 -0.0018272072
000340 ae f0 83 bb 70 94 2a ba 5e 41 09 3d fa fa 0f 3d
       -0.004026494 -0.0006507104 0.033509605 0.03515146
000350 07 3a 61 3d fb 6b 8c 3b 50 ff be bd fd 9a 11 3c
       0.05498698 0.004285333 -0.09326041 0.00888705
000360 7e bb 7c 3d 92 1d 40 bd fa dd 48 bd 6c a4 e5 ba
       0.061702244 -0.0469032 -0.04903982 -0.0017520315
000370 20 2e 93 bc d7 d4 45 bd cd 39 53 3b 54 1a 2a be
       -0.01796633 -0.048298683 0.0032230497 -0.16611606
000380 d0 ec c8 bc 0d 7f 39 bd e6 72 c7 bd 9d 47 aa bd
       -0.024526983 -0.04528718 -0.09738712 -0.083144404
000390 e1 1f f7 bb 68 52 86 bc ad a4 0e 3d 64 37 a5 3c
       -0.007541642 -0.016396716 0.034825016 0.020168014
0003a0 a2 d8 47 3d fd 74 b6 3d 2f 55 d7 bc 6a 62 d2 bb
       0.04879058 0.089090325 -0.026285736 -0.0064204233
0003b0 08 06 c7 bc 44 1f 1a bd 5a 95 0b 3c 26 67 eb bc
       -0.024294868 -0.037627473 0.008519495 -0.028735708
0003c0 37 b4 e6 3b 93 ce c8 bc e5 eb 96 bd ee 26 82 bc
       0.0070405263 -0.024512565 -0.07369212 -0.015887704
0003d0 2f a3 a7 3d e0 dd 91 3c d5 dd 33 3d 22 f2 90 3d
       0.08185422 0.017805994 0.043912727 0.07077433
0003e0 d1 a5 8e bc 5f 19 ed bd 33 12 e5 bd 2d 38 65 bd
       -0.017413052 -0.11577105 -0.11185112 -0.055961777
0003f0 9d a4 f8 3a 3d 98 77 bd 53 4a 66 bd a7 b1 e8 3b
       0.0018969957 -0.06044792 -0.056223225 0.007101256

conv3.bias f4 [64]
000000 6d 64 c2 3c 4f 42 8d 3c 25 13 28 bd a0 cf 9b 3c
       0.023729527 0.017243532 -0.041033883 0.019019902
000010 a7 8e 55 ba b8 e1 60 3c 89 76 19 bd 9a 5e f7 3b
       -0.0008146562 0.013725691 -0.03746656 0.007549119
000020 e0 65 30 3d 51 ed 4d bd 1d f4 5c bc 86 71 73 3c
       0.043065906 -0.05027515 -0.0134859355 0.014858609
000030 34 63 90 3c 2d 0f 6a bd 8a 56 e0 bc a3 6a f7 3c
       0.017625429 -0.05714338 -0.027385015 0.030202216
000040 c3 74 0e 3d 6b 07 07 3d 49 7d 12 3c b1 30 35 3d
       0.03477932 0.03296606 0.008941003 0.04423589
000050 4d fd b0 bc f1 20 51 3d 91 d0 41 3d 38 15 0c bc
       -0.021605158 0.051056806 0.047318045 -0.008549981
000060 64 c4 04 bd b7 ce 42 3c b5 e8 4c 3d fd ae 3b 3d
       -0.032413855 0.011890105 0.050026614 0.04582118
000070 c6 15 14 3d 55 53 b4 3c fb d4 13 bd 52 d8 44 bd
       0.036153577 0.022012392 -0.036091786 -0.04805786
000080 51 33 1f bc ac b6 56 3d 1f e8 72 bc 20 e0 31 bd
       -0.009716825 0.052420303 -0.01482585 -0.043426633
000090 d5 25 8a 3b 3a 1e 65 3d 6d 06 ab 3c 43 b8 e2 bc
       0.0042159357 0.05593703 0.020877087 -0.027675753
0000a0 89 bc 14 bd 60 fa c9 bc 12 d1 6c 3d 90 40 43 bd
       -0.036312614 -0.02465552 0.057816572 -0.047668993
0000b0 12 c8 a0 3b 5c 02 00 bd 02 f2 e7 bc da 95 e5 bb
       0.0049066627 -0.03125225 -0.02831364 -0.007006389
0000c0 14 80 5f 3d fe cc 47 3d fe 9b 9e ba f2 c0 45 3d
       0.054565504 0.04877948 -0.0012100933 0.04827971
0000d0 09 7e 67 bc b8 fa 1a bd 09 47 ee 3c e8 1a f6 3b
       -0.01412917 -0.03783676 0.029086607 0.0075105317
0000e0 b1 ea 2c bc b5 21 ae 3c 90 91 56 3d b1 a3 13 bd
       -0.010554002 0.021256307 0.052384913 -0.03604478
0000f0 37 d2 63 bb f5 d2 01 3d 26 20 56 3d a3 a3 6e 3c
       -0.003476275 0.031695325 0.052276753 0.014565381

bn3.weight f4 [64]
000000 91 29 7c 3f 86 02 7f 3f 46 d6 75 3f 8e a1 8a 3f
       0.98500925 0.99613225 0.9603008 1.0830553
000010 19 8b 89 3f a3 9d 70 3f f0 96 86 3f c7 63 8a 3f
       1.0745574 0.93990535 1.0514812 1.08117
000020 2d f6 6d 3f 00 0a 72 3f 5d e5 80 3f 5e c7 73 3f
       0.9295376 0.9454651 1.0069996 0.95226085
000030 83 26 85 3f 41 29 72 3f 75 28 6c 3f 16 f3 83 3f
       1.0402378 0.945942 0.9224923 1.0308559
000040 60 c2 6f 3f 6c be 81 3f cf 00 7e 3f a2 20 75 3f
       0.9365597 1.0136237 0.99219984 0.9575292
000050 c8 95 82 3f 38 a0 71 3f a4 94 62 3f a6 33 7a 3f
       1.020196 0.943851 0.8850806 0.9773506
000060 b7 c8 87 3f a8 c9 87 3f cb 7e 85 3f 76 e9 84 3f
       1.0608128 1.0608416 1.0429319 1.0383747
000070 2b a7 68 3f 04 d3 7e 3f 1f f8 80 3f d0 82 82 3f
       0.9088008 0.99540734 1.007572 1.0196171
000080 1c d0 70 3f 83 91 80 3f a7 4d 75 3f ca 15 82 3f
       0.9406755 1.0044407 0.95821613 1.01629
000090 4f 1e 84 3f 92 8f 6c 3f e3 7d 77 3f e6 f6 6b 3f
       1.032175 0.9240657 0.9667646 0.9217361
0000a0 75 f2 86 3f 4c 06 87 3f 8f 23 6f 3f f2 1d 83 3f
       1.0542742 1.0548797 0.93413633 1.0243514
0000b0 bb f6 80 3f 29 f2 81 3f 4b ca 82 3f de 1c 7b 3f
       1.0075296 1.0152026 1.0217985 0.9809092
0000c0 05 11 71 3f d7 4b 89 3f 88 92 80 3f 1a 74 87 3f
       0.94166595 1.072627 1.0044718 1.0582306
0000d0 1e db 83 3f c8 4b 77 3f d1 d0 70 3f ff 86 82 3f
       1.0301244 0.9660001 0.9406863 1.0197448
0000e0 08 2d 85 3f d6 b9 7f 3f 68 fc 83 3f d9 5a 7b 3f
       1.0404367 0.9989294 1.0311403 0.981855
0000f0 c2 12 84 3f a6 64 8a 3f fe 38 78 3f 62 a9 83 3f
       1.0318224 1.0811965 0.96961963 1.0286067

bn3.bias f4 [64]
000000 29 87 aa bd 48 ba 75 bd e0 e6 ae bc 8e cd 33 bd
       -0.08326561 -0.059992105 -0.021350324 -0.043897204
000010 35 cc 40 bd 6b 37 32 bd de 6f 1b bd db 95 42 bd
       -0.047069747 -0.043509882 -0.03794848 -0.047506195
000020 a7 00 57 bd d1 af 03 be a7 20 7a bd 34 94 af bd
       -0.052490856 -0.12860037 -0.061066296 -0.085731894
000030 50 2f 48 bd 6d 96 0a bd 7d 0f 63 bd 02 e6 49 bd
       -0.048873246 -0.033834863 -0.055434693 -0.04929162
000040 9a a8 5e bd bf 31 85 bd 8a 0e a0 bd b7 a8 70 bd
       -0.05436001 -0.06503629 -0.07815273 -0.05875465
000050 b2 91 18 bd 39 77 17 bd 10 f6 16 be ce 9c 8e bb
       -0.03724832 -0.036978934 -0.14742303 -0.0043521887
000060 54 60 4f bd 04 4b 02 bd 5b 0b 10 bd 03 3a 32 bd
       -0.050628975 -0.03180982 -0.03516708 -0.043512356
000070 85 ae 9d bd 2d 5e 71 bd e3 80 63 bd 9b 99 0a bd
       -0.076993026 -0.058927704 -0.055542838 -0.033837896
000080 fb 18 74 bd be 6a 4f bd 7a 7b 9c bd d9 cd 6e bd
       -0.059594136 -0.050638907 -0.07640739 -0.05830178
000090 e2 d2 86 bd 4a 30 85 bd 7f 79 68 bd 6b fe 71 bd
       -0.065831915 -0.06503351 -0.056756493 -0.059080523
0000a0 80 b5 68 bd 28 be 24 bd 0f 2e 66 bd 75 0e 60 bd
       -0.056813717 -0.04022041 -0.05619627 -0.054701287
0000b0 b1 3c b9 bd 9d 5e 41 bd 9f 1a 56 bd 0d 06 52 bd
       -0.09044779 -0.04720937 -0.05227148 -0.0512753
0000c0 30 f9 1a bd 9b a2 4c bd 7f 5f 64 bd 83 6c 55 bd
       -0.0378353 -0.04995976 -0.055755135 -0.052105438
0000d0 a8 9c 31 bd 63 6e 8d bc b3 0b ed bc 20 d0 75 bd
       -0.04336229 -0.01726455 -0.028936243 -0.060012937
0000e0 e1 26 7b bd 67 e8 d5 bd 23 d1 75 bd 65 fc 0f bd
       -0.061316375 -0.10444718 -0.0600139 -0.03515281
0000f0 2d 02 76 bd de 43 45 bd 7c fb 8c bd b9 09 46 bd
       -0.06006067 -0.048160426 -0.06883904 -0.048349116

bn3.running_mean f4 [64]
000000 7a 0a 91 3e 63 65 16 3f e1 e0 bc bf 3d de fc 3d
       0.28328305 0.58748454 -1.4756128 0.12347076
000010 db 93 a9 3e 61 b4 90 bf 1d 1f 98 3e 37 5a 37 3f
       0.33120617 -1.1305047 0.29711238 0.7162203
000020 fd 57 97 bf 92 2d 7d be ec 63 83 3f e4 07 7a 3f
       -1.1823727 -0.24724415 1.0264869 0.9766829
000030 0e b4 50 3f 63 7d e0 bf ba f1 05 c0 d4 4f 7c 3f
       0.8152474 -1.7538265 -2.0928788 0.9855931
000040 72 09 f0 bf a9 2b 44 3f 3d ae 49 3d f4 dd 07 3f
       -1.8752882 0.7662912 0.049238432 0.5307305
000050 ac e2 58 3f 92 57 79 bf e9 bb 41 bf 63 88 dc bf
       0.84720874 -0.97399247 -0.75677353 -1.7229122
000060 06 7b 40 3f 9d d6 50 3f 62 3e 10 3f 8e a0 1a 3f
       0.7518772 0.81577474 0.5634519 0.60401237
000070 ce f3 ed bf 88 99 64 3f 35 02 62 3f 2e 82 87 3e
       -1.8590028 0.8929677 0.8828462 0.26466507
000080 3d 31 1f bf c0 65 22 3f f7 68 fe 3e 01 a3 0b 3f
       -0.62184507 0.6343651 0.49689457 0.545456
000090 13 17 8d 3f cd f2 1f bf 84 6b 09 3f 5c 86 a1 bf
       1.1022667 -0.6247986 0.5367968 -1.2619128
0000a0 2e f8 5b 3f 82 6f ef 3e 77 cf 07 3f 50 cc c3 3e
       0.8592557 0.4676476 0.5305094 0.38241816
0000b0 5a e2 f1 3e 0d a8 71 3f 7f 4c ef 3e 5d 33 4c 3f
       0.47243005 0.9439705 0.4673805 0.79765874
0000c0 ae af 9b bf aa 8a 59 3f 88 ef f3 3e 9b d8 21 3f
       -1.2162988 0.8497721 0.47643685 0.6322114
0000d0 36 3c 4d 3f ec 5a fb bf 85 b6 f7 bf cf ad 6c 3f
       0.8017 -1.9637122 -1.9352576 0.9245271
0000e0 72 66 6e 3f e2 32 0c 3d 0d 36 64 3f a5 78 28 3e
       0.9312507 0.034228213 0.89144975 0.16452272
0000f0 43 69 ff 3e 44 a4 2c 3f 40 31 44 3f 4e 7b 9d 3f
       0.49884996 0.6743815 0.7663765 1.2303255

bn3.running_var f4 [64]
000000 9f 2a 52 3f aa f4 63 3f a9 1b a9 3f 40 5c 5f 3f
       0.82096285 0.890452 1.3211566 0.8725014
000010 45 9c 1f 3f ad 46 12 3f ed 29 8e 3f cb b8 80 3f
       0.62347823 0.5713909 1.1106545 1.0056394
000020 67 ed c0 3f 1e 6b 3e 3f f6 43 82 3f b4 90 4e 3f
       1.507245 0.743822 1.017699 0.8068955
000030 1c 5b 52 3f 67 40 b5 3f 8a ac da 3f ab 30 94 3f
       0.8217027 1.4160279 1.7083905 1.1577352
000040 ab e8 a7 3f 8b b9 a0 3f 2c 05 67 3f 6c b4 3d 3f
       1.311788 1.2556623 0.90242267 0.74103427
000050 a3 21 6d 3f f6 e8 23 3f 29 a2 92 3f 04 4a 81 3f
       0.9262945 0.64027345 1.1455737 1.0100713
000060 ae 1c 58 3f 53 45 8a 3f 69 f2 5a 3f ed f9 4c 3f
       0.8441876 1.0802406 0.8552614 0.80068856
000070 13 ec a8 3f 12 3a 30 3f 24 f5 22 3f 8f ba 46 3f
       1.3197044 0.6883861 0.63655305 0.77628416
000080 d6 53 01 3f c9 7a 3c 3f 5b 81 22 3f 93 1a 65 3f
       0.5051855 0.73624855 0.6347863 0.89493674
000090 ae f5 85 3f c6 74 54 3f 9f 2f 1c 3f e0 d3 69 3f
       1.04656 0.8299068 0.61010164 0.9133892
0000a0 30 09 34 3f 56 37 58 3f b1 10 68 3f 4b 10 33 3f
       0.7032652 0.84459436 0.9065047 0.69946736
0000b0 8f 37 3a 3f e5 61 83 3f 07 86 8e 3f 48 1d 52 3f
       0.72741026 1.026425 1.1134652 0.8207593
0000c0 4f c6 a1 3f 78 cf 78 3f e4 05 1c 3f 5c 25 35 3f
       1.2638644 0.9719157 0.6094649 0.7076013
0000d0 06 1f 53 3f 50 4d c1 3f b7 7f d0 3f 0b d5 34 3f
       0.82469213 1.5101719 1.6288975 0.7063758
0000e0 7e a2 86 3f 07 7a 28 3f c5 38 35 3f 28 56 50 3f
       1.0518339 0.658112 0.7078975 0.81381464
0000f0 32 65 2b 3f 47 51 26 3f 71 59 41 3f 95 cb 98 3f
       0.66951287 0.6496777 0.755271 1.1937128

fc1.weight f4 [128, 1024]
000000 35 3b a9 3c 66 a2 d0 bc d3 c9 95 bb 62 29 bc 3c
       0.020658115 -0.025468063 -0.0045711785 0.022968952
000010 90 ad 58 3d 63 cd 3c 3d 7f 8d 08 3d ad d2 c8 3c
       0.052899897 0.04609431 0.033338066 0.02451452
000020 5f fd 61 3d 0a 30 11 bc d6 4b 0f bc 4c 83 d7 3c
       0.055173274 -0.008861551 -0.008746108 0.026307724
000030 74 db 1b bd be c0 ba bc ba c5 13 bd 70 d3 19 bd
       -0.038051084 -0.022796985 -0.03607724 -0.03755516
000040 7c c6 df 3c 0d ff 6d bc 94 fd fc 3c 14 35 5a bc
       0.027316324 -0.014526141 0.030882634 -0.013318319
000050 13 8c 3c 3a fb 6a 64 3c 47 de 83 3c 6c 83 43 3c
       0.00071925035 0.013941522 0.016097201 0.011933189
000060 c1 74 36 3d 7f 2e 90 3c c7 d9 d0 3c d2 04 37 3d
       0.04454494 0.017600296 0.02549447 0.04468233
000070 0b 75 d3 bc 1f 32 f9 3c e8 0b ac bc a9 fa ba 3c
       -0.025812646 0.030419407 -0.021001771 0.022824602
000080 cf 33 14 bd 75 2f 63 bc d4 98 f9 3b 09 95 8e 3b
       -0.03618222 -0.013866295 0.0076170955 0.0043512625
000090 0a 1a 6e 3c 4c 78 29 3c f5 1f d8 3a 5f ee 10 bc
       0.014532575 0.010343622 0.0016489016 -0.008845895
0000a0 ce ff 33 bd d6 5b 2c bc 74 62 2c bd 9e 8f e5 3b
       -0.043945126 -0.010519942 -0.04208608 0.007005646
0000b0 03 c6 b6 bc 95 70 e0 bc 2f 1e 8d 3c 38 88 93 3c
       -0.022311216 -0.027397433 0.017226307 0.01800929
0000c0 c3 96 d3 3b ca 62 51 bc b5 7b c8 bc 0f 73 bd bc
       0.006457181 -0.012779901 -0.02447305 -0.023126153
0000d0 21 ba 26 bb 38 bb c8 3d 8f 9d 5f 3d df 85 e0 3c
       -0.0025440531 0.09801334 0.05459362 0.027407585
0000e0 7b 9a 69 bc 4d 94 ba 39 33 cf f3 3b 8b 27 15 3d
       -0.014258022 0.00035587177 0.0074404716 0.036414664
0000f0 c4 75 f0 3a bd af f6 3c 13 1b 12 3c fd 55 b2 bc
       0.0018345644 0.030113095 0.008917588 -0.021769518
000100 8a 67 63 3c 7f fe 91 3c 9f 75 24 bb 60 cc 20 ba
       0.013879666 0.017821549 -0.0025094522 -0.000613397
000110 dd 6b 51 3c 29 d7 a0 3c ab 99 44 3d eb 48 de 3c
       0.012782064 0.019633846 0.04799811 0.02713438
000120 5a f7 17 3d 58 66 01 3d 68 fc e5 bc ec c3 18 3d
       0.037101127 0.031591743 -0.028074458 0.03729622
000130 89 a1 57 bc 63 d1 df ba a0 1a 01 3b a1 b9 ac 3c
       -0.013161072 -0.0017075952 0.0019699708 0.021084609
000140 88 2e 8c 3b da 89 50 bc ab 94 8e bb 3b cb e5 bb
       0.004278008 -0.012728179 -0.0043512187 -0.0070127524
000150 09 36 74 3c 97 28 0d 3d 4a d8 f2 bc 96 21 40 bd
       0.014905461 0.034462538 -0.02964415 -0.04690703
000160 c2 9e 2d bd 20 2e 2d bd 56 4c e8 bc d2 11 26 bd
       -0.04238773 -0.042280316 -0.028356712 -0.04054434
000170 f6 ca 73 3c aa fb 97 3c 00 e1 65 3b f0 d8 1a bc
       0.014879933 0.01855262 0.0035076737 -0.009451136
000180 14 73 02 bb 22 1a 2e 3d 94 5d 35 3c e2 05 1c bc
       -0.0019905018 0.04250539 0.011069674 -0.009522887
000190 d0 63 86 3d a0 96 cd 3c cc 43 dc 3a e2 bb dd 3c
       0.065620065 0.025096238 0.0016804873 0.027067129
0001a0 a0 a2 2d 3c 64 26 12 3c 1c dc fb 3c 38 cd 65 3c
       0.010597855 0.008920286 0.030744605 0.014025979
0001b0 bc b9 37 3c d6 5d 4a 3c 58 0d ec 3a f2 d3 27 bc
       0.011213716 0.012351474 0.0018009348 -0.010243403
0001c0 cf ed 4e 3c 82 c9 67 3d 74 cc c4 bc dc f8 85 3c
       0.01262994 0.056588657 -0.024023272 0.016354017
0001d0 b7 1e 80 3d 27 2a bc 3c 6d 34 9e bc 63 63 90 bc
       0.062558584 0.022969319 -0.019312108 -0.017625516
0001e0 fe 62 77 3d d4 03 b3 3c 21 d5 53 3d b3 4a 53 3d
       0.06039714 0.021852411 0.051716927 0.05158491
0001f0 58 ec 41 3d 1e c1 e2 3c 09 ca ff 3c ed 00 ad 3c
       0.047344536 0.027679976 0.031224268 0.021118606
000200 66 c0 df bc 11 4f 5c bc fe eb c0 3c e7 e3 13 3a
       -0.027313422 -0.013446585 0.02355003 0.0005641565
000210 20 42 0f bc a4 1b 01 bc d6 31 17 bc bd 63 96 bc
       -0.008743793 -0.007880125 -0.00922819 -0.018358106
000220 10 a7 ca 3c 18 e0 58 bb e6 98 81 3b 50 f4 06 3c
       0.024737865 -0.0033092555 0.0039549945 0.00823696
000230 1d cf e0 3c c0 23 75 bc 31 1f e3 3b 4b 59 94 3b
       0.02744251 -0.014962137 0.0069312085 0.004527246
000240 28 77 55 bc 98 7f 9f bc 0a 01 de bc d3 a6 65 bb
       -0.013028897 -0.019470021 -0.027100105 -0.0035042062
000250 df ed a8 bc 17 ae 17 3d 6f c5 de 3c 1f e2 f0 3c
       -0.020621238 0.03703126 0.027193753 0.029404698
000260 c9 dd fb 3c 76 5f 09 3c e3 36 8f 3c 74 87 c7 3b
       0.030745404 0.008384576 0.017482227 0.0060891453
000270 c8 fc 9d bc c7 16 d4 3b 11 f3 05 3c 77 9a 87 3c
       -0.019285575 0.006472442 0.008175627 0.016553147
000280 f6 21 d6 3c bc fe a0 ba cc 4c 6f 3c 4d 3a bb 3b
       0.02613924 -0.0012282948 0.014605712 0.005713737
000290 ea df cc 3c d4 b5 71 3c 8c e6 6c bc dd 62 c1 3c
       0.025009114 0.014752824 -0.0144592635 0.023606712
0002a0 bb 14 84 bc 54 6d 62 3d 7f 5f dc 3c 79 f2 4f bb
       -0.016123166 0.055280045 0.026901005 -0.0031730218
0002b0 90 08 97 3a a9 b7 9b bc 04 f4 ea bb bb 04 44 3c
       0.0011522938 -0.019008474 -0.007170202 0.011964018
0002c0 93 42 c7 bb 5b d4 cd ba 4b 5e ad 3c 27 45 56 bc
       -0.0060809343 -0.0015703546 0.021163126 -0.013078011
0002d0 eb 25 ab bb d4 a1 7f 3b b8 d2 9a 3c 9b 02 2e bd
       -0.005223026 0.003900637 0.018899307 -0.042482954
0002e0 a7 f7 21 3d e1 95 34 3d 61 ae 2c 3d dc b5 88 3b
       0.03954282 0.04408825 0.04215849 0.00417207
0002f0 cd 55 ab 3c e0 d2 de bb 39 77 dd bc 7c 61 0b bc
       0.020914936 -0.0068000406 -0.027034389 -0.008507129
000300 9f ad 04 ba 37 f5 2b 3d 66 2b bb bc 93 62 11 bd
       -0.0005061272 0.041981902 -0.022847842 -0.0354944
000310 8d 6f fd 3c e6 7f 08 bc 84 cc 68 bc 2f 15 d5 3c
       0.03093698 -0.008331275 -0.014208917 0.026011078
000320 8e da 0a 3c c2 21 11 3d ba e1 82 3d 44 42 aa 3c
       0.008474959 0.035432585 0.0639071 0.020783551
000330 d9 62 04 3d 5f 3d 26 3b 6e 0d de bc c5 5d d6 3c
       0.03232083 0.002536617 -0.027106013 0.02616776
000340 09 ec 0e 3b c7 9d 33 bd 59 0e cb 3b 12 52 c7 bc
       0.0021808168 -0.04385164 0.0061967787 -0.024331126
000350 30 38 8a bc a2 0d f9 3c 68 19 d5 bc d8 9d ab 3c
       -0.016872495 0.030402008 -0.026013091 0.02094929
000360 6c 7e 97 bc 22 d5 30 bd fd 70 42 bd bc 52 8d bc
       -0.0184929 -0.04317201 -0.047471035 -0.017251365
000370 b0 4c 5e 3b df 38 80 bc a6 6a c1 bc a2 ee 77 bb
       0.003392022 -0.015652118 -0.023610424 -0.0037831445
000380 ff e2 c6 bc 25 bd 08 bd e5 6d 48 bc df 47 a6 3c
       -0.024278162 -0.033383507 -0.012233232 0.020297943
000390 a3 95 40 bc 82 47 e2 bc 3b 20 1c 3d b4 2a 20 bd
       -0.011754426 -0.027621988 0.038116675 -0.039103225
0003a0 c8 f7 1c bd 99 27 44 bc ab 7a 1a bd ff 3c 43 3b
       -0.03832224 -0.011972331 -0.03771464 0.0029790995
0003b0 b9 eb 7b 3c 09 b2 a5 3c 33 47 86 3c cd d8 84 39
       0.015376025 0.020226495 0.016391372 0.0002533853
0003c0 35 af 13 3d ed e1 09 3c f1 cb 74 bc 98 8c 14 3c
       0.036055762 0.008415681 -0.014941202 0.009066723
0003d0 b4 a3 18 3d 79 12 38 3d fd 89 1d bc 59 b1 ba 3c
       0.037265494 0.044939492 -0.0096154185 0.022789644
0003e0 6b 3b a4 3d 1c 88 df 3c 20 e8 32 3c 99 91 a5 bc
       0.080191456 0.027286582 0.010919601 -0.020211028
0003f0 1c a6 88 3d 6a 4f 32 bc 16 a2 4b 3d 3f c1 0b bd
       0.06672308 -0.010883192 0.049715124 -0.03411984

fc1.bias f4 [128]
000000 89 8e ce bc 4e 9e 1b 3c 47 33 1c bd e5 02 10 bd
       -0.02521445 0.009498192 -0.03813484 -0.03515901
000010 3c 66 ae bc cb 53 6e bb 8e b0 fb bc ec b9 7e bc
       -0.021288984 -0.0036365862 -0.030723836 -0.015547257
000020 c8 7d 1a bd 2b 5b e9 bc 62 c9 72 b7 1e ec 05 bd
       -0.03771761 -0.028485855 -1.4471212e-05 -0.032695882
000030 22 a3 cd 3c 07 7e 73 bc c9 0b 1c 3d 6e 4b 81 3c
       0.025102202 -0.01486159 0.038097177 0.015783038
000040 54 68 09 bc 9a 4c 0d 3d a5 2a 31 bd c3 f2 28 bb
       -0.00838669 0.03449688 -0.04325356 -0.0025779463
000050 53 c3 b7 3c 2b f6 92 bb 12 df b9 bc 4a b5 1a 3c
       0.022432005 -0.004484912 -0.022689376 0.009442637
000060 21 9a dd bc d0 f3 11 3c cb ee 07 3d df b7 3d 3c
       -0.027051033 0.008908227 0.033186715 0.011579483
000070 24 84 01 bc 10 fb 00 3c 5d 8f ab 3c 51 b4 b7 bb
       -0.00790504 0.007872358 0.020942384 -0.005606212
000080 51 45 86 bc 1a 06 e5 bc 9b 58 b6 3c 62 e1 ff 3c
       -0.016390475 -0.027957011 0.022259047 0.0312354
000090 c9 e9 cb 3c 9f 0e f6 bb fc 7c ce bb 0b 44 6e bb
       0.02489175 -0.007509067 -0.0063015204 -0.0036356475
0000a0 d8 19 05 bd 66 1e 1c bd 93 88 d3 3c 98 0f 84 bc
       -0.03249535 -0.038114928 0.02582196 -0.016120717
0000b0 d6 f4 82 bc f9 58 84 3c 63 91 fb 3c 2b f7 0f bd
       -0.015985887 0.016155707 0.030708974 -0.035147827
0000c0 40 5b 1d bd 19 b9 07 bd 45 71 04 3c 61 5f 10 3c
       -0.0384171 -0.033135507 0.008083646 0.008811803
0000d0 ee c8 24 bd a6 a2 01 3c 79 c8 53 bd 8c 61 a0 ba
       -0.040230684 0.007912314 -0.051704857 -0.0012236102
0000e0 24 cf 2b bd 6d 9d 5c bd 3a ee 46 bd d2 b4 dd ba
       -0.04194559 -0.05386107 -0.048567034 -0.001691485
0000f0 33 80 a1 3b bd eb bf bc 88 b2 c6 bc 61 2d 89 3c
       0.0049286126 -0.023427838 -0.024255052 0.016745271
000100 c5 70 15 3d 25 8a ba 3b 9e 2d 75 3c 8b db 85 3c
       0.0364845 0.0056927376 0.014964489 0.016340038
000110 04 f6 dd bc f5 a0 a6 bc ec 72 fc 3c ae fc 02 bc
       -0.027094848 -0.020340422 0.030816518 -0.007994814
000120 81 b5 cb bc a2 4d 65 3c a1 f7 5b 3b 11 d5 f6 ba
       -0.024866821 0.01399556 0.0033564346 -0.0018831809
000130 bb d4 33 3c 38 e5 f3 bc 7b 4f b9 bc 54 f4 b7 3b
       0.010976012 -0.029772386 -0.022620907 0.005613843
000140 21 77 82 3c ff fe c7 bc 2b ad 94 bc 41 5f 63 bc
       0.015925946 -0.024413584 -0.01814898 -0.013877691
000150 85 03 9c 3b ed fa fa 3c c2 da 0c 3c 80 18 02 3d
       0.0047611617 0.030637229 0.008597078 0.031761646
000160 9b a3 f0 bb fc a5 2a bc d9 63 d2 bc 3e 8f 92 bc
       -0.007343722 -0.01041555 -0.025682377 -0.017890569
000170 b7 21 b8 3c ee 95 d8 bc 42 f9 10 bd bd 0c 95 3b
       0.022477014 -0.02643868 -0.03539396 0.0045486377
000180 72 99 d0 3b 1c e7 1a 3c 86 40 95 bc c8 08 a2 3c
       0.0063659484 0.009454515 -0.018219244 0.019779578
000190 3e 57 5d 3c 59 e6 cb bc e4 a8 b6 3c f6 30 1b 3c
       0.01350957 -0.024890112 0.02229733 0.009472122
0001a0 78 d5 17 bd ed 3c 1f 3c bc f8 25 3c 81 66 bc 3c
       -0.037068814 0.009719116 0.010130104 0.022998096
0001b0 16 29 7a 3c 9f ef 15 bc 33 bf 71 bc 6f d7 57 bb
       0.015268585 -0.009151368 -0.014755058 -0.0032934805
0001c0 44 d1 59 3d d7 1e ee bc f9 b6 cc bc a4 fe 85 ba
       0.053178087 -0.02906744 -0.024989592 -0.0010222984
0001d0 61 82 2e 3d 7f 47 0d bd 31 b0 2a 3a 7f 4b 0b bd
       0.042604808 -0.034492012 0.000651124 -0.034007546
0001e0 a0 21 32 3c e3 df 68 bc 57 b8 2f bd a5 b0 4c bc
       0.010872275 -0.014213535 -0.04290041 -0.012493287
0001f0 39 63 86 bc 9c b7 5f 3b 0a 54 0e bd e3 74 8b bc
       -0.016404735 0.003413654 -0.034748115 -0.01702351
