checkpoints/trained_dynamic_64x64_20251211_194252.pth (torch, 631930 bytes, 22 tensors)

conv1.weight f4 [16, 3, 3, 3]
00000000: 7e02 9d3d 8084 07bd 520a 80bc 2737 e63d
00000010: 8775 563e dd10 67be 9dc1 e13c e04e 48bc
00000020: 6b2c 8b3d 2f0c c53d d584 9f3d 049a 313e
00000030: 5c69 22be 4d27 55bc cee7 263c 8248 09be
00000040: e7d2 fcbd f0ab 86be 0a44 ae3d be38 203d
00000050: e102 503c ed39 a73d 2e22 4e3b 33ae 013e
00000060: b70f b43d 1671 80bd 83e7 81be 9c0d acbd
00000070: 82c5 6f3d 6106 16be d600 c13d 4eca 4cbd
00000080: 9280 743e 64b0 cabd 58e5 01be 9012 813d
00000090: 1043 003e c869 3a3d 368a 7f3c a9d7 903c
000000a0: e8cd 123e de80 ae3d b9d7 373c 4a3b f2bd
000000b0: 3921 ffbd 3c78 a6bd c063 4a3b 7b1e b2bd
000000c0: 2a1a 0e3d 4b34 623d 66f9 8d3e 214b 00bd
000000d0: 78a8 20bd ce1f 6c3e 38b6 aebc e9b4 25bd
000000e0: 6bff 063e d4e9 93be e2b0 1e3d df6e 06be
000000f0: a5a3 51bd a3ec 0ebe b849 0abe fbf9 46be
00000100: 163c 55bc a0a1 bfbd 0558 8cbe 342c a1be
00000110: d017 6dbc db02 e23d 44eb 183e 784e f7bd
00000120: d4c8 11be 5a37 5c3e c6e1 d43d aa0b 6ebe
00000130: 457f 51bc f459 a23d 4476 9b3d 0bee dc3c
00000140: cdfb bfbd 7b71 63bc fdcf eabd aafe 263e
00000150: 763f 01be 9390 d03d 7ca2 353c 77f7 c73d
00000160: 69bf 843e e9be 1a3c 53f4 edbd 5f51 8cbd
00000170: a172 d13d 03ef 223e e6ca 3c3e ca98 07be
00000180: 9c3a 723a 6547 043e cb41 213e 3b54 63bd
00000190: a17f 1f3e 63a4 45be 4235 fabd 9d91 86bd
000001a0: cd56 3bbe 5b92 123e b921 27be e967 093d
000001b0: d9fb 4ebe 3067 e73d 5976 d3bb 91dc 6f3d
000001c0: c392 3e3e d153 2c3c 88fb e4bd b62d c23d
000001d0: 3ff5 0c3d 7033 a73d c371 ed3c ed96 83be
000001e0: f617 0c3e 0950 e13c 35b5 e3bc 402b d5bb
000001f0: 4c58 90bd 7519 673e bfc9 93bd 31cf 5ebe
00000200: 15a7 a23d c725 923c ad2a ee3d b760 e3bd
00000210: 5399 07be f4ca 143d 4e5d 5bbc 90b6 353e
00000220: 1aa2 e03c c149 693d 9781 ddbd 997d 56bd
00000230: fca5 0e3e 2091 1fbe fbe0 bcbd 1ee4 393e
00000240: 1a81 59bd 6f26 a8bd a320 bd3d 9fdb 50bd
00000250: df7b e9bd fb5f 533e cef5 2ebe f481 0f3e
00000260: cbb4 383e 6612 c2bd 1754 45be fc33 05be
00000270: bb36 2ebe 2ca8 2dbe e2a2 5d3e 2b29 14be
00000280: 2d02 b63c 6db8 ac3b f8fe dd3d 8b6e 8abd
00000290: 9d10 90bd 27b4 dabd 0bfc 00bd d2a4 0cbe
000002a0: b7ae 6abd 49df 263e a3ac 8a3d 6448 d5bd
000002b0: 8107 41be db1d a73d d264 24be 8758 3b3e
000002c0: b1fd 1d3d d1f4 f83d ba45 71bd 1593 463e
000002d0: 98df febd 9773 d7bd 4b89 b8bd 1e0c 67bd
000002e0: fd24 f3bd 5fe5 603e 9bcf 37bd 9df7 72bd
000002f0: 7dfa b03c fe2a 253e cc5e 9cbd 40f8 96bd
00000300: 318b 163c 493d c1bd 6369 64bd 0ae0 5b3d
00000310: 3249 803d 17e5 63bd ad8e c1bd 541a 2f3d
00000320: 792b 5e3d 0028 4d3e 81e5 58be c8c9 0e3c
00000330: aa86 06be 712c 06be d665 1a3e a529 c43d
00000340: 1534 303e 7953 143c 31f2 023e 7834 8ebd
00000350: a319 f3bd 7090 1d3d 92b8 06be 3547 b73d
00000360: a3c1 e73d 071f 353d e687 3d3d c266 ff3d
00000370: a316 9ebd 3287 95bc 2e62 f0bd efe2 003e
00000380: 04c1 14bd a813 593e 0626 1bbd 4b15 02bd
00000390: 684d 8d3c d982 953d 6039 40be 1f4e 0d3e
000003a0: 28c7 3fbd ea1b 9fbd 2a5d f03d 1e7d d4bd
000003b0: 9ef1 003e a5d0 093e 2006 69bd 1255 963d
000003c0: 7a79 293e 77ed 28bd 48e8 4ebd 60dc 9fbd
000003d0: 7d45 443d d7ae b6bd 8396 20bd 0384 263e
000003e0: 8a12 e6bd 0e34 c43d a58d d1bd 8a8c 6dbd
000003f0: 1a99 13be 02bc 32be 990f 033e 6835 923d
0.07666491 -0.033085346 -0.015629921 0.11240988 0.2094327 -0.22565027 0.027558142 -0.0122258365
0.067955814 0.096214645 0.077890076 0.17343909 -0.15860504 -0.013009858 0.0101871025 -0.13406566
-0.12344914 -0.26303053 0.08509071 0.039116614 0.012695999 0.08165345 0.0031453478 0.12664108
0.0879206 -0.062715694 -0.25371942 -0.08401033 0.058537968 -0.14650871 0.094239876 -0.04999762
0.2387717 -0.09896925 -0.12685144 0.06302369 0.12525582 0.045511037 0.015596917 0.01768096
0.1433636 0.08520673 0.011220866 -0.11827715 -0.124575086 -0.08128402 0.003088221 -0.0869722
0.03469292 0.05522565 0.27729338 -0.03132165 -0.039223164 0.23059008 -0.021327123 -0.040455732
0.13183372 -0.28889334 0.038742907 -0.13128231 -0.051181454 -0.13957457 -0.13504684 -0.19431297
-0.013014814 -0.093569994 -0.27410904 -0.31479037 -0.014471009 0.11035701 0.14933497 -0.120755136
-0.14236766 0.2150549 0.10394625 -0.23246637 -0.012786691 0.079273134 0.07590917 0.026968976
-0.09374199 -0.013882036 -0.11465452 0.16308084 -0.12621865 0.10183825 0.011086103 0.09763997
0.25927284 0.009444931 -0.11618867 -0.06851458 0.10226942 0.15911488 0.18436775 -0.13241878
0.0009240301 0.1291786 0.15747754 -0.05550025 0.1557603 -0.1930099 -0.12217189 -0.06570742
-0.1829483 0.14313643 -0.16321458 0.033546362 -0.2021326 0.11298978 -0.006453317 0.058559958
0.18610673 0.01051803 -0.11180788 0.09481375 0.034413572 0.08164108 0.02898491 -0.25701085
0.13681015 0.027503984 -0.027796367 -0.0065054 -0.07048091 0.22568305 -0.072162144 -0.21758725
0.079420246 0.01784028 0.116292335 -0.11102431 -0.13242082 0.036326364 -0.013388945 0.17745423
0.027421046 0.056955103 -0.10815733 -0.052365873 0.13930506 -0.15582705 -0.09222599 0.18153426
-0.053101636 -0.082104556 0.092347406 -0.050990697 -0.1140058 0.20642082 -0.17085955 0.14014417
0.18037717 -0.094761655 -0.19270359 -0.13008112 -0.17013066 -0.16958684 0.21644166 -0.1446883
0.022217834 0.0052710087 0.10839647 -0.06759366 -0.07034419 -0.106788926 -0.031490367 -0.13734749
-0.057295527 0.16296114 0.06771209 -0.10414198 -0.18850519 0.08159991 -0.16054085 0.18295489
0.038572017 0.1215607 -0.058904387 0.19392045 -0.12444991 -0.10520094 -0.090105616 -0.05640804
-0.11872289 0.21962498 -0.044875722 -0.059318174 0.021603817 0.16129681 -0.076352686 -0.07371569
0.009188459 -0.09435517 -0.055764567 0.053680457 0.06263961 -0.0556384 -0.09451041 0.042749718
0.054240678 0.2003479 -0.21181299 0.008715101 -0.13137308 -0.1310289 0.1507791 0.095782556
0.17207368 0.009053105 0.12787701 -0.06943601 -0.11870124 0.038467824 -0.13156345 0.089491285
0.1131623 0.044219043 0.04627218 0.12470771 -0.07719161 -0.018252943 -0.11737476 0.12586568
-0.036316887 0.21198905 -0.03787806 -0.031758588 0.017248824 0.07300348 -0.18771887 0.13799332
-0.04682079 -0.07768996 0.1173652 -0.10375427 0.1259217 0.13458498 -0.056890607 0.073404446
0.16550246 -0.04124209 -0.05051449 -0.07805705 0.04791783 -0.08920067 -0.03920604 0.16261296
-0.11234005 0.09580241 -0.10232095 -0.057995357 -0.14413872 -0.17454532 0.12798919 0.07139093

conv1.bias f4 [16]
00000000: c821 133e 158a ab3d fef3 a6bc 4208 48be
00000010: 144c 6d3d 6d2d cfbc 30ac 6dbd 92e1 d03d
00000020: 09f0 ffbd a3ba 093e 13cd dcbc c118 9dbd
00000030: 075d 35bd 960d bf3d 1655 fa3d 348b 2e3b
0.14368355 0.083759464 -0.020380016 -0.195344 0.057933882 -0.025290215 -0.05802554 0.10199274
-0.12496955 0.13450103 -0.026953256 -0.07670737 -0.04427817 0.09328763 0.1222326 0.0026633264

bn1.weight f4 [16]
00000000: 0fa4 773f 2af5 5e3f f730 793f 950f 513f
00000010: 1dd1 3b3f 7cf9 8a3f 3621 903f 8d01 873f
00000020: 2666 363f 4388 883f 05e7 663f d8f8 843f
00000030: 4be9 943f 7dfa 5b3f d52d 5c3f c2b6 933f
0.9673471 0.8709284 0.9734034 0.816644 0.73365957 1.0857387 1.1260135 1.0547348
0.71249616 1.0666584 0.9019626 1.0388441 1.1633695 0.8592909 0.86007434 1.1540148

bn1.bias f4 [16]
00000000: 35af 94bd a33c c5bd 4cda 92bd f63b 59be
00000010: e40d 7abe bbb4 8e3d 304f aebc 8f6e f2bd
00000020: 01d9 26be 0922 fabc c01d 26bc bbb9 43bd
00000030: 91fa 76bd e13f 0abe b45e 07be 55ac f0bc
-0.072599806 -0.09630706 -0.07170543 -0.2121428 -0.24419361 0.06968065 -0.021277994 -0.11837494
-0.16293718 -0.030533807 -0.010138929 -0.04778455 -0.060297552 -0.1350093 -0.1321972 -0.02937905

bn1.running_mean f4 [16]
00000000: 6b9e f13d d0ac 0c3f edcd 93bf 0655 733d
00000010: 607d 073e 65ba aebe 939a c0be c820 323e
00000020: 71e8 e73e 0984 3e3e 17ba 0b3f 1501 febd
00000030: 2fdc b5bd 4883 813f 281f 8a3e 5da9 b43d
0.11797794 0.5495119 -1.1547219 0.059407257 0.1323142 -0.34126583 -0.3761793 0.17395318
0.45294526 0.18605055 0.54580826 -0.1240255 -0.08879887 1.0118189 0.26976895 0.08821366

bn1.running_var f4 [16]
00000000: 8111 f03d e7e4 573e d876 863f 3bef 063e
00000010: 84ee 8a3d 3d7b 813e b4ac 1c3e 0a00 3a3d
00000020: ca01 8a3e 6ca3 983d 0267 bc3e 76af f73d
00000030: f73c d23d 104e 3c3f 46a6 323e 334e 343e
0.117220886 0.21083413 1.0505018 0.13177197 0.067837745 0.25289336 0.15300256 0.045410194
0.2695449 0.07453045 0.3679734 0.120940134 0.10265534 0.73556614 0.17446241 0.17607956

conv2.weight f4 [32, 16, 3, 3]
00000000: 3125 e2bd f044 413c 8755 abbd b4ea 09bb
00000010: fdc3 0cbd 71cb ddb9 de98 1e3b 5c4d b1bc
00000020: 51d1 e03d 933a d0bd fe39 b03b 828c 8f3d
00000030: 390d 313d 5df9 abbd bb0f 90bd 6d29 bcbd
00000040: d29e 40bd 9a86 f3bd 0cdb 803d 3889 d6bd
00000050: 6d2c e5bd 91c3 953d ee82 55bd 5468 9fbd
00000060: a5d2 c93d 1220 cd3d c166 083e 8180 67bd
00000070: dfd4 c9bd 5700 87bd 9313 54bd 98bf 43bc
00000080: 7401 53bd 1e2f a03d f9cc a53d bdb1 5ebd
00000090: 03df a5bc 0a49 2c3c 4707 6bbb c681 4fbc
000000a0: 2ccc 863d a502 9abc f402 353d a36d 9d3c
000000b0: 23cb 0c3c b0de 673d 6141 edbd 6e07 06be
000000c0: 05d5 8bbb 0957 703b 73f5 c8bd 3bf6 5ebc
000000d0: 201b bebd 93ce 5cbd e46f b9bd ed6f 9ebd
000000e0: 0d8b 0ebe dae3 d03c 7550 c2bd 3769 b7bd
000000f0: 0f71 50bd f283 9fbd 2dee 84bd 5714 7abc
00000100: 7fc2 16bd e380 2c3c 94dd 90bd ebad babd
00000110: cb3f bbbd 1d95 893c d5a5 823d a1d8 023c
00000120: 474e 4e3d 3d14 a8bd c353 82bd 1239 8fbd
00000130: b236 e2bc c3ae 8c3c ad10 c7bd 4ab6 55bd
00000140: 0077 c2bd fec2 ecbd c7c4 ebbd 2dc2 a6bd
00000150: 8695 82bd 0980 bcbd 5a7c 3c3d b832 b73b
00000160: 0390 ca38 7052 82ba a952 83bc 3592 a3bc
00000170: 63bd 683b 4016 903d 364c bebc bc7b 333d
00000180: 1d6b abbd bb4a 87bd ab1e 89bd 5778 0ebd
00000190: 5438 aebc 8f4c 74bd 9a46 a53d 7712 9fbc
000001a0: e690 6f3c a99d 303d a043 233c d21a 01ba
000001b0: 3a01 873d 5d13 d4bd 95c4 83bd 2231 1a3e
000001c0: cdf1 f13d 13d6 c63d b2f8 2b3e 43a0 ea3d
000001d0: 6dbd 843d 675a 91bd fca1 f93c 53ed a2bc
000001e0: 36e2 043d 5e11 93bd 1498 94bd 727d 74bd
000001f0: 21d7 033d 93e5 ddbb e9a5 07bd 3a2c 7f3d
00000200: 8aa3 34bd ce51 033d ab32 99bd b41c 8fbc
00000210: f00d 783c ce88 f63c da4a 043c bec2 5cbd
00000220: 78af 6abd 875f 39bd 38de 97bd 614d ab3c
00000230: 6bb0 f2bc 562f 513d 50e2 103d 70f1 d33c
00000240: 51b4 113d b907 bcbc 35a2 60bb e4ac a8bc
00000250: 2b23 58bb 4466 8f3d 2925 76bd 1201 06bc
00000260: 0285 a1bd bf39 88bd cdef 5ebc 2336 883c
00000270: b328 57bd f2fe 3b3a d7b2 12bd 74b4 ccbc
00000280: 52ed b83c 24f9 553d 0363 983d 14f2 4a3d
00000290: 7da1 c63d 8c77 8e3d 2a04 34bd 4b7d 9b3c
000002a0: a4f8 243d 5b16 b53d 6bab d43d 87d1 80bc
000002b0: c086 ab3b f612 ce3d 6942 e0bc 1cd0 b43c
000002c0: bf40 e83c 1a67 193d e020 7bbd fe8a 843a
000002d0: 0bea 0fbd 7aff 08bd 2dcf 8e3d 1b70 c8bc
000002e0: fbf0 733b 9f45 35bb 0a78 2dbc c199 e6bb
000002f0: b7e3 9f3d 86c6 813d efcd dcbc 7e03 92bd
00000300: 8bf0 ed3b 602a 093d fa8d 583c d061 c03d
00000310: 4906 33bd 6980 30bd 2382 393d 137b 11bc
00000320: 01a9 92bd ade8 3339 bdb4 56bd 3af9 10bc
00000330: 18ff 313d cb28 843d b7b8 213e b62c 6e3d
00000340: f7d5 e4bc 24fa 43bd 8f8e f23d 3422 4cbd
00000350: 39e0 5bbd 4785 0e3e 6899 7dbd a957 07be
00000360: 2862 2b3c 7b4e 853d ffe3 8abc 2d74 b03d
00000370: 4c1b 0d3d c6fe 953b 9e0f 23bd 233f b63d
00000380: 1bb6 d43d 8c6f 0a3d 4b3a eabd 8640 e7bd
00000390: 465a 15bd 3fdc 9fbd c0d6 303d f58d 593b
000003a0: 33ca 293d 2ba4 b23d 3fe8 30bd 6ca6 db3d
000003b0: 3891 8a3d 3d32 dbbc 3f93 913d 0cab 303c
000003c0: 4eeb 383d 41e5 383d eea0 01bd 8b78 753c
000003d0: 8ff4 c93d 11dc 7d3d 3bbe 433c a8b7 173d
000003e0: 1c66 553d acf1 cc3d 1535 da3d af50 293d
000003f0: c250 883d e18e 863d 034a 013e 8348 a6bd
-0.1104225 0.011796221 -0.083659224 -0.0021044435 -0.034366596 -0.0004230398 0.0024200003 -0.021643333
0.10977424 -0.10167422 0.005378007 0.070092216 0.0432255 -0.08397172 -0.0703425 -0.09187589
-0.047026463 -0.118909076 0.0629178 -0.10475391 -0.11190114 0.07312692 -0.052126817 -0.07783571
0.098546304 0.100158826 0.13320448 -0.056519035 -0.09855055 -0.06591862 -0.05177648 -0.011947535
-0.051515058 0.07821487 0.08095736 -0.054368723 -0.020247942 0.010515461 -0.0035862492 -0.012665218
0.065819114 -0.01880009 0.04419227 0.019217318 0.008593353 0.056608856 -0.11584736 -0.13088772
-0.0042673373 0.003667297 -0.09812441 -0.013608511 -0.092825174 -0.053907942 -0.090545446 -0.07736192
-0.13920231 0.025499273 -0.09488002 -0.08955615 -0.05088907 -0.077888384 -0.06490741 -0.015263638
-0.03680658 0.010528776 -0.07073513 -0.091152035 -0.09143027 0.016794736 0.06379286 0.007986219
0.05036762 -0.08206985 -0.063636325 -0.06993307 -0.027613971 0.017173177 -0.097199775 -0.052175798
-0.09495354 -0.11560629 -0.11512142 -0.08142505 -0.063761756 -0.09204108 0.04601703 0.005590763
9.658935e-05 -0.0009942781 -0.016030626 -0.019967178 0.0035513274 0.07035494 -0.0232297 0.043819174
-0.083700396 -0.066060506 -0.066953026 -0.034782734 -0.021267094 -0.059643324 0.08070107 -0.019417984
0.014621949 0.043119106 0.0099648535 -0.0004924956 0.06592031 -0.10355256 -0.064339794 0.15057805
0.11813698 0.097088 0.16794088 0.11456349 0.064814426 -0.07097321 0.030472748 -0.019888556
0.032442294 -0.07181047 -0.07255569 -0.059689946 0.032187585 -0.006771752 -0.03311721 0.062298037
-0.044101276 0.032060437 -0.07480367 -0.017469741 0.015140042 0.03009453 0.008074487 -0.053896658
-0.057296246 -0.045257118 -0.07415432 0.02091092 -0.029625138 0.051070534 0.03537208 0.025871962
0.035572354 -0.022952901 -0.003427637 -0.020590253 -0.0032979946 0.070019275 -0.060094032 -0.008178966
-0.07886697 -0.06651639 -0.013606978 0.016627377 -0.05252905 0.00071714737 -0.035815086 -0.02498839
0.0225741 0.052239552 0.0744076 0.04954727 0.0969877 0.069563955 -0.043949284 0.018980643
0.040276185 0.088421546 0.10384258 -0.01572491 0.0052345693 0.1006221 -0.027375417 0.02207189
0.028351186 0.03745184 -0.06131065 0.0010112224 -0.03513531 -0.033446766 0.069731094 -0.024467519
0.0037222493 -0.0027659906 -0.010587702 -0.007037372 0.07807105 0.063366935 -0.026953666 -0.07129572
0.007261341 0.033487678 0.013217444 0.09393656 -0.043707166 -0.04309121 0.045290124 -0.008879441
-0.07161141 0.00017157449 -0.05241846 -0.008848483 0.043456167 0.06453093 0.1579312 0.05814811
-0.027934058 -0.047845975 0.11843597 -0.049837306 -0.053680632 0.13918029 -0.061913878 -0.13217033
0.010460414 0.065091096 -0.01695442 0.08615909 0.03444986 0.0045774905 -0.039809816 0.08898761
0.10386296 0.033797786 -0.114369 -0.11291604 -0.036463045 -0.078056805 0.04317355 0.0033196185
0.041452598 0.08722719 -0.043190237 0.10725102 0.067659795 -0.026757354 0.07108163 0.010782968
0.04514628 0.04514051 -0.031647615 0.014982353 0.09861099 0.06197745 0.01194721 0.037040383
0.052099332 0.10007033 0.10654656 0.04133671 0.06656028 0.06570221 0.1262589 -0.08119299

conv2.bias f4 [32]
00000000: 5c4a 23bd 01ed 833c 7cbc 3fbd 4108 313d
00000010: 1b47 31bd f8a6 4f3c 0910 f03c fb0a 963d
00000020: 09d8 5fbd 9e6a 553d bd5c d03c 58c1 a03d
00000030: 05d4 58bc ec55 04bc cda4 b3bc 62a6 aa3d
00000040: 0a73 22bd a1b4 09bd 1592 8c3d c8d1 013d
00000050: bb2b 4f3b 1c82 db3c 0ef3 77bb d8b4 153d
00000060: effb a33d aea2 09bd 2eb8 823d ba72 d5bb
00000070: 4fc3 ea3c 1c59 693d b503 d53c dea1 5cbc
-0.039865837 0.016104223 -0.046810612 0.043220762 -0.043280702 0.012674086 0.029304521 0.07326313
-0.054649387 0.05210363 0.025434846 0.078493774 -0.013234143 -0.008077126 -0.02192917 0.08332516
-0.03966049 -0.033619527 0.068638004 0.031694204 0.0031611759 0.02679544 -0.003783408 0.03654942
0.08007037 -0.03360241 0.06382786 -0.0065139206 0.028657584 0.056969747 0.026002744 -0.0134663265

bn2.weight f4 [32]
00000000: e927 843f 9017 613f c855 893f 5605 853f
00000010: e912 7b3f 73d0 7a3f 3ad6 683f d07f 7e3f
00000020: 3ee0 823f 344a 5d3f 0509 613f bded 623f
00000030: 44b7 653f e849 7f3f 1b0a 823f 0e2c 863f
00000040: 8006 703f e6d6 713f a68f 6c3f f4b6 7d3f
00000050: bcf3 6b3f d48d 873f ba55 803f bbb0 853f
00000060: be3d 833f b633 823f 3e90 583f 031d 803f
00000070: c8ee 863f 950d 7f3f 1b9d 8e3f 03d9 7a3f
1.032468 0.8792658 1.0729303 1.0392253 0.9807573 0.9797432 0.90951884 0.99413776
1.0224683 0.8644135 0.8790439 0.8864401 0.89732766 0.99722147 1.0159334 1.0482194
0.9375992 0.94468534 0.9240669 0.9910729 0.92168784 1.0590158 1.0026162 1.0444559
1.0253217 1.0172031 0.84595096 1.0008854 1.054162 0.996301 1.1141695 0.97987384

bn2.bias f4 [32]
00000000: f40a eebd a640 89bd 3422 84bd 9c4c 51bd
00000010: 67ff dd3b b84d 1abe 2970 eebd 264c 52be
00000020: f08b 3dbe 67d8 32be fd39 cfbd a29e cfbd
00000030: 057e c3bd f1e0 3abe 8dd4 23be fc97 1fbe
00000040: ba19 f6bd 0105 cdbd 6b4b 56bd c173 febd
00000050: e081 16bd a437 02be 1cbe 8fbc eed6 27bd
00000060: e602 ecbd 7f06 3f3d f335 26be 0164 12be
00000070: 9be7 c63c 1c5d 16be 77a4 1dbe 1262 00be
-0.11623183 -0.06701784 -0.06451836 -0.05109845 0.006774831 -0.1506871 -0.116424866 -0.20536861
-0.18510413 -0.17465363 -0.10118482 -0.10137679 -0.09545521 -0.18249871 -0.1599905 -0.15585321
-0.12016626 -0.1001072 -0.052318018 -0.12424422 -0.036744952 -0.12716538 -0.017546706 -0.040976457
-0.1152399 0.046637055 -0.16231517 -0.14295961 0.02428036 -0.14683956 -0.1539477 -0.12537411

bn2.running_mean f4 [32]
00000000: bf49 74bf 7ce3 1a3f 48a2 10bf 7803 edbc
00000010: ae97 e9bf 97a8 743f 3c94 fb3e 1b2c 92be
00000020: 252b 12bf fad7 7b3d 7c74 e6be 9a41 a93e
00000030: 6b12 5b3f c4eb a8be e34b dc3e 5ed6 19bf
00000040: ec11 8cbf 9e24 733f 6f61 d4bf 5224 acbe
00000050: bdf5 bebf 3b79 13bf 7946 5bbf 1317 07bf
00000060: fc19 96be f2e1 1ec0 ff5b 5b3f ae56 94be
00000070: 9298 febf f638 1d3f 3d39 dfbc a34f 3e3e
-0.9542503 0.60503364 -0.5649762 -0.028932318 -1.8249414 0.9556975 0.4913653 -0.28549275
-0.57097083 0.06148527 -0.45010746 0.33057863 0.8557498 -0.32992375 0.43026647 -0.60092723
-1.0942969 0.9497775 -1.6592234 -0.3362146 -1.4918743 -0.5760686 -0.8565441 -0.52769583
-0.293167 -2.4825406 0.8568725 -0.2897238 -1.9890311 0.6141504 -0.027248973 0.18585066

bn2.running_var f4 [32]
00000000: 64af f73f 1635 853f 2ca4 e23f 766f 9e3e
00000010: a2f3 a940 d067 e53f 4137 443f 6c76 b73f
00000020: e4e0 e03f 0296 933f fa9a 9f3f 8026 013f
00000030: f9fb b33f c4bd ab3f 5380 af3f 5f80 bd3f
00000040: f816 bc3f 573a 0c40 c687 9840 c82d 453f
00000050: 965f 3a40 eeb4 8a3f f4c1 2140 6778 b33f
00000060: fea3 993f 4b1e 1541 ddaf ce3f d308 193f
00000070: 6046 ca40 661f 953f 3eff 283f be77 303f
1.93504 1.0406826 1.7706351 0.30944413 5.3109903 1.7922306 0.7664681 1.4333014
1.7568631 1.1530154 1.246917 0.5044937 1.4061271 1.3417287 1.3711036 1.4804801
1.469451 2.1910608 4.766574 0.7702298 2.912084 1.0836465 2.527463 1.4021119
1.2003171 9.319896 1.6147419 0.5977909 6.3210907 1.1650207 0.6601447 0.6893271

conv3.weight f4 [64, 32, 3, 3]
00000000: de02 2fbd ab39 e63c b60a 083d 577d f8bc
00000010: e2f5 c7bc 22f9 063b 4328 bb3c 77a4 2b3d
00000020: a1c0 0a3d 215d fcbc d18f 4ebb 4665 efbc
00000030: 44b9 29bd 10a3 5abd a6b8 c73c 96e6 1ebd
00000040: e130 02bc 713d b5bb 1e57 2bb9 a960 1c3c
00000050: 18cd 263d d8fc 93bc e418 fd3b a6ec 853d
00000060: 9c87 f7bc b910 8b3d de1c 663d 07d5 16bd
00000070: 228b 6b3d f193 213d 6053 a63a 93e5 2bbd
00000080: f698 d73c b596 d2bc c96f 6cbd 821c bb3c
00000090: 71d0 e4bc 8dc0 8bbd 9d24 7abd 651f 2abd
000000a0: 77a6 b1bb 7679 52bc c837 9f3d fc7a ba3d
000000b0: e33a 373c 6dc1 ef3c bd65 6ebd ad0a 53bd
000000c0: 2e9c 723a 7c5b 91bc 3ed3 7ebd 9b9e dd3c
000000d0: 0eab fbbc 191e 0ebd 322f 0b3d 96e6 5d3d
000000e0: 337e 483d fb28 8bbd 958a 663c 2f9c 29b9
000000f0: c889 ecbb 654f 2f3d c5ea 1c3d 96ed b93d
00000100: da5c c43d c816 ec3d 06d7 4d3d 07b8 063d
00000110: e023 c43d 03de 0c3d 6630 5d3c 94ee 833d
00000120: 717a 21bc 9d77 723c 7d89 5e3d b073 473d
00000130: 7b65 3cbc 6816 153b 1d63 9bbc 5226 bb3d
00000140: f32b c13d 2935 12ba 1bb9 1d3d 6733 423c
00000150: c5fb 633d aca9 38bc 449a e13c 33c4 09bd
00000160: 89ed 843a b2a8 ec3c 25b9 2abd 69fe 78bd
00000170: c1b1 2abc c1a2 bc3c 9186 8fbd 6de3 04bd
00000180: 8739 2e3c 0182 823d 9fca 6a3c d4b0 ad3b
00000190: 1157 ee3c 78a2 0d3e 4b57 a5bd 6ac6 b4bc
000001a0: d0bb 0cbd 0fb7 22bd 20fc c1bc 3891 173d
000001b0: e315 b0bd be7a 3abd 91cf 8c3b b999 29bd
000001c0: 2d02 d03c 2a07 f63c f22d 94bd 243d 45bc
000001d0: 515c 0b3d 1268 373d 4967 eb3d ab16 963d
000001e0: d0bc 833c 8364 583d 88bf 25bc 25fc 08bd
000001f0: 686f 653c bb04 203d 6a50 603d 89a6 053d
00000200: 6d60 83bd a3c7 693d 99f2 87bc 6e9d 913c
00000210: 539d 883a be5a 13ba b1af 5ebd cc35 d63c
00000220: ab4d d8bc 91be c2bc f624 013d e73a 2e3c
00000230: 2ddb 00bd 2485 a73b 5f97 11bc 4c76 97bd
00000240: b368 d33b 0986 263d 6caf dbbc 1f32 a9ba
00000250: e454 11bc aef7 3dbd ac25 9fbc d853 a3bb
00000260: 005d 08bc 9dab 983d 7289 8c3d 4bae 0e3e
00000270: 8f9d 4a3d 98eb bf3c bc12 80bb a822 42bc
00000280: 7539 3dbd 50b6 e43c 2c34 f8bc 02b9 bcbd
00000290: 4ad1 87bd c05b 4fbd 24af 893c b204 923d
000002a0: 6a47 853c 424c 0b3d 355b 573d 3b3e a9bd
000002b0: ded2 93bc 0774 1fbe 3623 d73d 50d5 26bb
000002c0: ee00 79bd 24bd fd3c 3b38 113d 3692 09bd
000002d0: d0bb b7bd ba5a 08be 8e57 53bd bc3d 57bd
000002e0: a4c3 2dba 19dc 8abc 7fe2 ec3c 1627 303d
000002f0: c809 e03d 9b15 af3c 4250 203e 8bfe eb3d
00000300: a915 933d 2931 cb3d 2bb5 ed3b 3e38 9d3c
00000310: 4d51 ac3b 618c da3c 5ed1 953d 0213 eb3d
00000320: 57c3 a23d b1ea 953c b93a 7f3d 9b2a 253e
00000330: 3c85 67bc 5d61 e73d 5a9f 1ebd ebf9 933d
00000340: a472 d63d be14 653d fa84 bb3d 5b10 ea3d
00000350: e3e2 d93b 5835 9f3c f54f 7e3d 378c 1cbd
00000360: dd61 f33a 58d9 693d 657c 10bd e5e0 91bd
00000370: 5e27 a6bc b74f 13bd e667 4cbd 3d6f 11bc
00000380: 68ec 363c d036 02bd b892 38bd dd02 90bd
00000390: 40d5 fe3c 2f85 8e3b 2b3a 083d e16a bc3d
000003a0: 18c1 9b3d 8725 be3d fa5e 9b3d 7a48 00bc
000003b0: a114 b6bb fb9d 35bd ad24 2fbd 3906 383d
000003c0: 16eb 123d f3bc 813d 6062 03bd 29ac 173d
000003d0: bca6 a33d 0b0f 9e3d 5a3a a9bd 5f2f 97bc
000003e0: 0ea2 8a3a 4d52 c0bd 302d 33bd b20c 823d
000003f0: d622 d4bc fc7d c8bd 2634 e0bd 95b4 74bd
-0.042727344 0.02810367 0.03321334 -0.030333204 -0.024409238 0.0020595272 0.022846347 0.041904893
0.03387511 -0.030806126 -0.0031518827 -0.029223096 -0.04143645 -0.053378165 0.02438004 -0.038794123
-0.007946224 -0.005531006 -0.00016340284 0.00954453 0.040722936 -0.018064901 0.0077239145 0.06539278
-0.03021603 0.06790299 0.056179874 -0.036824252 0.057505734 0.03944773 0.0012689643 -0.041966986
0.026318055 -0.025706628 -0.057723794 0.022840742 -0.027931424 -0.068238355 -0.061070073 -0.041533846
-0.0054214555 -0.012846341 0.07774311 0.09105489 0.011183473 0.029267037 -0.058202494 -0.051523853
0.000925484 -0.017743818 -0.062213175 0.027053168 -0.030721214 -0.034696672 0.033980556 0.054174982
0.048948478 -0.06794926 0.0140711265 -0.00016175279 -0.0072185732 0.042800326 0.03830983 0.09078519
0.095880225 0.11527783 0.05025389 0.032890346 0.09577155 0.034391414 0.013500309 0.064419895
-0.009855852 0.014799026 0.054330338 0.048694313 -0.011498804 0.002274895 -0.01896816 0.091381684
0.09432211 -0.00055773795 0.03850661 0.011853076 0.055660028 -0.011270922 0.02753938 -0.033634376
0.0010141592 0.028889034 -0.041680474 -0.0607895 -0.010418356 0.023026826 -0.070080884 -0.032443453
0.010633833 0.063724525 0.014330535 0.0053006206 0.02909425 0.13831508 -0.080732904 -0.022067267
-0.0343588 -0.03972536 -0.023679793 0.037003726 -0.085979246 -0.045527212 0.004297205 -0.041406367
0.025391662 0.030032713 -0.07235326 -0.012038503 0.034023587 0.044776984 0.114943095 0.07328542
0.016081244 0.05283023 -0.010116465 -0.03344359 0.014003612 0.03906701 0.05476419 0.032629523
-0.06414876 0.057075154 -0.016595172 0.017775264 0.0010422863 -0.00056211266 -0.05436677 0.0261487
-0.026404222 -0.02377251 0.03152939 0.010634161 -0.031459022 0.005112307 -0.008886187 -0.0739561
0.00645169 0.04065517 -0.026817046 -0.0012908614 -0.008870337 -0.046378784 -0.019427143 -0.00498436
-0.008322954 0.07454608 0.06862153 0.13933675 0.049466666 0.02342777 -0.0039084833 -0.011849083
-0.046197373 0.027918965 -0.030298315 -0.09214975 -0.066317156 -0.05062461 0.016807146 0.07129802
0.016269404 0.034008272 0.052577216 -0.08263823 -0.018044885 -0.15571605 0.10504763 -0.0025456734
-0.060791902 0.030973978 0.035454016 -0.033586703 -0.08971369 -0.1331586 -0.05159717 -0.05254911
-0.0006628579 -0.016950654 0.028916596 0.043006025 0.109393656 0.021372607 0.15655616 0.115231596
0.07181866 0.09921486 0.007254263 0.019191857 0.0052587152 0.026678266 0.07315324 0.11478235
0.07947414 0.018300386 0.06231186 0.16129534 -0.014130887 0.112978674 -0.03872619 0.072254024
0.10471085 0.055927984 0.09156223 0.11428901 0.0066493615 0.019434616 0.06208797 -0.038219657
0.0018568594 0.05709204 -0.035274882 -0.07122973 -0.020282444 -0.035964694 -0.049903773 -0.008876619
0.011164762 -0.031790555 -0.045061797 -0.07031796 0.031107545 0.004349373 0.0332586 0.09200073
0.07605189 0.092845015 0.07586475 -0.00782978 -0.0055566584 -0.044340115 -0.042759586 0.04492781
0.035868727 0.06334867 -0.03207624 0.03702942 0.079907864 0.07717713 -0.08263083 -0.018455205
0.001057686 -0.09390698 -0.043744266 0.06350078 -0.025895517 -0.097896546 -0.109474465 -0.05974253

conv3.bias f4 [64]
00000000: e2a9 e3b9 c49a 563d aa6e c1bc 7555 5abd
00000010: 2269 43bb 9a50 67bd a0fb 2bbc 3de0 41bd
00000020: cfbd 0dbd 64f8 56bc a416 7bbc 58e2 9cbc
00000030: 9217 16bd 74d8 603c 984b 50bd 61fa a0bc
00000040: 5ffe 1cbd 1716 313d 42a3 4a3d 7084 0ebd
00000050: 7b0b 0b3d d8b9 f63b 80db eebc b7bf f7bc
00000060: 3133 33bb 7a88 18bd c9f0 483d 660b 063c
00000070: c607 b43c 9814 df3c 451b 47bb 5d5a 49bd
00000080: 1ab0 b1bc 20f2 48bd ba43 2b3d ee92 fd3c
00000090: a109 2dbd 17e8 44bd 3de8 ab3c f62c df3c
000000a0: 1dee f4bb dbbb 2e3d 737c 023d 9ab0 363d
000000b0: f27f e0ba 6ac6 f2bc 158c 8abc 7967 dfbc
000000c0: 7183 d4bc f3bd 213d c10b 013d bd86 cbbc
000000d0: eaa4 4cbd c113 5c3d 216e 51bd cce1 0cbd
000000e0: 59d8 663d b62d bfbc a603 6dbd 85dc 17bb
000000f0: 085c 20bc c355 05bc aea0 4f3d 117b 68bd
-0.00043423387 0.05239369 -0.023612339 -0.053304154 -0.0029817303 -0.056473352 -0.010497004 -0.04733299
-0.034604844 -0.013120744 -0.015325222 -0.019150898 -0.036643572 0.013723481 -0.05085334 -0.01965064
-0.038328525 0.043233957 0.0494721 -0.03479427 0.033946496 0.0075294785 -0.0291574 -0.030242784
-0.0027343745 -0.03723953 0.049057756 0.008181429 0.021976363 0.0272315 -0.0030381244 -0.049158443
-0.021690417 -0.049059033 0.041812636 0.03095385 -0.04224551 -0.0480729 0.020984763 0.027243119
-0.0074746744 0.04265962 0.031856965 0.044602014 -0.0017127974 -0.029635627 -0.0169125 -0.02727102
-0.025941582 0.03948779 0.03150535 -0.024844522 -0.04996196 0.053729776 -0.051130418 -0.034395024
0.05635867 -0.023337226 -0.057864808 -0.0023172211 -0.009787567 -0.008138123 0.050690345 -0.05675799

bn3.weight f4 [64]
00000000: 3471 7d3f 526c 633f 130b 863f db64 783f
00000010: 1067 863f e4ab 843f 8c1c 883f 60d7 5e3f
00000020: cae9 843f 4c10 863f e57c 623f 846a 813f
00000030: f231 603f 3396 713f 98b1 8b3f 8774 6e3f
00000040: 3183 6d3f e9ae 873f 7dad 833f 4904 643f
00000050: 0b54 833f cdb9 553f 3347 5a3f aeba 623f
00000060: d2e9 663f e971 823f ea99 833f fce9 8d3f
00000070: 9515 5f3f 79c5 703f a4ba 803f c35e 833f
00000080: aad6 803f 18c0 593f dd98 7b3f 6bef 473f
00000090: 8991 853f f585 7e3f f2b8 843f cc2a 4c3f
000000a0: 7c61 623f d630 5f3f 7ddf 913f da03 873f
000000b0: 7262 733f 22b5 8a3f f4d6 723f 8598 5b3f
000000c0: 4073 563f d9b0 7d3f ed7d 683f b8b8 8f3f
000000d0: f6c5 873f 77d4 8d3f 6342 843f bd73 863f
000000e0: 033f 823f e26e 763f 2359 843f a90b 5b3f
000000f0: 0594 833f c244 433f d7f5 573f 661f 603f
0.9900086 0.8883716 1.047213 0.97028893 1.0500202 1.0364957 1.0633712 0.87047386
1.0383847 1.0473723 0.88471824 1.0110631 0.8757621 0.9436981 1.0913572 0.93146557
0.9277831 1.0600253 1.028732 0.8906904 1.0260023 0.83486634 0.8526489 0.885661
0.9020053 1.0191013 1.0281346 1.1087031 0.87142307 0.9405132 1.0056958 1.0263294
1.006551 0.85058737 0.98280126 0.780997 1.0435039 0.9942315 1.0368941 0.797528
0.8843 0.8718389 1.1396328 1.054805 0.9507209 1.0836527 0.9485924 0.857796
0.8376961 0.99097973 0.9081715 1.1228247 1.0607288 1.1080464 1.033276 1.050407
1.017548 0.96262944 1.0339702 0.85564667 1.0279547 0.7627679 0.84359497 0.8754791

bn3.bias f4 [64]
00000000: 2025 3fbe fc71 1bbe 4439 e1bd 4396 f3bc
00000010: 9752 06be 9f44 a9bd 9b5f d4bd bbe9 f7bd
00000020: 0c7b f9bd 1b7c 09be d044 1ebe 5aa3 e5bd
00000030: cd60 d0bd b685 05bd 6057 c0bd f597 17be
00000040: 2311 55bd b799 f2bd 024c afbd 7a41 83bd
00000050: 7093 0abe d697 0ebe a365 d8bd 6bbd a3bd
00000060: adc1 58bd c805 e7bd 83ff dbbd b3f1 fdbd
00000070: 1ab0 2fbe 6a69 78bc c090 c4bd c855 10be
00000080: 708b 16be c87c f7bd eafd e3bd 5b02 44be
00000090: 396b c0bd acc0 e5bd eaf1 c9bd adff 2dbe
000000a0: 0578 d7bd 37f2 b4bd 83c3 edbd 51ba c1bd
000000b0: af15 40be 65c6 09be b474 04be 9ae8 d6bd
000000c0: 3fd1 2ebe a547 c4bd 90d4 a2bd b075 edbd
000000d0: e5e6 ebbd d3c9 d1bd d61d 07be f7de fcbd
000000e0: d77d 35be 8cfd 60bd d3f5 dbbd 1992 f7bd
000000f0: 745b f1bd 29d5 6dbe d8fc 04be a0c3 b1bd
-0.18666506 -0.151802 -0.10997251 -0.029734736 -0.13117443 -0.082650416 -0.10369798 -0.121051274
-0.121816725 -0.13426249 -0.15455937 -0.112127975 -0.10174713 -0.03259822 -0.093916655 -0.14804061
-0.052018296 -0.11845725 -0.08559419 -0.06408973 -0.13532805 -0.13925108 -0.10566261 -0.07995113
-0.05291908 -0.112803996 -0.10742094 -0.12399616 -0.17157021 -0.015161851 -0.09597921 -0.14095223
-0.14701629 -0.12084347 -0.11132415 -0.19141524 -0.09395451 -0.1121839 -0.098605946 -0.16992064
-0.10520939 -0.08835261 -0.116095565 -0.09459365 -0.18758272 -0.13454588 -0.12935144 -0.10493584
-0.17072009 -0.095839776 -0.07950699 -0.11594713 -0.11518649 -0.10243573 -0.13194975 -0.12347215
-0.17723785 -0.0549293 -0.107402466 -0.12088413 -0.117850214 -0.23225845 -0.12987077 -0.08679891

bn3.running_mean f4 [64]
00000000: c020 6b3f 85b0 9a3f def8 b93f 4228 56c0
00000010: cf4c a73f 92eb c43f e315 a63f c42a b8bf
00000020: 5cb5 ad3f ffd6 9b3f 7ad1 9d3f ab67 a93f
00000030: 219e abbf 8ac5 01c0 0cc6 af3f 9886 d13e
00000040: a789 64bf a3e8 aa3f ea53 a93f 7e59 dbbf
00000050: 386e c33f 99bb dabf 52a8 ccbf 1613 fcbf
00000060: c7fd 88bf 55c1 9f3f ca40 b33f a79f a53f
00000070: c789 363f 82fb 27c0 be41 bd3f 708f 803f
00000080: 013b 833f 7335 ccbf ae42 8a3f 3625 b5bf
00000090: b2e4 b33f fe30 b03f fe8a a83f f021 8ebf
000000a0: a9f9 96bf 4ca9 c9bf e80d af3f 5c8a ad3f
000000b0: 61ba 8e3f b834 b03f 6a5a 893f 8738 eebf
000000c0: 0749 bfbf 6df8 a43f 8446 99bf 4c08 983f
000000d0: 70bb b73f 7f96 bf3f 210e 9a3f c814 a33f
000000e0: 84ef 7b3f 35d2 3ec0 ad85 b13f bb77 b6bf
000000f0: e5c5 853f 3767 94bf 31a7 bdbf 3766 e7bf
0.9184685 1.208512 1.4529073 -3.3462071 1.3070315 1.538439 1.2975429 -1.4388051
1.3570971 1.2174987 1.2329552 1.3234762 -1.3407632 -2.0276818 1.3732314 0.40923
-0.8927254 1.3352245 1.3228734 -1.7136686 1.5268011 -1.70885 -1.5988867 -1.9693325
-1.0702447 1.2480875 1.4004147 1.2939347 0.7130398 -2.6247258 1.4785688 1.0043774
1.0252382 -1.5953811 1.0801599 -1.4151981 1.4054167 1.3764951 1.3167417 -1.1104107
-1.179494 -1.575479 1.3676119 1.3557849 1.1150628 1.3766088 1.0730717 -1.8611001
-1.4944161 1.2888314 -1.1974645 1.1877532 1.4354076 1.4967803 1.2035562 1.2740717
0.98412347 -2.98158 1.386892 -1.4255289 1.0451018 -1.1593999 -1.4816648 -1.8078068

bn3.running_var f4 [64]
00000000: cbca 0140 758b 3d40 5771 4c40 3894 be3f
00000010: 6c69 2d40 baf3 5440 05e3 1f40 c22a 2440
00000020: 3822 3540 72e0 1c40 2631 ea3f ba9c 0440
00000030: a54e cd40 a981 0340 3e37 2d40 5377 0140
00000040: 305a 1140 0edc 0740 3c62 2940 e1e5 6440
00000050: 4259 3140 8def 8240 dbe7 9840 357f 3940
00000060: a6c3 1440 2c60 2740 86d8 1140 c8b2 1540
00000070: efbe b13f 455d 4e40 5cb1 1740 3523 0640
00000080: f2ec 2440 7fdc df3f 0387 0040 229f 5740
00000090: 97a3 2a40 8895 3b40 474c 3740 6062 2940
000000a0: 2b14 4840 64b9 a540 23cf f03f e2a6 2b40
000000b0: 36ce 2240 a7fe 1440 df95 0440 3ea9 9b40
000000c0: 0d21 1640 48a2 ec3f 726c 1740 c2f3 fa3f
000000d0: 8777 2740 5741 0c40 6c8e 1840 5209 1d40
000000e0: 1314 1340 1901 d43f a1f7 1a40 4cf5 2140
000000f0: a35b 0d40 8648 2d40 a7ad 3440 c1fb 9a40
2.0280025 2.9616368 3.1944177 1.4888983 2.7095594 3.327376 2.4982312 2.5651097
2.8302135 2.451199 1.8296249 2.0720658 6.41585 2.0547888 2.7064967 2.022908
2.2711296 2.122806 2.6466208 3.5765307 2.7710729 4.091742 4.7783027 2.898389
2.3244414 2.6152449 2.2788405 2.339037 1.3886393 3.2244427 2.3702002 2.0958989
2.576962 1.7489165 2.0082405 3.3690877 2.6662347 2.9310017 2.8640306 2.6466293
3.126231 5.1788807 1.8813213 2.6820607 2.543836 2.3280427 2.0716474 4.8644094
2.3457673 1.8487024 2.365994 1.9605639 2.6166704 2.191488 2.3836927 2.4536939
2.2981002 1.6562835 2.421364 2.5305967 2.208718 2.7075515 2.823099 4.8432317

fc1.weight f4 [128, 1024]
00000000: 028e 863d b3a5 9a3c 8441 ae3c 1213 673d
00000010: 6d23 36bd d7ec 3fbd 06ce a53c 2940 95bc
00000020: 74d1 d8bd 7ef6 efbd fafe 5bbd 1d10 e9bd
00000030: c394 00bd f090 c5bc 4968 653d 5e5d 11bd
00000040: 7d84 53bd 94c9 31bd 273e 9dbc 230c a83c
00000050: 6205 73bd 2c67 aebd 3878 9939 a5a0 a23c
00000060: 1aea 83bd bdaa e6bd e699 a3bb 77a9 55bd
00000070: a95c 523d 87ac 12bd 378f 81bc c4a2 243d
00000080: fde7 343b 85dd c2bd 8494 2abd 5836 cabc
00000090: e689 49bd 335e b9bd 85bc cb3b 5314 8fbd
000000a0: ef4a 81bb fe2c a7bd 5848 95bd 4e76 6ebd
000000b0: 00bc d8bc 1f37 a5bd 551c bfbd 61fe 50bc
000000c0: b570 643d b4d1 b93c 5489 dd3c 1675 113d
000000d0: 241c 083d d7cb 973b 57cb 8d3d f49d 1c3d
000000e0: 1557 483d eb60 09bb bdd2 103d df48 9a3d
000000f0: 23c4 da3c c6ff aa3c 055d 283d 859c a4bb
00000100: 053b 683a f8b1 eabd 5824 5dbd db7b ae3c
00000110: bb13 12bd 6069 38bd 4dd2 17bd 85c6 bbbd
00000120: 6060 90bc a702 ddbd 5820 a3bd e5a6 a3bc
00000130: 8484 5cbb 33a6 42bd f49a 75bd d331 b4bc
00000140: 218f 0ebb 90e3 b7bd 5761 77bd 28aa 8c3c
00000150: 63ab 57bd ec50 c1bd 9805 52bd 8af7 debc
00000160: c504 dfbc b594 efbd 6f74 8abc 62d4 09bd
00000170: 8a5d 36bb 422c 3dbd 9c88 18bd 5f69 f63c
00000180: b4c9 bd3c 4290 febd 352b 34bd c113 f1bc
00000190: 6d88 46bd 9321 a0bd 19ce 55bb 372f f4bc
000001a0: ad25 a2bc f382 9cbd 232a a3bd 68c2 6fbc
000001b0: 2c0d 9a3c 52f7 aabd e19e 92bc 9091 5e3c
000001c0: 5df4 073c 5878 d83c c2c2 a93c 402c 493d
000001d0: 9a83 1e3d db90 07bc 49fe adba fa92 b1bc
000001e0: cfb6 333d 99a1 253d 5adf 3abc 24db 6f3c
000001f0: acdc 9c3d 75fb 833d 5b7b f23b a3e5 113d
00000200: 2e69 50bc d6c2 aabd 3ebf 55bd 58fd d2bc
00000210: ed5c c1bd 57ad fbbd 3874 4d3d e301 6dbd
00000220: ceb1 77bd 44d1 b9bd 9e44 00be 03a1 25bd
00000230: 4edc c7bc 1942 94bd 6eca 72bd 01a9 56bc
00000240: 94c6 ebbc 8119 abbd e01a 86bc 0d7a 393b
00000250: b7a3 30bd 5a19 c7bd a1bf 89bd 40ac ad3b
00000260: ec3e fabc b1be ecbd 1fae 93bc fcfe 1fbd
00000270: 1380 a93c 1d0f 59bd 61b6 1bbd bde5 7c3c
00000280: d618 cdbb f9a9 8bbd bd0a c9bc 9b74 233c
00000290: d894 8dbb 18f4 c2bd 22ae 2dbd 6dcf 2ebc
000002a0: f66b 9cbc aabb 58bd 0dea 94bd 71c2 40bd
000002b0: 8ee1 67bb 8f4e e2bc 4705 34bb 2309 2f3c
000002c0: 0639 32bd ce60 bcbd f357 31bc e8b1 923c
000002d0: eaa7 11bd 1e1a b2bd 4ddf 0e3c 1766 2fbc
000002e0: b57d dfbc fb0b f0bd 65f9 2abd b462 2abd
000002f0: 0fc6 243c 7cc3 5ebd 601b 043c b29c 1a3b
00000300: 4a43 fd3c 8237 733c e0f2 373d dcde 813d
00000310: e50b 363d b14a 083c 21f8 183d a60d 1a3d
00000320: 0bb8 dd3a abc7 103d c894 153d 5a3b a83c
00000330: 095f 933d 0f7f 913c 8d3c d33c e324 8d3d
00000340: e7ac bdbc bf17 423c edf9 80bc 4f88 903c
00000350: 2031 a93c 7b2b 06bd f082 873d 1f60 87bc
00000360: b2c5 223d 1dca 60bd c2aa 643d 3823 773d
00000370: 4351 9cbd fdda 723c 1f3d 6ebb d3c6 343b
00000380: 68b6 f03b d2e2 dbbd 0f4d 85bd 2bdb f63c
00000390: d24b 3fbb b8ae 96bd a676 f1bc bf16 bcbd
000003a0: 2a08 91bd 0714 e1bd 8194 e9bd 1182 8ebc
000003b0: fbdd 193d 797a b6bd 35b3 d6bd 6549 e6bb
000003c0: b6c9 20bb 5b1b 40bb 280b e3bc ce81 4e3c
000003d0: 4d8a c3bd 0be8 73bd bf32 013d f550 fabc
000003e0: 2f12 acbd 9de8 d2bd d585 79bd 33cb bdbd
000003f0: d0fe dfbc ac50 84bc c33f 32bb c5f1 913c
0.065700546 0.01887784 0.021271475 0.05641467 -0.04446738 -0.046856727 0.020239841 -0.01821907
-0.10586825 -0.117169365 -0.05370996 -0.113800265 -0.03139187 -0.024116963 0.056007657 -0.035489433
-0.051640023 -0.04340513 -0.019194676 0.0205136 -0.059331305 -0.08515772 0.00029272004 0.019851992
-0.06441136 -0.112630345 -0.0049927114 -0.052163567 0.0513579 -0.035809066 -0.01581536 0.040194288
0.0027604096 -0.09514908 -0.04164554 -0.024684116 -0.049203776 -0.0905117 0.0062175416 -0.069862984
-0.0039457004 -0.081628785 -0.07289189 -0.058218293 -0.026456833 -0.08067154 -0.09331576 -0.012755961
0.05577155 0.022683002 0.027043022 0.035512052 0.033229962 0.004632454 0.069235496 0.038236573
0.048911173 -0.0020962309 0.035357226 0.0753343 0.026704853 0.020873915 0.041104335 -0.0050235414
0.0008858892 -0.11459726 -0.05398974 0.021299293 -0.035663348 -0.04502237 -0.037065793 -0.09168724
-0.01762408 -0.107915215 -0.079651535 -0.019977042 -0.0033648321 -0.04752178 -0.059962228 -0.021996414
-0.0021752792 -0.08978951 -0.060395565 0.01717098 -0.05265368 -0.09439263 -0.051274866 -0.027217645
-0.027223954 -0.116982855 -0.016901223 -0.03364981 -0.002782675 -0.046184786 -0.037239656 0.030079542
0.023167469 -0.12429859 -0.043986518 -0.029428365 -0.04846995 -0.07818904 -0.0032624064 -0.02980767
-0.019793356 -0.07642164 -0.07967021 -0.014633752 0.018805109 -0.08347954 -0.017898025 0.0135845095
0.008298007 0.026424572 0.02072275 0.049114466 0.038699724 -0.008274282 -0.0013274635 -0.02167653
0.04387551 0.040437315 -0.01140579 0.01463965 0.07659277 0.06444446 0.007399959 0.03561939
-0.012720389 -0.08337943 -0.052184336 -0.02575557 -0.09441552 -0.12288921 0.050159663 -0.057863127
-0.060472302 -0.090731174 -0.12526175 -0.040436756 -0.024397042 -0.072391696 -0.059275083 -0.013101817
-0.028781213 -0.08354474 -0.016370237 0.0028301508 -0.04312488 -0.09721632 -0.067260034 0.005300075
-0.030547582 -0.11559809 -0.018027363 -0.03906153 0.020690953 -0.05299293 -0.038015727 0.015435633
-0.006259064 -0.06819529 -0.024541253 0.009976531 -0.004320722 -0.095192134 -0.042402394 -0.010669571
-0.019094449 -0.052913345 -0.07271204 -0.047060434 -0.0035382244 -0.02762535 -0.0027468966 0.010683331
-0.043511413 -0.091981515 -0.010824191 0.017907098 -0.035560526 -0.08696388 0.008720231 -0.010705492
-0.027281621 -0.11721035 -0.041741747 -0.041598037 0.0100569865 -0.054385647 0.008063167 0.0023591933
0.030915875 0.014844777 0.044909358 0.06341335 0.044444937 0.008318589 0.03734601 0.037610672
0.0016915811 0.03534667 0.036518842 0.020536114 0.07195861 0.017760782 0.025785709 0.06891801
-0.023153735 0.011846482 -0.015744174 0.017643122 0.020653307 -0.03275631 0.06616771 -0.016525326
0.03973932 -0.05488025 0.05582691 0.06033632 -0.07632687 0.014822719 -0.003635235 0.0027584329
0.0073459633 -0.10736622 -0.065088384 0.030133804 -0.002918948 -0.07357544 -0.029475521 -0.09184026
-0.07081635 -0.10990148 -0.11405278 -0.017396005 0.037565213 -0.089100786 -0.104834 -0.0070277923
-0.0024534292 -0.002931318 -0.02771528 0.01260419 -0.09547863 -0.059547465 0.031542536 -0.030556181
-0.08401906 -0.10298274 -0.060918648 -0.09267273 -0.027343184 -0.016151749 -0.002719865 0.01781548

fc1.bias f4 [128]
00000000: a77a 253d 3f47 2c3c ac7d 3abd 3fc4 d33b
00000010: ebfb 93ba 7ebc 00bd db7a 86bd e517 c33d
00000020: 9ca8 a43c 8bab 53bd 809a 7f3d 7a7f 9cbc
00000030: 37bc 633c 6a92 633c 84d2 bf3c 362a e43c
00000040: fd2d 913d 0dcc 03bc 8380 6abd 5b3e e339
00000050: b6cb b3bc c722 403c c4fb a23d 13b1 613c
00000060: f9c9 43bc 57c2 edbc d5e9 87bd c5be f33c
00000070: 5172 49bd 3ca0 9a3c ff55 8d3d 99c9 54bd
00000080: 852d 0c3d d9f0 bbbc 27df 5cbb 401c 483d
00000090: e4ab 8dbd 5c9f 31bd 3a37 3bbd 02d2 dabb
000000a0: bbaa 57bd 1536 01bc ccc7 3ebb fb68 453c
000000b0: 6fd7 d3bc 993f 603d b59c 44bb df84 893d
000000c0: 66e5 debc ffe6 523d e273 653c fd22 c53c
000000d0: e8dc 80bc e7ac 04bd f956 143c 01b0 e53a
000000e0: 9f49 38bc c143 8f3c a2cf afbb 33e9 44bd
000000f0: 74b9 343d d4b0 c0bc 673e 0bbd fad1 74bc
00000100: bdbd 19bc 6517 31bd a15f 5ebd e03b c63c
00000110: 413a be3c cf4a 183d 750e 0fbd 6ed8 7a3c
00000120: fded 8c3c 7b38 f3bc cd11 1d3d 7aec bcbb
00000130: 00ab edbc d206 3dbd 23b7 79bd 106b fabc
00000140: 525a 813c 6d0e 98bc e55a 54bd 99fc 61bb
00000150: 737a 523d e9ec ecbc 0b34 473a d0f3 563c
00000160: 5843 ebbc 2562 50bd 92d3 993d a7dc f5bc
00000170: a842 163d a846 bdbc 6330 04bd 2522 19bc
00000180: e933 c03c e568 b83c 3923 beba fccb 9fbc
00000190: bab0 48bc 6bea 06bc 90f6 e7bc de5e c5bc
000001a0: 2294 acbc 8221 26bd 60c3 52bc 7f6e 84bd
000001b0: 7dbe 2e3b 274a d4bb 8021 723d 60d9 afbc
000001c0: 1492 0bbd 70c3 1a3c 2e12 00bd 4615 053d
000001d0: 7aaa 28bd 1d10 033c 39f7 b2bc ba8f 283d
000001e0: 8a7e 323d 6459 263c 1d80 1fbd c2e6 0fbd
000001f0: e4f7 4f3c 415d 84bc 8bbc 49bd d0fe 2dbd
0.040400174 0.010515033 -0.045530006 0.0064626033 -0.0011290287 -0.03142976 -0.065664016 0.09526042
0.02009993 -0.051677268 0.062403202 -0.019103754 0.013899854 0.013889888 0.023415811 0.027852159
0.0708885 -0.008044255 -0.057251465 0.00043343272 -0.021947723 0.011727042 0.07958177 0.013775128
-0.0119500095 -0.029023333 -0.06636397 0.029754052 -0.049181286 0.018875234 0.06901168 -0.05195007
0.0342231 -0.022941994 -0.0033702345 0.048855066 -0.06917551 -0.043364868 -0.045706965 -0.006677867
-0.052653056 -0.007886429 -0.0029110787 0.012048955 -0.025859563 0.05474815 -0.0030000631 0.06714796
-0.027208995 0.051489826 0.014004679 0.024064535 -0.015730336 -0.032391455 0.009053939 0.0017523767
-0.011248021 0.017488362 -0.005365328 -0.04807396 0.044122174 -0.023521818 -0.03399506 -0.01494264
-0.009383616 -0.0432352 -0.054290418 0.024198472 0.023221137 0.037180718 -0.034925897 0.01531039
0.017203325 -0.029690018 0.038347054 -0.005765495 -0.029012203 -0.046149082 -0.06096567 -0.03056863
0.015790138 -0.018561566 -0.051844496 -0.0034482835 0.051386308 -0.028921561 0.00075990026 0.013119653
-0.028718635 -0.050874848 0.07511057 -0.030012442 0.036684662 -0.02310498 -0.032272708 -0.00934652
0.023462253 0.022510955 -0.0014506347 -0.019506447 -0.012249166 -0.008234601 -0.028315812 -0.024093088
-0.021066729 -0.0405593 -0.012863964 -0.06466388 0.0026663833 -0.006478566 0.05911398 -0.021465957
-0.034074858 0.00944601 -0.031267338 0.03249099 -0.041178204 0.007999447 -0.0218464 0.041152693
0.04357771 0.010153148 -0.038940538 -0.035132177 0.012693379 -0.016157748 -0.049252074 -0.042479336

fc2.weight f4 [2, 128]
00000000: aca3 de3c c046 a53d 29c1 5bbd 01cb 20bd
00000010: 9c90 4abd a56d febc 473b bbbc aab9 a43d
00000020: 597e cabd b275 22bd c885 943c d681 a33c
00000030: f6bf 20bd 795f 983c 4f5d c13d bde9 e3bc
00000040: 93ac 833d b938 eabc 3387 5a3d fe39 b0bc
00000050: 57cc ccbd 3e3e 273d 185d 823d 5071 dcbc
00000060: 3d54 b7bc 84fd 55bd 448e 3dbd efe7 bd3d
00000070: fa5f 50bd 9f47 323d 0641 603c 51c7 5ebd
00000080: d33f 933c 9c39 913d 37cc be3c ffb4 143d
00000090: 8f74 dbbd 8bd2 bf3c a2a8 cdbb d921 89bd
000000a0: 63e1 ec3c f26b 91bd 6d99 6e3d 13ba 69bb
000000b0: 89a6 6b3d 0c35 ad3d 2dbb 843a 786a 923d
000000c0: 1506 99bd ab06 403d b43a 8bbc f1f7 6b3c
000000d0: 683f 3c3c ba05 33bd 0e61 a1bd b77d 8c3d
000000e0: 186a 89bd a429 3bbd e8c6 debc e62d 333d
000000f0: d373 ac3d 5953 983c 132e 87bd ef2c febc
00000100: 1715 e0bc 4714 14bd 6ce5 33bd d207 3abd
00000110: 6217 543d 1920 fa3b 5985 8d3d 6fc0 72bd
00000120: 264d a33d 28f7 8ebc fac9 153d 6fbf bfbd
00000130: b871 89bd 0469 54bc dddd 29bd ff8a 21bd
00000140: c835 a93d 0a49 6bbd 549d 233d 8806 9a3d
00000150: 1625 2f3d 60f2 32bb 7488 403c 4405 7b3d
00000160: 8587 9fbd 808b 07bd bb70 75bc 30a1 203d
00000170: e767 d03d 6d44 d2b9 295c a7bc 873f 9fbd
00000180: 5511 d6bb 183d 573d df22 0b3d b43f f93b
00000190: b98a 53bd 797c 7abc 30fa 06bd cb2a e8bc
000001a0: 62f1 313d f092 283c 73ba 3cbc f6f0 f3bc
000001b0: 1b55 013d c00b 26bd 1d9b 043b 316b a1bd
000001c0: 34f4 33bd f145 dd3c f19a 93bd 70aa 943b
000001d0: fb81 48bd 4245 5d3d 8195 8bbd 4cee a4bc
000001e0: 0568 483d fd68 17bd eb50 75bd 61bd 46bd
000001f0: d185 1a3d 2e9a cfbc ae01 87bd b46f 91bd
00000200: d382 87bd 63dc b43a db2f 623c 5682 4e3b
00000210: ffd2 9cbd c747 a2bd 81f2 313d efb3 f43c
00000220: c307 4cbd 949d b73c 579a d6bd be1f a53d
00000230: 3c2b 9c3d 88b6 55ba b512 e53c 56ed 1dbd
00000240: 6d03 eabc 7e3e a93d 1f94 ce3d f38f 2a3d
00000250: 7434 bf3d 9c23 023d 23e6 0bbd 2cfb a23d
00000260: 5b79 5c3c 5430 e53c c74b e93c c0f3 3bbd
00000270: e570 8b3c 20b1 9bbd aa04 c3bd 034d 4e3d
00000280: 27fb 80bd 3855 5b3d 7d90 3a3d 6f63 68bd
00000290: 2c49 23bd 08b2 ca3d d9fa 073d 9c7e 05bc
000002a0: 4779 833d 464e d13d a5bd 81bd 0300 fa3b
000002b0: 1c43 af3d 4b8b f0bc 537b 203a af5e a3bd
000002c0: 43ca 82bd 36a7 bdbc 51d8 203d b772 3abd
000002d0: cdaa b83a 273f 98bc 1ecc 673d 9ca3 42bd
000002e0: 3a4b 8bbd 8606 8b3d df88 1dbd 4b61 733d
000002f0: b95f 11bd e15f 98bc 4eb2 a03d 1ef0 98bd
00000300: c2c4 703d 8c9b ae3c 2b85 5f3c d629 c1bc
00000310: 8de6 65bd 9508 dabd f98a 843d 461c 823c
00000320: b176 b4bd efba 14bd 8dbc e2bd bb83 53bd
00000330: da12 a63c 9250 8f3c 3577 313d 30a5 833c
00000340: 3917 6ebd ee58 dcbc 032f 3c3d 7d9e 4fbd
00000350: 265b 97bd 9362 4d3d 0350 ff3c ae24 b5bd
00000360: d086 743c e991 003d 4fc4 dabd 4802 3b3d
00000370: 0888 28bd c532 253d 407e 453d d65e 4b3d
00000380: f96c a63d 338d 8bbd e81b c83c 02d5 3a3d
00000390: 7524 bfbc 3a94 db3c 48a0 363c 74b9 e6bc
000003a0: 6554 813c f357 7cbc 3a4b 153d 6517 123d
000003b0: 14d4 02bd b3a7 2f3d 32f9 9cbd 1900 5b3d
000003c0: 0f59 bcbc fa87 fabc 8f26 23bd 239b 9ebd
000003d0: 36b8 f7bc 0b55 f0bc 2264 4dbd d377 0dbe
000003e0: 42ad 58bd 638b efbd 4eb8 8a3d 3a18 7e3d
000003f0: 5b57 36bd 4709 b2bc 5248 f0bc e8fb f73c
0.027177654 0.08070135 -0.05365101 -0.0392561 -0.049454316 -0.031058142 -0.022855414 0.08043225
-0.0988738 -0.039663024 0.018130198 0.019959372 -0.03924557 0.018600212 0.09441625 -0.027821416
0.064294 -0.0285915 0.053351592 -0.021512028 -0.09999912 0.040830843 0.063654125 -0.0269095
-0.022379035 -0.052243724 -0.046278253 0.092727534 -0.05087278 0.043525334 0.013687378 -0.0543893
0.01797477 0.07091066 0.023290737 0.036305424 -0.10715591 0.023415824 -0.006276206 -0.06695909
0.028916067 -0.07100667 0.058251787 -0.0035663887 0.057531867 0.084573835 0.0010126584 0.071492136
-0.07471863 0.04688136 -0.016995765 0.014402376 0.011489727 -0.043706633 -0.0787984 0.06859916
-0.06709689 -0.04569401 -0.027194455 0.043744944 0.08420529 0.01859443 -0.06600585 -0.031027285
-0.027353806 -0.03615215 -0.043919966 -0.045417614 0.051780112 0.007633221 0.069102 -0.05926555
0.07973699 -0.017451838 0.036569573 -0.09362685 -0.06711143 -0.012964491 -0.04147135 -0.039439198
0.08262211 -0.057442702 0.03994496 0.07520777 0.042759977 -0.0027305111 0.011751283 0.06128432
-0.0778952 -0.033092022 -0.01498049 0.03921622 0.10176068 -0.00040105302 -0.020429688 -0.07775789
-0.006532828 0.052548498 0.033968803 0.007606471 -0.051645968 -0.015288466 -0.03295344 -0.028340718
0.04344309 0.010288939 -0.011519062 -0.029777985 0.031575304 -0.04053855 0.0020234056 -0.07881773
-0.043934062 0.02701089 -0.07207287 0.0045369193 -0.048952084 0.054021128 -0.06815625 -0.02013316
0.048927326 -0.03696536 -0.059891623 -0.04852045 0.037725274 -0.025342073 -0.06592117 -0.07101384
-0.066167496 0.001379859 0.013805355 0.0031510792 -0.07657432 -0.07923847 0.04344416 0.029870955
-0.04981209 0.022414006 -0.10478657 0.08062695 0.07625434 -0.00081525045 0.027963022 -0.03855642
-0.028566087 0.082638726 0.100868456 0.041641187 0.093361765 0.03177224 -0.034155022 0.079580635
0.013456668 0.027977146 0.028478516 -0.045886755 0.017021606 -0.07602143 -0.09522374 0.050366413
-0.062979035 0.053548068 0.04554795 -0.056735452 -0.039864704 0.09897238 0.03319821 -0.008147862
0.06419616 0.102200076 -0.06335 0.007629396 0.08557722 -0.029363295 0.00061218924 -0.07977044
-0.063862346 -0.023151021 0.039268795 -0.045519557 0.0014088989 -0.0185848 0.056591146 -0.04751931
-0.06801458 0.067883536 -0.03846061 0.059418958 -0.03549168 -0.018600406 0.07846509 -0.07467674
0.058781393 0.021314405 0.01364259 -0.02357952 -0.056128073 -0.10646168 0.064718194 0.015882622
-0.08811701 -0.036311086 -0.110711195 -0.0516393 0.020272661 0.017494474 0.043326575 0.016069978
-0.058127616 -0.026897874 0.04594327 -0.050688256 -0.07390432 0.050142836 0.031166082 -0.08844887
0.01492472 0.03138915 -0.10681974 0.045656472 -0.041145355 0.04033162 0.048216105 0.04965099
0.08126254 -0.06814041 0.02442737 0.045613296 -0.023332814 0.026804078 0.011146612 -0.028164603
0.015787313 -0.015401828 0.036448695 0.035666842 -0.031940535 0.04288454 -0.07664718 0.05346689
-0.022991685 -0.030582417 -0.039831694 -0.07744434 -0.030239206 -0.029337427 -0.050144322 -0.1381524
-0.052899607 -0.11696508 0.067734346 0.062034823 -0.044516902 -0.02173294 -0.02933136 0.030271485

fc2.bias f4 [2]
00000000: 7bc9 403e ef2b d1bc
0.18826859 -0.025533644
