checkpoints/trained_dynamic_224x224_20251211_200842.pth (torch, 631992 bytes, 22 tensors)

conv1.weight f4 [16, 3, 3, 3]
0	0x3e550f7b	0.20806687
1	0x3e4fa01f	0.20275925
2	0xbcb650bb	-0.022255292
3	0x3ceaded1	0.0286707
4	0x3c4b0fa3	0.012393865
5	0xbdba13ac	-0.09085783
6	0xbe42b36b	-0.19013755
7	0xbe17388c	-0.14767665
8	0xbc21e6bb	-0.009881671
9	0x3e271fe6	0.16320762
10	0x3e4399e5	0.19101675
11	0xbe01dcc3	-0.1268187
12	0x3dd9f51e	0.106424555
13	0x3dd244e8	0.10267049
14	0xbdbf09f6	-0.09328072
15	0xbe8a0612	-0.26957756
16	0xbe529c97	-0.20567547
17	0xbe6063dd	-0.21913095
18	0x3d373206	0.04472544
19	0xbd6f893a	-0.05848048
20	0x3e4f1c13	0.20225553
21	0xbd6b2beb	-0.05741493
22	0xbe02507c	-0.12726015
23	0xbddf7f75	-0.109129824
24	0xbe1ab78d	-0.15109082
25	0xbe07752d	-0.13228293
26	0xbd334645	-0.043768186
27	0xbe3fcebb	-0.18731205
28	0xbda8c476	-0.08240597
29	0xbda14c7a	-0.07875915
30	0xbd91b24f	-0.07114088
31	0xbe162674	-0.14663106
32	0xbe29c352	-0.16578415
33	0x3dcf5c32	0.10125007
34	0xbd4ac4b1	-0.049503986
35	0xbc6cd9d3	-0.01445623
36	0xbf04c3ea	-0.5186144
37	0xbdc5f0b0	-0.09665048
38	0x3cb1ab44	0.021688111
39	0xbea70525	-0.32621112
40	0xbe59ebc2	-0.2128134
41	0x3da037f3	0.078231715
42	0xbe95cce4	-0.29257882
43	0x3d156016	0.036468588
44	0x3d76fdab	0.06030051
45	0x3ca1b66f	0.019740311
46	0xbdf1f852	-0.118149415
47	0xbcdcf787	-0.026973499
48	0xbe78fb18	-0.24314535
49	0xbe02caf3	-0.12772731
50	0x3e032b47	0.12809478
51	0x3dc95ebb	0.098325215
52	0xbe315857	-0.17318855
53	0x3e0d21d5	0.13782437
54	0x3d433c5b	0.04766498
55	0x3ce4f59f	0.027949153
56	0x3ec64224	0.38722336
57	0x3cbfea87	0.023427261
58	0xbda49084	-0.08035377
59	0x3e9bede5	0.30454937
60	0x3dd3eac9	0.10347516
61	0x3d235722	0.03987802
62	0x3d8028ed	0.06257806
63	0x3ddf14b9	0.108926244
64	0x39b36a7d	0.0003422088
65	0x3e334894	0.17508155
66	0xbdfaa372	-0.12238206
67	0x3e149755	0.14510854
68	0x3d933fc3	0.07189896
69	0xbd0c5d2e	-0.03426855
70	0x3e146e73	0.14495258
71	0x3d7f2810	0.062294066
72	0xbdf6b7f4	-0.12046805
73	0x3e6e458b	0.23268716
74	0x3c99ec8f	0.018789558
75	0x3d9f9ea6	0.07793932
76	0x3d11757b	0.03551243
77	0xbd75e94d	-0.060036946
78	0xbd30638e	-0.043063693
79	0xbe149b36	-0.14512333
80	0x3de429a1	0.111407526
81	0x3dd9daad	0.10637412
82	0x3e42a75c	0.19009155
83	0x3e367ea6	0.1782175
84	0x3c92ff8f	0.017944125
85	0xbd9eed62	-0.07760121
86	0x3df0c26d	0.11755834
87	0xbea60a40	-0.32429695
88	0xbd5ecc27	-0.054393914
89	0xbdf30f7e	-0.11868189
90	0xbe2ff87d	-0.17184635
91	0x3e42433e	0.18970963
92	0x3d581c32	0.052761264
93	0xbe27bd3a	-0.16380778
94	0x3e09f689	0.13472952
95	0xbd77fb37	-0.06054231
96	0xbe7e5e74	-0.24840719
97	0xbd9af0ad	-0.075654365
98	0xbd99c720	-0.07508683
99	0x3de04664	0.10950926
100	0xbd80b269	-0.06284029
101	0x3e1a4cd1	0.15068366
102	0x3b9e0802	0.004822732
103	0xbd37d440	-0.04488015
104	0xbdd70b25	-0.105001725
105	0xbe3c9f53	-0.18420152
106	0xbe8119f2	-0.25215107
107	0xbc6f11e7	-0.014591671
108	0xbe62143b	-0.2207803
109	0xbcdbd00e	-0.026832607
110	0xbdeb30ce	-0.11483918
111	0x3c386fbb	0.011257107
112	0x3e2a1bd0	0.16612172
113	0xbdf1e10e	-0.11810504
114	0x3e9941a0	0.2993288
115	0x3dbdec50	0.09273589
116	0x3e156826	0.1459051
117	0xbea84510	-0.3286519
118	0xbea1014b	-0.314463
119	0x3d4dc1f6	0.050233804
120	0xbdf75e64	-0.120785505
121	0x3ce5b3cd	0.028039837
122	0x3dc65c76	0.09685604
123	0x3da52bc8	0.08064991
124	0x3dc8d835	0.09806863
125	0x3c3df8f8	0.011595003
126	0xbda5299e	-0.080645785
127	0xbea68904	-0.3252641
128	0xbe175951	-0.14780165
129	0x3dddb1de	0.10824941
130	0xbe6ff9d4	-0.23435146
131	0x3b717c28	0.0036847685
132	0x3d9197c6	0.071090266
133	0xbdcf210f	-0.10113727
134	0xbe13e1ed	-0.14441653
135	0x3e597827	0.2123724
136	0xbd6d9eb6	-0.058012687
137	0xbe324837	-0.1741036
138	0x3dfb5ffd	0.12274168
139	0x3d0527fe	0.032508843
140	0x3dadd633	0.08488121
141	0x3e8dc3cd	0.27688447
142	0x3e831d0f	0.25608107
143	0x3d6d2d65	0.05790462
144	0x3d587596	0.052846514
145	0x3dc61c2d	0.09673343
146	0x3e3011a9	0.17194237
147	0x3e43598b	0.19077127
148	0xbc57fd9a	-0.013183022
149	0xbdf63763	-0.12022283
150	0x3df99b1d	0.12187789
151	0x3dbff4dc	0.09372875
152	0x3e353d9b	0.17699282
153	0x3d16e6a7	0.03684106
154	0xbe5d2773	-0.2159708
155	0xbc981ab6	-0.018567424
156	0xbdd5376d	-0.10410962
157	0xbd88c4de	-0.066781744
158	0x3d134a15	0.035959322
159	0x3c9c8b26	0.01910932
160	0x3d61b61e	0.05510532
161	0xbe315e64	-0.17321163
162	0xbdd2edce	-0.10299264
163	0x3ce2860d	0.027651811
164	0x3e8fd2b6	0.28090447
165	0xbe4e5995	-0.2015136
166	0x3e40c26b	0.18824165
167	0xbbaf85fb	-0.005356548
168	0xbdf5ae86	-0.11996178
169	0xbda6d111	-0.08145345
170	0x3d855254	0.065098435
171	0xbe2cf93b	-0.16891949
172	0x3d63b03b	0.05558799
173	0x3e3d473e	0.18484208
174	0xbe5d1931	-0.21591641
175	0xbcf7a21d	-0.030228669
176	0x3c478a2c	0.012178939
177	0xbe0c112c	-0.13678426
178	0x3dbf972f	0.09355008
179	0xbd56f476	-0.05247923
180	0x3c10557a	0.008809442
181	0x3d99cbfc	0.0750961
182	0x3e76d2cf	0.24103855
183	0xbe3de3f4	-0.18543988
184	0xbd76cf53	-0.060256314
185	0x3e50e7cc	0.20400923
186	0x3d40baa0	0.04705298
187	0xbe22c40c	-0.15895098
188	0xbdced88e	-0.10099898
189	0x3df75eba	0.120786145
190	0x3df31d4e	0.11870824
191	0xbcc87c38	-0.024473295
192	0xbd98b0d5	-0.07455603
193	0xbd8ac361	-0.06775547
194	0x3dea7c23	0.114494585
195	0x3d9b2cff	0.07576942
196	0x3e04983f	0.12948702
197	0x3e46876d	0.19387598
198	0x3d28ac9d	0.04118024
199	0x3d2a7775	0.04161783
200	0x3d2ce686	0.04221203
201	0xbd603f59	-0.054747913
202	0xbdbae43e	-0.09125565
203	0x3e21fbde	0.15818736
204	0xbd15417a	-0.036439396
205	0xbdc609fe	-0.096698746
206	0xbdd48532	-0.103769675
207	0x3dd457af	0.10368287
208	0x3e7646e9	0.24050488
209	0x3dd39671	0.10331429
210	0x3e59bafa	0.21262732
211	0x3e63a3ad	0.22230406
212	0xbc05ac0a	-0.008158693
213	0x3da79373	0.081824206
214	0x3da80189	0.08203418
215	0x3e0faeeb	0.1403157
216	0xbd40dd70	-0.04708618
217	0x3dc174c9	0.09446103
218	0xbd962c50	-0.07332671
219	0x3e32d96d	0.17465754
220	0xbe00ad91	-0.1256621
221	0x3d7f8208	0.062379867
222	0xbd3cfb9a	-0.046138383
223	0x3e5027e5	0.20327719
224	0x3d2c16a2	0.04201377
225	0x3d59c966	0.053170584
226	0x3d9fe65a	0.07807608
227	0x3e4c6cf6	0.1996344
228	0x3c91f1c1	0.017815473
229	0x3e44a5e4	0.19203907
230	0x3d31f172	0.04344315
231	0x3e84cd95	0.25938097
232	0x3de92c4e	0.113854036
233	0x3e8e1d63	0.27756795
234	0x3da8ac54	0.08235994
235	0xbe845275	-0.2584416
236	0x3d72c90a	0.059273757
237	0x3d195673	0.03743596
238	0xbe3ce6d1	-0.18447424
239	0x3c179507	0.0092518395
240	0xbd51065a	-0.051031448
241	0xbe94bf75	-0.2905232
242	0xbe03a683	-0.12856488
243	0x3e34e458	0.17665231
244	0xbd274238	-0.040834635
245	0xbdc30a05	-0.095233954
246	0x3deafe0e	0.11474238
247	0x3dca4dda	0.0987813
248	0x3dbe0df8	0.09280008
249	0xbe20eb05	-0.15714653
250	0xbd781668	-0.060568243
251	0xbe4f9697	-0.20272289
252	0x3e2b0a81	0.16703226
253	0x3dbd874d	0.09254322
254	0x3d8ed3a0	0.06973958
255	0x3e005f5b	0.12536375

conv1.bias f4 [16]
0	0xbda1bfe6	-0.0789793
1	0x3e3e4e53	0.18584566
2	0x3e0c93e1	0.13728286
3	0x3cbfc2df	0.023408351
4	0xbb69d538	-0.0035680067
5	0xbe371df1	-0.17882515
6	0xbd1dc3d1	-0.038516823
7	0xbd909c15	-0.0706102
8	0xbdbdab30	-0.09261167
9	0x3d21d7f8	0.039512604
10	0x3b60786c	0.0034251465
11	0xbd1bafb3	-0.038009357
12	0xbdea5ed9	-0.11443872
13	0xbc20df9e	-0.0098189395
14	0x3c83f507	0.01610805
15	0x3e31f97f	0.17380331

bn1.weight f4 [16]
0	0x3f88f3af	1.0699366
1	0x3f1c191c	0.60975814
2	0x3ef3c89f	0.47614
3	0x3f54b29e	0.8308505
4	0x3f902703	1.1261905
5	0x3f25beb3	0.6474411
6	0x3f86660d	1.0499893
7	0x3f0d307a	0.55152094
8	0x3f213489	0.6297079
9	0x3f8f4620	1.1193275
10	0x3f7b7f92	0.9824153
11	0x3f9f9a6e	1.2469003
12	0x3f860758	1.0470991
13	0x3f99c0dd	1.2011982
14	0x3f7bbcfb	0.98335236
15	0x3f22ab09	0.6354223

bn1.bias f4 [16]
0	0xbd8b4bf2	-0.06801595
1	0xbdefe130	-0.11712873
2	0xbec48150	-0.38379908
3	0xbd3724d9	-0.044712875
4	0xbe928240	-0.28614998
5	0xbeae4946	-0.34040278
6	0xbe33f2cb	-0.17573087
7	0xbe94c567	-0.29056856
8	0xbe9d71a4	-0.30750763
9	0xbc313988	-0.010816939
10	0xbe1083e5	-0.14112814
11	0x3c2969f4	0.010340203
12	0xbdfbd30e	-0.12296115
13	0xbd93c167	-0.07214623
14	0xbe71ab49	-0.23600496
15	0xbe9c7fa7	-0.3056614

bn1.running_mean f4 [16]
0	0xbf3fe7eb	-0.74963254
1	0xbfcddc3c	-1.6082835
2	0x3faee3cc	1.3663268
3	0xbf20c3f8	-0.62799025
4	0xbf66c047	-0.9013714
5	0x3f2cf1b5	0.67556316
6	0xbddd8423	-0.10816219
7	0x3fa94e8f	1.3227099
8	0x3efa9516	0.4894187
9	0xbebb6417	-0.365998
10	0xbf8def99	-1.1088744
11	0xbf013b60	-0.50481224
12	0xbf812eec	-1.0092444
13	0xbed47d1d	-0.41501704
14	0xbfab1c14	-1.3367944
15	0x3f3a59f6	0.7279352

bn1.running_var f4 [16]
0	0x3ef77075	0.48327985
1	0x40430057	3.0468957
2	0x3fbd06d8	1.4767714
3	0x3eef6ee3	0.46764287
4	0x3f318163	0.69338053
5	0x3f53e2f2	0.82768166
6	0x3e06eddb	0.13176672
7	0x3fc4c604	1.537293
8	0x3eccca77	0.39998218
9	0x3e89a595	0.26884142
10	0x3f9b719a	1.2144043
11	0x3ea4d65c	0.32194793
12	0x3f593205	0.8484195
13	0x3e9a5137	0.30140087
14	0x3fb7c4da	1.4356949
15	0x3eef30ea	0.46717006

conv2.weight f4 [32, 16, 3, 3]
0	0x3c6ca07a	0.0144425575
1	0x3d931c3c	0.0718312
2	0x3d8f1ef7	0.06988328
3	0xbdac8cfb	-0.084253274
4	0x3d02b1a1	0.03190768
5	0x3d454b79	0.04816768
6	0x3e3cda94	0.18442756
7	0x3e193ddb	0.14965002
8	0x3e6ab064	0.2291885
9	0xbd1aee0b	-0.03782467
10	0xbd9860f5	-0.07440368
11	0xbd8534c8	-0.06504208
12	0x3cd764ff	0.026293276
13	0xbd9a255e	-0.075266585
14	0x3d5f6625	0.054540772
15	0x3d41e3b8	0.04733631
16	0x3dcd7667	0.10032349
17	0x3da02557	0.07819622
18	0xbe0c9226	-0.13727626
19	0x3bed809f	0.007247999
20	0x3bce4d66	0.0062958477
21	0xbdd72e60	-0.10506892
22	0xbdd47d95	-0.10375515
23	0xbdaab38f	-0.08335029
24	0xbd59dfaf	-0.053191837
25	0xbccd28dd	-0.0250439
26	0x3d71c00d	0.059021045
27	0x3e0bb24c	0.13642234
28	0x3d41b652	0.047293015
29	0x3d80ae28	0.06283218
30	0xbc759db9	-0.014991217
31	0x3d2a73a0	0.041614175
32	0xbdc2caff	-0.09511375
33	0x3d74725e	0.05967938
34	0x3d7c1ecf	0.06155282
35	0xbc0889c0	-0.008333623
36	0xbe823299	-0.25429228
37	0xbe8704f6	-0.26370972
38	0xbe3822b5	-0.1798199
39	0xbe031b35	-0.12803347
40	0xbe0ed9e5	-0.13950308
41	0xbe137443	-0.14399819
42	0x3cda89ab	0.026676973
43	0xbdf80059	-0.12109441
44	0xbc5c546f	-0.013447865
45	0xbe13ba96	-0.14426646
46	0xbdfb0ce2	-0.122583166
47	0xbe2d975d	-0.16952272
48	0xbdacc53d	-0.08436058
49	0xbe028114	-0.12744552
50	0xbdecf1ff	-0.115695946
51	0xbcebdb37	-0.028791053
52	0xbc3b2a65	-0.011423682
53	0xbda4fd78	-0.08056158
54	0xbc119289	-0.008885034
55	0xbc4b6995	-0.012415309
56	0xbcfb08f8	-0.030643925
57	0x3d64d00f	0.055862483
58	0x3d4f97de	0.05068194
59	0xbd99313d	-0.074800946
60	0x3c4bdff9	0.012443536
61	0xbce69f43	-0.028152114
62	0xbd63251e	-0.05545532
63	0x3d84adfc	0.064784974
64	0xbd1d8a13	-0.038461756
65	0xbce2aab9	-0.027669298
66	0x3ccb8850	0.024845272
67	0x3d2651c5	0.040605325
68	0xbc8a758a	-0.01690175
69	0x3c8eda2f	0.017438022
70	0x3c7de88d	0.015497339
71	0xbcb09303	-0.021554476
72	0x3d16535d	0.036700595
73	0xbdca7a2d	-0.098865844
74	0x3a94b92b	0.0011346688
75	0xbda447a9	-0.080214806
76	0xbe234748	-0.1594516
77	0xbd11626d	-0.035494257
78	0xbaeed7f2	-0.0018222316
79	0xbc37c887	-0.011217243
80	0x3cfa1d64	0.030531593
81	0x3d9c2e4c	0.07626018
82	0x3cceb877	0.025234444
83	0x3e4ef22f	0.20209573
84	0x3d514846	0.051094316
85	0x3c5ae871	0.013361082
86	0x3d5c91e7	0.05385008
87	0x3e16ad5e	0.14714572
88	0x3e49315a	0.19647732
89	0x3e392dc6	0.18083867
90	0xbde18cbc	-0.11013171
91	0x3c9d9d89	0.019240158
92	0x3b4174c7	0.0029519068
93	0x3dcc78cb	0.09983977
94	0x3c7b8989	0.015352615
95	0x3da7b71c	0.08189222
96	0x3e23ed9d	0.16008611
97	0x3e5f1ea0	0.21789026
98	0x3e228fa1	0.15875103
99	0xbe9df34a	-0.30849677
100	0xbe451c8a	-0.19249168
101	0xbe3197ca	-0.17343059
102	0xbe0baf44	-0.13641077
103	0xbd8aeca4	-0.06783417
104	0xbe069a57	-0.13144813
105	0x3ca09cae	0.01960596
106	0xbde73c6a	-0.1129082
107	0x3bc0411c	0.0058671366
108	0x3c0be8ef	0.008539422
109	0xbd699086	-0.057022594
110	0xbce04242	-0.027375344
111	0xbd798417	-0.060916986
112	0x3d95a977	0.073077135
113	0x3da6ec50	0.08150542
114	0x3e430810	0.19046044
115	0x3e2f79e7	0.17136346
116	0x3e6ae4c9	0.22938837
117	0xbe12f846	-0.14352521
118	0xbdb074f0	-0.08616054
119	0xbd9e1dc3	-0.0772052
120	0x3a904167	0.001100582
121	0x3a330efd	0.00068305415
122	0xbb82b073	-0.0039883195
123	0xbe19b91d	-0.15012021
124	0xbdf2c9d6	-0.118549034
125	0xbdc3ad27	-0.095545106
126	0xbdcc6296	-0.09979741
127	0xbcaf510b	-0.021400949
128	0xbd9efbe8	-0.07762891
129	0xbd01bcbf	-0.031674143
130	0xbacafa69	-0.0015486005
131	0x3d22a1cd	0.039705086
132	0x3e2483a2	0.16065839
133	0x3e027b35	0.12742312
134	0x3d7fdcbb	0.062466364
135	0xbdeba948	-0.11506897
136	0xbe46d7d2	-0.19418266
137	0x3b833413	0.0040040105
138	0xbe255e5a	-0.16149274
139	0xbe0c1ff3	-0.13684063
140	0xbd94c303	-0.07263758
141	0xbd8911a0	-0.06692815
142	0x3c9b651e	0.018969115
143	0x3c20f4c6	0.009823984
144	0x3e0758b2	0.13217428
145	0x3d83f557	0.06443279
146	0x3b27c817	0.002560144
147	0x3db4372e	0.08799587
148	0x3aadb1e6	0.001325187
149	0x3c6ed619	0.014577412
150	0xbd41d37d	-0.04732083
151	0x3bf48fd8	0.0074634366
152	0xbe04aeb8	-0.12957275
153	0x3d05aa49	0.0326331
154	0xbd306127	-0.0430614
155	0x3d4887b9	0.04895756
156	0x3e0da4c2	0.13832381
157	0x3c918ac9	0.017766373
158	0x3da0a90f	0.07844745
159	0xbc225924	-0.009908948
160	0x3dc55ee8	0.096372426
161	0xbd858c2e	-0.06520878
162	0x3dab2664	0.08356932
163	0xbb0d5c6b	-0.0021569978
164	0xbd9d5645	-0.0768247
165	0x3dd6789f	0.104722254
166	0x3db581ff	0.088626854
167	0xbd40f7ed	-0.04711144
168	0x3dc18461	0.094490774
169	0x3db6ebcf	0.08931696
170	0x3d69a9c2	0.05704666
171	0x3d15c570	0.036565244
172	0x3d9ce7cf	0.076614015
173	0x3d1193f8	0.035541505
174	0x3d9043b2	0.07044162
175	0x3d04961f	0.03236973
176	0x3d49866e	0.049200468
177	0xbd66bbf6	-0.056331597
178	0x3dbc4613	0.09193053
179	0x3e1921e9	0.14954342
180	0x3dc72497	0.09723776
181	0xbd06c199	-0.032899473
182	0xbdd5ea61	-0.10445095
183	0x3e1e5818	0.15463293
184	0x3e048a9e	0.12943503
185	0x3db84fe4	0.08999613
186	0x3d669b34	0.056300357
187	0xbad8ebcd	-0.0016549766
188	0xbd582394	-0.052768305
189	0xbc518079	-0.012786978
190	0xbb4678d8	-0.003028443
191	0xbd1e469d	-0.03864156
192	0x3dc25f2a	0.09490807
193	0x3d87a3df	0.06623053
194	0xbd882b9b	-0.06648942
195	0x3e0669c1	0.1312628
196	0x3d5bcee3	0.0536641
197	0xbd59cb29	-0.053172264
198	0x3db98226	0.09058027
199	0x3d96bfd5	0.07360808
200	0x3e36e6bf	0.1786146
201	0xbbcdef59	-0.006284636
202	0x3e2cab28	0.16862166
203	0x3dfe5939	0.124193616
204	0xbd5c72d5	-0.05382045
205	0x3e676b4e	0.22599527
206	0x3e504887	0.20340167
207	0xbcdd3e38	-0.027007207
208	0xbbe4eaa4	-0.006985979
209	0x3b811385	0.0039390945
210	0x3dcc4a27	0.09975081
211	0xbd42a095	-0.047516424
212	0x3d236cc6	0.039898656
213	0xbcf30630	-0.029666036
214	0xbd1fbdd6	-0.0389994
215	0xbd92b3d1	-0.071632035
216	0x3ca1e8aa	0.019764263
217	0x3cb18481	0.021669628
218	0x3c9918ec	0.018688641
219	0x3da45899	0.08024711
220	0x3d9f04d5	0.077645935
221	0x3c0b059d	0.008485225
222	0x3ca36c41	0.01994908
223	0xbd0ec156	-0.03485235
224	0x3a8f28a2	0.0010922144
225	0xbc1dc87b	-0.009630318
226	0xbd2a1b2d	-0.041529823
227	0xbca95e4e	-0.02067485
228	0x3d36474f	0.0445016
229	0xbdf14f1d	-0.11782668
230	0xbe2a81bf	-0.16651057
231	0x3db1a98b	0.08674916
232	0xbcc2f14f	-0.023796706
233	0xbe6c8ae8	-0.23099864
234	0x3e19d533	0.15022735
235	0x3e5f5f19	0.2181362
236	0x3dcdd079	0.10049529
237	0x3e2cfcad	0.16893263
238	0x3e3cdbda	0.18443242
239	0x3e09ec2c	0.13468999
240	0x3d37ed3d	0.044903982
241	0x3d33f8e5	0.043938536
242	0x3dd71af8	0.10503191
243	0x3c8d3665	0.017237851
244	0x3e1a83c7	0.15089332
245	0x3e0b4c51	0.13603331
246	0x3db2ee4d	0.087368585
247	0x3e7416c1	0.23836805
248	0x3e202deb	0.15642516
249	0x3ddd8368	0.108160794
250	0x3ca8bdd1	0.020598324
251	0x3e187a1c	0.14890331
252	0x3e5ce637	0.21572195
253	0x3e4cc903	0.19998555
254	0xbd3a697c	-0.045510754
255	0x3dfe232b	0.124090515

conv2.bias f4 [32]
0	0x3d1efb97	0.038814154
1	0xbd46c8d4	-0.04853137
2	0xbd8c8734	-0.068617254
3	0xbc65c892	-0.0140248705
4	0xbdaa557d	-0.08317087
5	0xba98d621	-0.0011660495
6	0x3ce5f2e6	0.028069925
7	0x3d052afc	0.032511696
8	0x3b31aa75	0.0027109657
9	0xbda5adee	-0.08089815
10	0xbd0a09d1	-0.033700768
11	0xbda07165	-0.07834128
12	0xbd9ef052	-0.07760681
13	0xbd3b306b	-0.04570047
14	0xbda5868a	-0.08082302
15	0xbdb2b6bc	-0.0872626
16	0x3d10099f	0.035165425
17	0x3c9cea06	0.01915456
18	0xbc6883bc	-0.014191564
19	0xbc01dce1	-0.007926197
20	0xbd94e86c	-0.072708935
21	0x3d70b5ac	0.058767006
22	0xbcb738cb	-0.022365948
23	0xbdb13b1c	-0.08653852
24	0x3d1a5268	0.037676245
25	0xbda49639	-0.08036465
26	0x3d2eaec6	0.042647146
27	0x3a1fb60b	0.0006092495
28	0xbc3c4b9e	-0.011492638
29	0x3d0240c4	0.031800047
30	0xbbb32589	-0.005467121
31	0xbd0d44c7	-0.03448942

bn2.weight f4 [32]
0	0x3f88d705	1.0690619
1	0x3f4d4cc1	0.8019524
2	0x3f894ab8	1.0725927
3	0x3f8effc4	1.1171803
4	0x3f8180d0	1.0117435
5	0x3f606d4c	0.87666774
6	0x3f63387b	0.8875806
7	0x3f82ac7c	1.0208888
8	0x3f955516	1.1666591
9	0x3f7d1057	0.9885306
10	0x3f206a95	0.6266263
11	0x3f70a9b7	0.94008964
12	0x3f843e9e	1.0331609
13	0x3f661f5e	0.8989161
14	0x3f807367	1.0035218
15	0x3f4a4d4e	0.7902421
16	0x3f5b8fb0	0.85766125
17	0x3f92f24a	1.1480191
18	0x3f74fdde	0.9569987
19	0x3f65bd5e	0.89742076
20	0x3f57216e	0.84035385
21	0x3f708a95	0.9396146
22	0x3f741301	0.953415
23	0x3f5f91bd	0.87331754
24	0x3f145754	0.5794575
25	0x3f90078a	1.1252301
26	0x3f91f205	1.1401983
27	0x3f367f5b	0.7128808
28	0x3f857488	1.0426188
29	0x3f5363a3	0.8257391
30	0x3f852be8	1.0404024
31	0x3f859096	1.0434749

bn2.bias f4 [32]
0	0xbeab39b2	-0.33442456
1	0xbe67fffc	-0.22656244
2	0xbe331e9c	-0.17492145
3	0xbe63ca5e	-0.22245166
4	0xbe7e3eed	-0.24828692
5	0xbea209e5	-0.31648174
6	0xbe35488c	-0.17703456
7	0xbdd9f900	-0.10643196
8	0x3e29517e	0.16534993
9	0xbe919b92	-0.28439003
10	0xbe69fc51	-0.22850157
11	0xbe39a8b4	-0.18130761
12	0xbe5288b0	-0.20559955
13	0xbe851989	-0.25996044
14	0xbde41668	-0.11137086
15	0xbeba0e46	-0.36339015
16	0xbe5cb62b	-0.21553867
17	0x3e1b5ffa	0.15173331
18	0x3ceebd6c	0.029143058
19	0xbe208b94	-0.15678245
20	0xbe1db759	-0.15401973
21	0xbeb0dc7d	-0.3454322
22	0xbd8cce6d	-0.0687531
23	0xbe4ce380	-0.2000866
24	0xbea82a7b	-0.3284491
25	0xbd1b2b6f	-0.03788322
26	0xbd4153ff	-0.047199246
27	0xbe8d6f67	-0.27624056
28	0xbd9d0dc3	-0.076686405
29	0xbe44a7d4	-0.19204646
30	0xbce63104	-0.028099544
31	0xbeb0091d	-0.34381953

bn2.running_mean f4 [32]
0	0xbdc743ab	-0.097297035
1	0x3fc8023b	1.5625681
2	0x3f864172	1.0488722
3	0x3e8fa912	0.28058678
4	0xbf71c7ef	-0.944457
5	0xbe8e87e6	-0.27838057
6	0x3e6b30e2	0.22967866
7	0x3eac2088	0.3361857
8	0xc04c6b74	-3.1940584
9	0x3f02a39e	0.5103091
10	0xbdab6653	-0.08369126
11	0x3f998a55	1.199534
12	0x3ea6ef06	0.32604235
13	0x3fb6a78f	1.4269885
14	0x3e9261d8	0.28590274
15	0xbe2412cd	-0.16022797
16	0x3d51a5e1	0.051183585
17	0xc032eb6c	-2.795619
18	0xc0208e1f	-2.5086744
19	0x3f00f213	0.50369376
20	0x3f102fb2	0.5632278
21	0x3f8f5fc8	1.1201105
22	0x3ea1c404	0.3159486
23	0x3ec6f284	0.388569
24	0x3eda60b5	0.42651907
25	0xbf86e3c3	-1.0538257
26	0xbfa3c512	-1.2794516
27	0xbf022778	-0.50841475
28	0xbf1d052b	-0.6133601
29	0xbc55d516	-0.013051292
30	0x3fa8976f	1.3171214
31	0xbf0ff1cd	-0.56228334

bn2.running_var f4 [32]
0	0x4091a2a1	4.551102
1	0x41681e11	14.50734
2	0x4100764c	8.028881
3	0x4088fab2	4.2806025
4	0x40ac824d	5.390906
5	0x4082a392	4.082467
6	0x40a02d76	5.0055494
7	0x40609abc	3.5094442
8	0x42276c87	41.855984
9	0x40a9304e	5.2871466
10	0x40633af3	3.550473
11	0x41276f5f	10.46469
12	0x40566895	3.3501332
13	0x414c2137	12.758109
14	0x402b26bb	2.674239
15	0x406a1b1f	3.6579053
16	0x4061ccbe	3.5281215
17	0x420d7a62	35.369514
18	0x41dd26df	27.64398
19	0x4089924b	4.299108
20	0x409a46cf	4.8211436
21	0x40e4d9c3	7.1515822
22	0x4076fc42	3.8591466
23	0x40d0766a	6.514455
24	0x408b6115	4.355601
25	0x40e6abd2	7.208474
26	0x41217ab4	10.092457
27	0x404d983c	3.2124166
28	0x4097f4bd	4.7486253
29	0x3fc331df	1.5249594
30	0x41213a28	10.076698
31	0x408f7114	4.4825535

conv3.weight f4 [64, 32, 3, 3]
0	0x3dc7735b	0.09738799
1	0xbc04176e	-0.008062227
2	0x3dfb58a1	0.12272764
3	0x3e076f80	0.13226128
4	0xbd44df26	-0.048064373
5	0x3cf4d548	0.029886857
6	0x3e12a1bb	0.14319508
7	0xbcfbb53d	-0.03072607
8	0x3c5d88c1	0.013521374
9	0x3d06407c	0.03277634
10	0x3daec97a	0.08534522
11	0x3e1ea8d7	0.15494095
12	0x3ce17630	0.027522177
13	0xbd6d8f54	-0.057998016
14	0xbc661157	-0.01404222
15	0xbce4eefe	-0.027945992
16	0x3c14994f	0.009069755
17	0x3d880c13	0.06642928
18	0x3e91f3c4	0.2850629
19	0x3cd17f31	0.025573345
20	0xbcd74bbc	-0.02628123
21	0x3e2ab347	0.16669951
22	0x3da35161	0.07974506
23	0x3dc12893	0.09431567
24	0x3e5f81b2	0.21826819
25	0x3e0b6f02	0.13616565
26	0x3e82251f	0.25418946
27	0x3e42a12c	0.19006795
28	0x3dabf97f	0.08397197
29	0x3bd55153	0.0065099387
30	0x3e38149b	0.1797661
31	0xbd9fb27d	-0.07797716
32	0xbdf8b6f8	-0.121442735
33	0x3e600ef4	0.21880704
34	0xbd425c3f	-0.047451254
35	0xbe343b88	-0.17600834
36	0xbb486351	-0.0030576775
37	0x3ddfae03	0.10921862
38	0x3e2b3aee	0.16721699
39	0xbd9432a4	-0.072362214
40	0xbd502a23	-0.050821435
41	0x3e2108a6	0.15725955
42	0xbd236b36	-0.039897166
43	0xb9f4a596	-0.00046662678
44	0x3e4f2500	0.20228958
45	0x3d1ef69d	0.038809408
46	0xbcca6be5	-0.024709651
47	0x3ddfe61a	0.1093256
48	0xbdbff3ed	-0.09372697
49	0xbd1a3621	-0.037649278
50	0x3dafa9a3	0.085772775
51	0xbd98f1fd	-0.074680306
52	0xbda17267	-0.07883149
53	0x3e03cf82	0.12872127
54	0x3d61628a	0.055025615
55	0xbd0609eb	-0.032724302
56	0xbc69dbc0	-0.014273584
57	0xbcbfaadb	-0.0233969
58	0xbde84cd8	-0.11342782
59	0xbddf4172	-0.109011546
60	0x3d72a85f	0.059242602
61	0xbdae544a	-0.085121706
62	0xbd05d262	-0.03267134
63	0x3e2cdf8c	0.16882151
64	0x3be36cdc	0.0069404673
65	0x3cc3a157	0.023880644
66	0x3ddabcfc	0.10680577
67	0x3ccdbace	0.02511349
68	0x3c704bfb	0.014666553
69	0x3ddb2af3	0.10701551
70	0x3d793fc6	0.060851835
71	0x3dc6ddc2	0.09710266
72	0xbbac29a2	-0.0052539865
73	0x3d214371	0.039370958
74	0x3cd8276f	0.02638599
75	0x3dcf4d4b	0.10122164
76	0x3dae06fb	0.08497425
77	0x3d5678bc	0.052361235
78	0x3e450eb1	0.19243886
79	0x3e624091	0.22094943
80	0x3e0dbe79	0.13842191
81	0x3d9218cd	0.071336366
82	0xbb97a034	-0.004627252
83	0x3e400943	0.18753533
84	0x3e4b2fa8	0.19842398
85	0x3e16b48a	0.14717308
86	0x3e1f510d	0.15558262
87	0x3e84a802	0.2590943
88	0x3e115196	0.14191279
89	0x3e260bfe	0.16215512
90	0xbc103745	-0.00880224
91	0xbd4ef80f	-0.050529536
92	0xbda2e440	-0.079536915
93	0x3d32d6f5	0.04366203
94	0xbd4488ae	-0.04798191
95	0xbd8339dc	-0.0640752
96	0x3c0ff6d6	0.008786878
97	0xbc817718	-0.015803859
98	0x3da15f01	0.07879449
99	0x3e14e39f	0.14539956
100	0x3c79ef39	0.015254789
101	0x3d943f8c	0.07238683
102	0x3d9873f1	0.07443989
103	0x3d541fe9	0.051788244
104	0x3b7a1464	0.0038159126
105	0x3db1db8f	0.086844556
106	0x3d9ffd07	0.07811933
107	0x3e101c83	0.14073376
108	0xbe01a022	-0.12658742
109	0xbc505dd1	-0.01271768
110	0x3e49fe61	0.19725944
111	0x3cd5f990	0.026119977
112	0xbd35d4ea	-0.044392504
113	0x3d6aaba7	0.057292607
114	0x3e0c2f00	0.13689804
115	0x3c82378d	0.01589563
116	0x3dbd4964	0.09242514
117	0x3dca06b6	0.09864561
118	0x3e0a9e37	0.13536917
119	0x3e27c24f	0.16382717
120	0x3da5244f	0.08063566
121	0xbd101c52	-0.03518326
122	0x3dccfd8d	0.100092985
123	0x3d7a5faf	0.061126407
124	0xbcdb7f82	-0.026794199
125	0x3d99f14b	0.07516726
126	0xbd841cc4	-0.06450799
127	0xbd95febf	-0.073239796
128	0xbd5b481c	-0.053535566
129	0x3cf3ed1d	0.02977615
130	0xbc878f39	-0.016547786
131	0x3dacbcaa	0.08434422
132	0xbd92e822	-0.07173182
133	0xbdae7ce9	-0.085199185
134	0x3ccb202b	0.024795612
135	0xbc1f2734	-0.009713937
136	0x3da74313	0.0816709
137	0x3e2f450a	0.1711618
138	0xbd8ac60a	-0.06776054
139	0x3d11dad5	0.035609085
140	0x3df1db57	0.11809414
141	0x3d7a272e	0.06107252
142	0x3deef0ff	0.1166706
143	0x3e194683	0.14968304
144	0x3d5e786b	0.05431406
145	0xbcca92cd	-0.024728203
146	0x3d8dacf5	0.069177546
147	0xbd88daf2	-0.066823855
148	0xbd27626e	-0.040865354
149	0x3c5039b8	0.012709074
150	0xbdd36177	-0.10321324
151	0xbd32519c	-0.04353486
152	0x3e039e7c	0.12853426
153	0x3e16a28a	0.14710441
154	0x3dc13b45	0.09435133
155	0x3dec573e	0.115400776
156	0x3e208869	0.15677036
157	0x3e1b81e6	0.15186271
158	0x3e37b13a	0.179387
159	0x3e616e6c	0.22014779
160	0x3e592f63	0.21209483
161	0x3e5b69f4	0.21427137
162	0xbd6a506b	-0.0572056
163	0xbda5e265	-0.08099822
164	0xbdb06fa2	-0.08615042
165	0x3d68a7ef	0.05680078
166	0x3caf7fe0	0.02142328
167	0xbcd1379a	-0.025539208
168	0x3d8842c3	0.06653359
169	0x3babe0a1	0.0052452837
170	0x3da7ac9c	0.081872195
171	0x3da3b15c	0.07992813
172	0x3d89cb70	0.06728256
173	0x3dbcb13c	0.09213492
174	0xbddf5bb7	-0.10906165
175	0xbc27f42e	-0.010251088
176	0x3dbb32b6	0.09140532
177	0xbdd35e5f	-0.10320734
178	0xbc951189	-0.018196838
179	0x3dda21a5	0.106509484
180	0x3e227937	0.15866552
181	0xbca9b173	-0.020714497
182	0x3cddbc1a	0.027067233
183	0x3da341c1	0.07971526
184	0xbd94e985	-0.07271103
185	0xbdbcce15	-0.092189945
186	0x3cd19b8a	0.025586862
187	0x3a2a17e3	0.0006488545
188	0x3db7c3ec	0.08972916
189	0x3e2ea283	0.17054181
190	0x3da4d9f6	0.08049385
191	0x3d1b6e02	0.03794671
192	0x3d9562d2	0.07294239
193	0x3dbd6c0e	0.092491254
194	0x3da90512	0.0825292
195	0x3df62063	0.12017896
196	0x3de46d5c	0.11153671
197	0x3e3418d9	0.17587604
198	0x3e622b0c	0.22086734
199	0x3d89bf75	0.06725971
200	0xbd0724a9	-0.032993946
201	0x3defafdd	0.11703465
202	0xbd5e328b	-0.05424742
203	0xbdc96d0d	-0.09835253
204	0x3ded5044	0.11587575
205	0xbb90d5d7	-0.004420023
206	0xbc998e93	-0.018744742
207	0x3e1e743b	0.15474026
208	0x3bb45dff	0.0055043693
209	0x3d47aa9f	0.0487467
210	0x3d49666a	0.049169935
211	0xbc85424c	-0.016266964
212	0xbd81bd82	-0.06334974
213	0x3cce077f	0.025150059
214	0xbd739383	-0.05946685
215	0xbc804c4d	-0.015661383
216	0x3c1f3218	0.009716533
217	0x3cebc24d	0.028779173
218	0x3d197108	0.03746131
219	0xbd1d9895	-0.03847559
220	0xbe0138b8	-0.12619293
221	0x3d63aa74	0.05558248
222	0x3d5636d7	0.052298393
223	0xbd99917a	-0.074984506
224	0x3dd2e0fe	0.1029682
225	0x3e0b1403	0.13581853
226	0x3c5d8bd0	0.013522103
227	0xbd6aeee2	-0.057356723
228	0x3e0fad38	0.14030921
229	0xbdea9504	-0.11454204
230	0xbcb89e7c	-0.022536509
231	0x3e24f851	0.1611035
232	0x3d270ab5	0.040781695
233	0xbd565b9d	-0.052333463
234	0x3e23debe	0.16002938
235	0x3da18abe	0.07887791
236	0x3dfb194c	0.12260684
237	0x3db1e6d1	0.08686603
238	0xbd4be0e0	-0.049775004
239	0x3d8c275d	0.068434455
240	0x3d6348e6	0.055489443
241	0x3d16e8b7	0.036843028
242	0xbcb48e72	-0.02204058
243	0xbb875c66	-0.004130888
244	0xbc547ffe	-0.012969969
245	0x3d5d20b4	0.053986266
246	0xbdc0c812	-0.094131604
247	0xbd98969b	-0.07450601
248	0x3d573689	0.052542243
249	0xbcc7e984	-0.024403341
250	0xbdcec768	-0.100966275
251	0x3dd73b0b	0.105093084
252	0xba846de5	-0.0010103552
253	0xbce16b21	-0.027516903
254	0x3d9c4be5	0.07631663
255	0x3d8b9052	0.06814636

conv3.bias f4 [64]
0	0xbd2eb834	-0.04265614
1	0x3d22768f	0.039663848
2	0xbd51ceb3	-0.051222514
3	0x3d550ca3	0.052014004
4	0x3cbd5743	0.023112899
5	0xbc02b0b4	-0.0079767
6	0xbcda5af3	-0.026654696
7	0x3c27ba2e	0.01023726
8	0xbd291959	-0.04128394
9	0x3c2adce8	0.010428645
10	0x3d4609be	0.048349135
11	0x3cc5ff06	0.024169456
12	0x3d21a4de	0.03946387
13	0x3c922b2d	0.017842853
14	0xbcd2056a	-0.025637347
15	0xbbccec48	-0.006253753
16	0x3d3f2749	0.046668325
17	0xbd1348c3	-0.035958063
18	0x3d45acf2	0.048260637
19	0x3d0fa9ac	0.03507392
20	0xbd4c0e2f	-0.049818214
21	0x3d7bf131	0.061509315
22	0x3c189fd2	0.009315448
23	0xbbd5bdf4	-0.0065228883
24	0xba353713	-0.0006912809
25	0x3d4a9d71	0.049466554
26	0xb8e0025c	-0.00010681592
27	0x3ca52a71	0.02016184
28	0x3ca9bc18	0.020719573
29	0xbd59f956	-0.0532163
30	0x3c749664	0.014928434
31	0xbd20f835	-0.03929921
32	0x3bdf833e	0.006821065
33	0x3d383b49	0.044978414
34	0x3d4c1e76	0.049833737
35	0x3c884642	0.016635064
36	0xbab6ee85	-0.0013956582
37	0xbd0d8d27	-0.03455844
38	0xbc256874	-0.010095704
39	0xbb95c0ea	-0.0045701163
40	0x3d4f257a	0.05057285
41	0x3c270f32	0.010196494
42	0xbc8760bb	-0.016525617
43	0x3cd2cf24	0.025733538
44	0xbd248863	-0.04016913
45	0x3c10bca7	0.008834041
46	0xbd100d16	-0.03516873
47	0x3c7dcef5	0.015491237
48	0xbd0c129e	-0.034197442
49	0x3bd6e340	0.006557852
50	0xbd466a09	-0.048440967
51	0x3ca90972	0.020634387
52	0xbc8f3086	-0.017479192
53	0x3c47631c	0.012169626
54	0xbcf892be	-0.03034341
55	0x3c6f72d7	0.014614782
56	0xbbacddb5	-0.005275453
57	0x3cdddd29	0.027082996
58	0x3c8ace5f	0.016944109
59	0x3cd0e5b0	0.025500149
60	0xbd473fe5	-0.04864492
61	0xbd715e80	-0.058928013
62	0x3c208bb3	0.009798932
63	0xbd93286c	-0.07185444

bn3.weight f4 [64]
0	0x3f7c89de	0.9864787
1	0x3f5f92b6	0.8733324
2	0x3f828f5d	1.0200001
3	0x3f70b639	0.9402805
4	0x3f330470	0.69928646
5	0x3f625a2e	0.88418853
6	0x3f693f15	0.9111188
7	0x3f76ce7b	0.96408814
8	0x3f6be10a	0.9214026
9	0x3f18b1a2	0.59646046
10	0x3f6618bf	0.8988151
11	0x3f33640e	0.70074546
12	0x3f6b0645	0.9180644
13	0x3f33479c	0.7003114
14	0x3f50964a	0.8147932
15	0x3f69d1a6	0.91335523
16	0x3f37c447	0.7178387
17	0x3f235940	0.6380806
18	0x3f4ae20c	0.7925117
19	0x3f4159aa	0.7552744
20	0x3f76f90f	0.96473783
21	0x3f5a895a	0.8536583
22	0x3f66250e	0.8990029
23	0x3f4e1712	0.8050395
24	0x3f2945c0	0.66122055
25	0x3f1b5551	0.6067706
26	0x3f696354	0.9116719
27	0x3f8642e4	1.0489163
28	0x3f7b4bf5	0.98162776
29	0x3f7cfc6e	0.9882268
30	0x3f519ee9	0.818831
31	0x3f7498fe	0.9554595
32	0x3f673785	0.9031909
33	0x3f8723bf	1.0557784
34	0x3f6d1689	0.9261251
35	0x3f5d7496	0.8650602
36	0x3f7069fe	0.9391173
37	0x3f57b4e9	0.8426042
38	0x3f6500d6	0.894544
39	0x3f3b1139	0.73073155
40	0x3f6a95de	0.9163493
41	0x3f738128	0.9511895
42	0x3f518002	0.8183595
43	0x3f654b8c	0.895684
44	0x3f65b0e2	0.89723027
45	0x3f6b391f	0.91884035
46	0x3f5305ff	0.82431024
47	0x3f5cbd57	0.8622641
48	0x3f6961de	0.9116496
49	0x3f61779b	0.8807313
50	0x3f80191b	1.0007662
51	0x3f767d81	0.96285254
52	0x3f69f1fc	0.91384864
53	0x3f1af03f	0.60522836
54	0x3f6f440a	0.93463194
55	0x3f7b5c73	0.9818794
56	0x3f3f275c	0.7466943
57	0x3f78039e	0.9688052
58	0x3f863161	1.0483819
59	0x3f6b9582	0.92025006
60	0x3f833f5f	1.0253714
61	0x3f773bfb	0.965759
62	0x3f85196a	1.0398381
63	0x3f7a878c	0.9786308

bn3.bias f4 [64]
0	0xbea34c22	-0.31894022
1	0x3dc1b7f7	0.09458917
2	0xbeb07146	-0.3446142
3	0xbe842f70	-0.25817442
4	0xbe87ecde	-0.26547903
5	0xbe9a3760	-0.30120373
6	0xbe8df7dd	-0.27728167
7	0xbea034b1	-0.312902
8	0x3e1284fb	0.1430854
9	0xbec46645	-0.38359275
10	0xbe828734	-0.25493777
11	0xbe0516fe	-0.12997052
12	0xbe9990a1	-0.29993156
13	0xbe3e8f1a	-0.18609276
14	0xbebf32c2	-0.37343413
15	0xbea7e465	-0.3279144
16	0xbe896ba6	-0.26839942
17	0xbe78a0fa	-0.24280158
18	0xbe80a143	-0.25123033
19	0xbe8e44bb	-0.27786812
20	0xbe9802d9	-0.29689673
21	0x3d73a37c	0.059482083
22	0xbea36a91	-0.3191724
23	0xbea32e89	-0.3187144
24	0xbe7e26eb	-0.24819534
25	0xbec0cc12	-0.37655693
26	0xbea04e75	-0.31309858
27	0xbe982d60	-0.29722118
28	0x3e299b78	0.16563213
29	0xbea88dbf	-0.32920644
30	0xbd8b7ffb	-0.0681152
31	0xbe9b4b8f	-0.30331084
32	0xbe92cbdc	-0.28671157
33	0xbe9911d0	-0.29896402
34	0xbebd0d88	-0.36924386
35	0xbe99d807	-0.30047628
36	0xbe99d753	-0.30047092
37	0xbe9c609e	-0.30542463
38	0xbe9ac0d3	-0.30225238
39	0xbe8f9b2d	-0.28048077
40	0xbe958e83	-0.2921029
41	0xbea25fa7	-0.31713602
42	0xbe837c37	-0.25680706
43	0xbe8e4e66	-0.27794188
44	0xbeaa176e	-0.33221
45	0xbeb0ed41	-0.3455601
46	0xbd49bab2	-0.049250312
47	0xbe8b9f76	-0.27270097
48	0xbebadbd7	-0.3649585
49	0xbe873154	-0.26404822
50	0xbe9633c7	-0.29336378
51	0xbeaefeb6	-0.34178704
52	0xbe95eec8	-0.29283738
53	0xbe98b631	-0.298265
54	0xbea61e0e	-0.32444805
55	0xbe99b607	-0.30021688
56	0xbe8ba87a	-0.27276975
57	0xbe41906c	-0.18902749
58	0xbeb36004	-0.35034192
59	0xbe8f09aa	-0.2793706
60	0xbeaa620a	-0.33277923
61	0xbe8a697e	-0.2703361
62	0xbeaa8650	-0.33305597
63	0x3e47bc7e	0.19505498

bn3.running_mean f4 [64]
0	0x40813771	4.0380177
1	0xc062d6f0	-3.5443687
2	0x402b8bf8	2.680418
3	0x402b296d	2.6744034
4	0xc0bd8cc0	-5.9234314
5	0x400c6638	2.193739
6	0x4015d118	2.340887
7	0x3fb2f38f	1.3980578
8	0xc02430d6	-2.5654807
9	0x3ff0d85f	1.8816031
10	0x3fea371a	1.8298066
11	0xbf9c6ec9	-1.2221309
12	0x400268e7	2.0376527
13	0xc0899b6e	-4.3002234
14	0x4080aed0	4.0213394
15	0x3ff1f04a	1.8901455
16	0xc0ca0549	-6.313145
17	0xc027f75d	-2.6244729
18	0x4012f5fd	2.296264
19	0xc0cdbccc	-6.4292965
20	0x4002d232	2.0440793
21	0xbfdf414a	-1.74418
22	0x3fe40ec6	1.7817008
23	0x3f7e6730	0.993762
24	0xc090be48	-4.5232277
25	0x3e5dbe7d	0.21654697
26	0x40115942	2.2710729
27	0x40089ce5	2.134576
28	0xc067d82e	-3.6225696
29	0x40196cbb	2.3972614
30	0xbeca2f31	-0.3948913
31	0x3fc78001	1.5585939
32	0x3fb01673	1.3756851
33	0x3f8323cc	1.0245299
34	0x4071a0b6	3.775434
35	0x400b5a18	2.177374
36	0x3fb07d13	1.378817
37	0x405793ea	3.368403
38	0x404db39d	3.2140877
39	0xc0d0dc7b	-6.526914
40	0x40218518	2.5237484
41	0x40474236	3.1134162
42	0x402f14e6	2.7356505
43	0x3ff5663e	1.9171827
44	0x3ffabe28	1.9589281
45	0x3f7228d3	0.9459354
46	0xbf129b81	-0.5726853
47	0x3f87e3a5	1.0616347
48	0x3e87d466	0.26529235
49	0x401c3a06	2.4410415
50	0x4045b4fc	3.0891714
51	0x404cc0a1	3.1992571
52	0x3fae470f	1.3615435
53	0xbf7463db	-0.9546487
54	0x40551823	3.3295982
55	0x3ff09587	1.8795632
56	0xc0c2f5fa	-6.0925264
57	0xbddc5d4c	-0.107599825
58	0x3ecab1de	0.39588827
59	0x401b3ae0	2.4254684
60	0x3f665885	0.8997882
61	0x401fc809	2.4965842
62	0x407a4ac0	3.9108124
63	0xc08033eb	-4.0063376

bn3.running_var f4 [64]
0	0x41d8d638	27.104599
1	0x41019a68	8.100197
2	0x4146bd8e	12.421278
3	0x412d7ae5	10.842504
4	0x426020f3	56.032177
5	0x411a0ccd	9.628125
6	0x4108e7fd	8.556638
7	0x41863617	16.776411
8	0x414e7622	12.903841
9	0x423ed461	47.7074
10	0x40dc6e6d	6.8884797
11	0x418246cc	16.284569
12	0x410aaee3	8.667697
13	0x42868b13	67.27163
14	0x41e1e481	28.236574
15	0x4103c048	8.234444
16	0x428777ed	67.73423
17	0x42154a2a	37.322426
18	0x4119f974	9.623402
19	0x42610cb5	56.26241
20	0x4103aa0c	8.229015
21	0x4134bf2c	11.296673
22	0x40e023d7	7.004375
23	0x4142ad46	12.167303
24	0x425a136b	54.518963
25	0x41a558fb	20.668447
26	0x40f3a8ed	7.614371
27	0x4179c716	15.611105
28	0x4196b0f4	18.836403
29	0x41161bb5	9.381764
30	0x41851c58	16.63884
31	0x418bccd2	17.47501
32	0x40ea516f	7.3224406
33	0x41aa34a5	21.275705
34	0x4209f98c	34.4937
35	0x4110755d	9.028653
36	0x410d8d17	8.846946
37	0x41bc1217	23.508833
38	0x4176a247	15.4146185
39	0x4295c9f5	74.89445
40	0x4106d104	8.426029
41	0x418889fd	17.067377
42	0x41578b0b	13.471446
43	0x410849b6	8.517996
44	0x410f1e8b	8.944957
45	0x40e62a7a	7.192685
46	0x419eedf9	19.866198
47	0x40e61c03	7.1909194
48	0x41883914	17.02787
49	0x4112a7c6	9.16596
50	0x418a1148	17.258438
51	0x4178838a	15.532114
52	0x4100ce14	8.050312
53	0x411e82f0	9.906967
54	0x41cf1828	25.886795
55	0x418c290b	17.52004
56	0x425e5475	55.582478
57	0x41261a19	10.3813715
58	0x41816902	16.176273
59	0x410e725e	8.902922
60	0x4192c594	18.346474
61	0x4144b509	12.294198
62	0x41fc5142	31.539677
63	0x40e1e846	7.0596037

fc1.weight f4 [128, 1024]
0	0x3d40ecc3	0.047100794
1	0xbbe5dd18	-0.007014882
2	0xbe0145e5	-0.12624319
3	0x3c7e67d3	0.015527683
4	0xbdc216d4	-0.0947701
5	0xbeb5fa99	-0.35542753
6	0xbe708bbb	-0.23490803
7	0xbcd64725	-0.026156971
8	0xbd2ecc8e	-0.042675547
9	0xbeb3ed1e	-0.35141844
10	0xbea6bc17	-0.32565376
11	0xbdeb1f80	-0.114806175
12	0x3c8b2480	0.016985178
13	0xbe8769f2	-0.26448017
14	0xbe6c2287	-0.23060046
15	0x3c109d4f	0.008826568
16	0xbc9c877f	-0.019107578
17	0x3d5a1dd7	0.053251114
18	0x3d96e0a5	0.07367066
19	0x3c962bca	0.018331427
20	0x3e39511a	0.18097344
21	0x3e119ce5	0.14220007
22	0x3e091a24	0.13388878
23	0x3e191208	0.14948285
24	0x3cca1a3b	0.02467071
25	0xb8c9df14	-9.6259784e-05
26	0xbcabaef5	-0.02095745
27	0x3e03acbe	0.12858865
28	0x3d4f96d3	0.050680947
29	0x3c2dafa5	0.010600959
30	0xbc8f3900	-0.017483234
31	0x3cc1cd3c	0.023657434
32	0x3cd2be42	0.025725488
33	0xbdd755e8	-0.10514432
34	0xbe1dd925	-0.15414865
35	0x3cf02d73	0.029318547
36	0xbd9ca4e3	-0.07648637
37	0xbeb6e29b	-0.3571976
38	0xbe80bddf	-0.2514486
39	0xbd259af9	-0.040430997
40	0xbd399ff9	-0.045318577
41	0xbeaa1b0e	-0.33223766
42	0xbebf66e2	-0.3738318
43	0xbe070465	-0.1318527
44	0x3d71515c	0.05891548
45	0xbe9fca92	-0.31209236
46	0xbe714428	-0.23561156
47	0x3904ed20	0.00012676837
48	0xbd19de37	-0.037565436
49	0xbe285683	-0.16439252
50	0xbe64e804	-0.22354132
51	0x3cb4e0ea	0.022079904
52	0xbe0c231c	-0.13685268
53	0xbe908b97	-0.282315
54	0xbe92413f	-0.28565404
55	0xbc53ed5f	-0.012935012
56	0xbdc678cd	-0.0969101
57	0xbeb7bd6a	-0.358867
58	0xbed80cd0	-0.42197275
59	0xbe227f7a	-0.15868941
60	0xbb8dfacb	-0.0043328754
61	0xbe237f81	-0.15966608
62	0xbd6ff1c9	-0.058580194
63	0x3d50669f	0.050879117
64	0x3d40f352	0.04710705
65	0x3d446d3e	0.047955744
66	0xbba21fd2	-0.004947641
67	0x3c9d737d	0.019220108
68	0x3b95a606	0.0045669107
69	0xbd1cc075	-0.03826948
70	0x3c1fb536	0.009747794
71	0xbc36a822	-0.011148484
72	0x3be19ebf	0.006885379
73	0x3ac0c25e	0.0014706363
74	0xbb0faaf3	-0.0021921962
75	0x3bf95a5a	0.0076096477
76	0x3d6f8920	0.058480382
77	0x3d5e97da	0.054344036
78	0x3c495ab3	0.012289691
79	0x3c886153	0.01664797
80	0x3cc9b35a	0.024621654
81	0xbda7d972	-0.08195771
82	0xbe65944d	-0.22419854
83	0x3c54ee05	0.012996201
84	0xbddad074	-0.106842905
85	0xbe9df195	-0.30848375
86	0xbe8e2220	-0.2776041
87	0x3d8dfe10	0.06933224
88	0xbd00f229	-0.031480942
89	0xbec6b886	-0.38812655
90	0xbed75ed4	-0.42064536
91	0xbdb7d2e8	-0.08975774
92	0x3cb5e6e0	0.022204816
93	0xbe5bc093	-0.2146018
94	0xbdff3182	-0.12460615
95	0xbb46ba89	-0.0030323586
96	0x3b171ff0	0.0023059808
97	0xbe49f955	-0.19724019
98	0xbe523a41	-0.20530035
99	0x3ce10cc5	0.02747191
100	0xbdceadd1	-0.100917466
101	0xbe79c8e2	-0.24393037
102	0xbea78e51	-0.32725766
103	0xbcf7460c	-0.030184768
104	0xbdfc56a1	-0.12321211
105	0xbeb1ebb8	-0.34750152
106	0xbeedf9b1	-0.46479562
107	0xbe222b93	-0.15836935
108	0xbc8e60a9	-0.017380076
109	0xbe19912a	-0.14996782
110	0xbd9ae8fc	-0.075639695
111	0x3d3a4296	0.045473658
112	0xbe119d42	-0.14220145
113	0xbe38df0e	-0.18053839
114	0xbe98cf7b	-0.29845795
115	0xbdbf0f06	-0.09329037
116	0xbe1a4c0f	-0.15068077
117	0xbe0c3a7c	-0.13694185
118	0xbe898ad2	-0.26863724
119	0xbda1f6af	-0.07908379
120	0xbe8154e3	-0.25260076
121	0xbee2a3ff	-0.44265744
122	0xbeeb81f5	-0.45997587
123	0xbe413f76	-0.18871865
124	0xbb92b33b	-0.0044769323
125	0xbd2a8d0e	-0.041638426
126	0xbce5fd02	-0.028074745
127	0x3d235134	0.039872363
128	0x3a2149df	0.000615267
129	0x3d9e0fec	0.077178806
130	0x3de97307	0.11398893
131	0x3d902e86	0.07040124
132	0x3e13eb99	0.14445342
133	0x3e0ac098	0.13550031
134	0x3dca93a3	0.09891441
135	0x3e621ab7	0.22080503
136	0x3d765f48	0.06014946
137	0xbbda70cf	-0.00666628
138	0xbc1bf7ba	-0.009519512
139	0x3de55473	0.11197748
140	0x3d4ee004	0.050506607
141	0x3cf37fc2	0.029724006
142	0x3d6b8b72	0.057506032
143	0x3dafb164	0.085787565
144	0x3d6c8cfe	0.057751648
145	0x3d6c5d6e	0.05770629
146	0x3d03a2a2	0.03213752
147	0x3db8d04a	0.09024103
148	0xbcae1424	-0.021249838
149	0x395e40f2	0.00021195764
150	0x3c61520f	0.013752474
151	0x3d7076f3	0.05870719
152	0xba8cf253	-0.0010753371
153	0xbca53014	-0.020164527
154	0x3b18c13f	0.0023308543
155	0xbd1f9edc	-0.03896986
156	0x3d03f26f	0.032213625
157	0xbd46bf51	-0.048522297
158	0xbb843daf	-0.0040356736
159	0x3d009949	0.031396184
160	0xbb89eb14	-0.0042089317
161	0xbe48cfbe	-0.19610497
162	0xbe8687e2	-0.26275545
163	0xbce94d9c	-0.02847939
164	0xbe03369a	-0.12813798
165	0xbe86c274	-0.2632023
166	0xbea8c887	-0.3296549
167	0xbc674d53	-0.014117557
168	0xbd69e1b9	-0.05710003
169	0xbea61c11	-0.32443288
170	0xbeddd024	-0.4332286
171	0xbe314bcc	-0.1731407
172	0xbb840a64	-0.004029559
173	0xbe396793	-0.18105917
174	0xbdc912af	-0.09818017
175	0x3d855536	0.06510393
176	0xbd6f19fd	-0.058374394
177	0x3d0137ae	0.03154724
178	0xbc3151bf	-0.010822712
179	0x3c5008ad	0.012697381
180	0x3a5ef4d1	0.00085051084
181	0xbc486b46	-0.012232607
182	0xbd11b257	-0.03557047
183	0xba9182e3	-0.0011101629
184	0xbda3506f	-0.07974326
185	0xbdc750ce	-0.09732209
186	0xbcfaa654	-0.03059689
187	0xba796b31	-0.0009514569
188	0xbc91d854	-0.017803349
189	0x3db5132d	0.08841548
190	0x3d5f3519	0.054493997
191	0x3d885715	0.066572346
192	0xbc64fc4a	-0.013976166
193	0xbe25c025	-0.16186579
194	0xbe74b183	-0.2389584
195	0x3b72154e	0.0036938968
196	0xbdfec1ad	-0.124392845
197	0xbea10ad7	-0.31453583
198	0xbe93938d	-0.2882351
199	0x3cefdc74	0.029279925
200	0xbd92cbd4	-0.071677834
201	0xbeaa89cc	-0.33308256
202	0xbec3d7d1	-0.38250592
203	0xbdf64055	-0.12023989
204	0x3c8ab2f1	0.016931029
205	0xbe47cca1	-0.19511653
206	0xbddebb44	-0.10875562
207	0x3c9ca84f	0.019123225
208	0x3c68a2e6	0.014198994
209	0xbc23f00b	-0.010005961
210	0xbca100da	-0.019653726
211	0x3ccfc5a3	0.025362795
212	0xbd4d7d0d	-0.050168086
213	0xbcf0f04e	-0.029411461
214	0xbd6e18e9	-0.058129225
215	0xbd6584c1	-0.056034807
216	0x3b6a80e5	0.0035782394
217	0x3c979e66	0.018508147
218	0xbc0d07d7	-0.008607826
219	0xbce8aef8	-0.028403744
220	0xbc863a9a	-0.016385365
221	0xbc64d208	-0.013966091
222	0x3d0d1235	0.03444119
223	0x3d5ec5d7	0.054387894
224	0x3d7cb76c	0.061698362
225	0x3c70c515	0.0146954255
226	0xbdaa63fb	-0.08319851
227	0x3d221743	0.039572965
228	0xbdf68320	-0.12036729
229	0xbe9c5543	-0.305338
230	0xbe645647	-0.22298537
231	0x3d13c404	0.036075607
232	0xbe0e46ca	-0.13894191
233	0xbe9329a8	-0.2874272
234	0xbe8a0e2b	-0.26963934
235	0xbda8456d	-0.08216367
236	0xbda8fc17	-0.08251207
237	0xbe9cce12	-0.3062597
238	0xbe627a01	-0.22116853
239	0x3c145c5d	0.009055224
240	0x3d4cedea	0.05003158
241	0xbde4d394	-0.11173168
242	0xbe57ebd9	-0.21086062
243	0x3cd08a4e	0.025456574
244	0xbddf4c57	-0.109032325
245	0xbe8bcdb8	-0.27305388
246	0xbe95eebb	-0.292837
247	0xbc70e7f8	-0.014703743
248	0xbcba6de3	-0.022757476
249	0xbe96f9c1	-0.29487422
250	0xbeadf769	-0.3397782
251	0xbe010644	-0.12600046
252	0x3d6983c0	0.057010412
253	0xbe98d3bf	-0.2984905
254	0xbe6483b1	-0.22315861
255	0x3d5a4552	0.053288765

fc1.bias f4 [128]
0	0x3e0b33a2	0.13593915
1	0xbb791ea1	-0.003801264
2	0xbbb05d92	-0.005382248
3	0xbd19b9e2	-0.037530787
4	0xbde3f545	-0.11130766
5	0x3bcbd647	0.006220612
6	0xbe0200af	-0.12695573
7	0x3bf49636	0.0074641956
8	0xbce24eab	-0.027625402
9	0x39c7205d	0.0003798035
10	0x3c9763db	0.018480232
11	0x3ddd2035	0.10797159
12	0x3cb1bfce	0.021697905
13	0xbcafd608	-0.021464363
14	0xbcc5db46	-0.02415241
15	0xbc4d3965	-0.012525891
16	0xbc9ca811	-0.019123109
17	0xbc95c64a	-0.018283028
18	0x3c1ba483	0.009499672
19	0xbe01badf	-0.12668942
20	0xbb80e03e	-0.0039329818
21	0xbdbdb201	-0.09262467
22	0xbe307fa2	-0.17236188
23	0xbbad36d4	-0.005286077
24	0x3dddb6c0	0.108258724
25	0xbca8ad18	-0.02059035
26	0xbd117962	-0.03551615
27	0xbe1b5dfe	-0.15172574
28	0x3c819961	0.015820207
29	0xbd5f9182	-0.054582126
30	0x3c0bc1a7	0.008530057
31	0xbc1b2880	-0.009470105
32	0xbcb62a62	-0.022237007
33	0xbc1cd2ce	-0.009571744
34	0x3c536dcc	0.012904596
35	0x3e064573	0.1311243
36	0xbd99e29d	-0.07513926
37	0xbd6ff6f3	-0.05858512
38	0xbe10417c	-0.1408748
39	0xb98c9799	-0.0002681583
40	0x3e207955	0.15671284
41	0x3c8ed8d8	0.017437384
42	0x3da3dd72	0.08001222
43	0x3ca55d20	0.020186007
44	0x3cb4a40c	0.02205088
45	0xbd10cf93	-0.03535421
46	0x3ca78c9f	0.020452796
47	0x3e4da57c	0.20082659
48	0xbcb23e19	-0.021758126
49	0xbbc9bac1	-0.006156296
50	0xbc997346	-0.018731724
51	0xbe3db591	-0.18526293
52	0xbce84bbb	-0.028356424
53	0x3e438c67	0.19096528
54	0xbbccdf9f	-0.0062522436
55	0xbd53b256	-0.051683746
56	0xbcca2f3b	-0.024680724
57	0x3a8c1b0d	0.0010689214
58	0xbcfcd24d	-0.030861998
59	0x3dfe2015	0.12408463
60	0x3e2a63a6	0.16639575
61	0x3b3a1c22	0.0028398116
62	0x3c503431	0.012707756
63	0x3dd7663c	0.105175465
64	0x3e35e96e	0.17764828
65	0x3ab57db5	0.0013846668
66	0xbc32fcc1	-0.010924519
67	0xbe27d50d	-0.16389866
68	0xbe2448d7	-0.16043411
69	0xbd0df703	-0.034659397
70	0xbcf6cffd	-0.030128473
71	0xbc32fb5f	-0.010924189
72	0xbd2fdd19	-0.042935465
73	0xbbf8a2f6	-0.007587786
74	0xbdcc392d	-0.09971843
75	0xbe1a6d9f	-0.1508088
76	0xbd06f5a7	-0.032949116
77	0xb89401dc	-7.057536e-05
78	0x3abd51cc	0.0014443933
79	0xbd794483	-0.060856353
80	0xbdc38c37	-0.09548228
81	0x3de11cc4	0.10991815
82	0xbe378dfd	-0.17925258
83	0x3e4b9481	0.19880868
84	0x3c2613f7	0.010136596
85	0xbad191f1	-0.0015988928
86	0x3e723f53	0.23656969
87	0xbd077d19	-0.033078287
88	0x3dd4c98a	0.10390003
89	0xbc5398ac	-0.012914818
90	0x3e02a62e	0.12758705
91	0xbc99f866	-0.018795203
92	0xbdc37415	-0.09543625
93	0x3e2b21db	0.16712134
94	0x3b1d17fb	0.0023970592
95	0xbe4dc29a	-0.20093766
96	0xbe4e6737	-0.20156561
97	0xbe3d42d3	-0.18482523
98	0x3c7bd025	0.01536945
99	0xbd010d18	-0.031506628
100	0xbc79cb32	-0.015246199
101	0xbcf372a9	-0.02971776
102	0xbdf838e6	-0.121202275
103	0x3c8e5991	0.017376693
104	0xbc8b7ea3	-0.017028159
105	0xbdacd0b9	-0.08438248
106	0xbd2efe9a	-0.042723276
107	0x3e5869b1	0.21134068
108	0xbe4948db	-0.19656698
109	0xbe449f96	-0.19201502
110	0xbc167656	-0.009183487
111	0xbcd2dddc	-0.025740556
112	0xbd122541	-0.03568006
113	0xbd073207	-0.033006694
114	0xbd016552	-0.031590767
115	0x3e211584	0.15730864
116	0x3ce57f33	0.028014755
117	0x3e06a915	0.13150437
118	0xbdc699f9	-0.09697337
119	0xbcc81365	-0.02442331
120	0xbe2488fb	-0.16067879
121	0xbd91ae30	-0.07113302
122	0xbc641100	-0.013920069
123	0xbe29795a	-0.16550198
124	0xbe127ed8	-0.143062
125	0x3e37625b	0.17908613
126	0x3c47ed05	0.012202506
127	0x3cd6e248	0.026230946
