checkpoints/trained_gap_64x64_20251211_202357.pth (torch, 140286 bytes, 22 tensors)

conv1.weight f4 [16, 3, 3, 3]
0	0xbe08a817	-0.13345371
1	0xbe6d1959	-0.231542
2	0x3bf85305	0.007578256
3	0xbda54fe4	-0.080718786
4	0xbcac546c	-0.02103635
5	0x3d998397	0.07495802
6	0x3de05347	0.10953384
7	0x3e46d38f	0.1941664
8	0x3d519b53	0.05117352
9	0x3dbc8c99	0.092065044
10	0xbe68133b	-0.22663586
11	0xbe2b9f44	-0.16759974
12	0x3d323b9c	0.04351388
13	0x3e277ae2	0.1635547
14	0xbd64dbaf	-0.05587357
15	0x3e3983c4	0.18116671
16	0xbdb29cd6	-0.0872132
17	0xbdeedf15	-0.11663643
18	0x3de2a07a	0.11065765
19	0xbe407398	-0.18794096
20	0xbe5872d7	-0.21137558
21	0xbded016e	-0.11572538
22	0xbdd70fe7	-0.1050108
23	0xbde8bcdd	-0.11364148
24	0x3e26a1e6	0.16272697
25	0x3e55bf45	0.20873745
26	0x3e2cf52c	0.168904
27	0xbdb00d0f	-0.08596241
28	0x3e1b51f6	0.15167984
29	0x3c81548b	0.015787384
30	0xbe086f1b	-0.13323633
31	0xbe0abc47	-0.13548385
32	0x3dcf8ed6	0.10134666
33	0xbd0c47db	-0.034248214
34	0x3e1a6459	0.15077342
35	0xbd801b7a	-0.06255241
36	0xbdb45444	-0.08805135
37	0x3e1df25a	0.15424481
38	0x3e61bf08	0.22045529
39	0xbdf90994	-0.1216003
40	0xbdd59882	-0.10429479
41	0xbdcce54e	-0.10004674
42	0xbdbbfd14	-0.0917913
43	0xbe5706b1	-0.20998646
44	0xbd0772d0	-0.033068478
45	0xbc978a09	-0.018498437
46	0x3e20f75d	0.15719362
47	0x3e50c010	0.20385766
48	0x3dcce464	0.100044996
49	0xbd99c41e	-0.075081095
50	0xbdc58d41	-0.09646083
51	0x3d344f6e	0.044021063
52	0x3c6e042d	0.014527363
53	0xbdc042f7	-0.093877725
54	0x3dded1f1	0.10879887
55	0x3d4c6221	0.04989827
56	0xbd5dfe2a	-0.054197468
57	0x3d7a71fb	0.061143856
58	0x3e2c4f8f	0.16827224
59	0x3ab61476	0.0013891596
60	0xbdcc3dcc	-0.09972724
61	0x3c856db5	0.016287664
62	0x3daee686	0.085400626
63	0x3e041a88	0.12900746
64	0x3d5c9d86	0.053861164
65	0x3cf4927f	0.029855011
66	0x3e094ecc	0.13408965
67	0xbdbff2d3	-0.09372487
68	0x3e0eaba6	0.13932666
69	0x3e0a9ee2	0.13537171
70	0x3e2eb622	0.17061666
71	0x3d03cf6a	0.032180227
72	0xbdd3a141	-0.10333491
73	0xbd13091f	-0.03589737
74	0x3d4a0e5a	0.049330093
75	0xbddf468d	-0.10902128
76	0xbd54a74e	-0.051917367
77	0xbd858602	-0.065197006
78	0x3e0254d0	0.12727666
79	0xbe2616f7	-0.16219698
80	0xbdb20607	-0.08692556
81	0x3dde962e	0.10868488
82	0xbdc209a0	-0.09474492
83	0x3dbfcdc8	0.093654215
84	0x3d060410	0.032718718
85	0x3cdf2265	0.02723808
86	0xbdbe7687	-0.09299951
87	0x3d88a61b	0.06672307
88	0xbd870734	-0.06593171
89	0x3d45ee91	0.048323218
90	0xbd50eac0	-0.051005125
91	0xbd434307	-0.047671344
92	0xbd92381e	-0.0713961
93	0xbdbcadf2	-0.09212865
94	0xbc01f4d8	-0.00793191
95	0xbe783dc1	-0.24242307
96	0x3d8622ee	0.06549631
97	0x3e2d56cc	0.16927642
98	0xbd3002a5	-0.042971272
99	0xbcf9db4f	-0.030500082
100	0x3decdc31	0.11565436
101	0xbe0bf6de	-0.13668391
102	0x3e3dcc6c	0.18535012
103	0xbc24b135	-0.010052015
104	0xbe827181	-0.25477222
105	0x3e66ba4f	0.22532009
106	0xbd2b9afc	-0.04189585
107	0xbdbe9f29	-0.09307701
108	0x3e046a33	0.12931137
109	0x3e6131fb	0.21991722
110	0x3da6be7b	0.081418
111	0xbd8fa917	-0.07014673
112	0xbd614a7c	-0.055002674
113	0xbe511eed	-0.20421953
114	0x3e130fd0	0.143615
115	0x3c429acd	0.011877728
116	0xbe4e9258	-0.20173013
117	0x3df1c7fb	0.11805721
118	0x3e377395	0.17915185
119	0xbe499ae6	-0.19687995
120	0x3e26ad8d	0.16277142
121	0x3cdf6772	0.027271006
122	0xbe066cd1	-0.13127448
123	0xbd07142f	-0.032978233
124	0x3d182367	0.037143137
125	0x3e1d17a2	0.15341046
126	0xbd7a4b39	-0.061106894
127	0xbdea91bd	-0.114535786
128	0xbe7b1280	-0.24518776
129	0xbdcbd86c	-0.099533886
130	0x3d06de70	0.032926977
131	0xbe3c2fdf	-0.18377636
132	0xbd7ae027	-0.061248925
133	0x3c4595d0	0.012059644
134	0x3d40f9ab	0.047113102
135	0x3e166d18	0.14690053
136	0x3cadbbbf	0.021207688
137	0x3e7b9d12	0.24571636
138	0xbd2d70fa	-0.04234407
139	0x3e026ebd	0.12737556
140	0xbcacb445	-0.021082053
141	0x3e124b8e	0.14286634
142	0xba1190ac	-0.0005552869
143	0x3e180217	0.14844547
144	0x3d231a0a	0.039819755
145	0x3de9752e	0.113993034
146	0xbcf536cb	-0.029933354
147	0x3e6e086c	0.232454
148	0x3e03e501	0.12880327
149	0x3e1ee449	0.15516771
150	0x3d8af0aa	0.06784184
151	0x3e331a66	0.17490539
152	0x3dc15386	0.09439759
153	0xbe3e4b12	-0.18583325
154	0xbc182420	-0.009285957
155	0xbd42cfc9	-0.04756144
156	0x3c13430b	0.008988152
157	0xbe28ab43	-0.16471581
158	0xbd9c614e	-0.07635747
159	0x3e353a11	0.17697932
160	0xbdff755e	-0.12473558
161	0x39e5bf8d	0.00043821
162	0x3db86b91	0.09004892
163	0x3da68856	0.08131473
164	0xbe181544	-0.14851862
165	0x3e365810	0.1780703
166	0x3e01e7f4	0.1268614
167	0x3e49bdcb	0.19701307
168	0x3aca169f	0.0015418119
169	0x3d811a45	0.06303839
170	0x3df9a211	0.12189115
171	0x3daec2a0	0.085332155
172	0x3c52d3d9	0.012867891
173	0x3db2ac5c	0.08724281
174	0x3e59c19b	0.21265261
175	0x3e1d0781	0.15334894
176	0x3d136153	0.035981487
177	0xbd82fdc8	-0.06396061
178	0x3dfa6271	0.122258075
179	0xbd0d1f6d	-0.034453798
180	0xbcf7c871	-0.030246945
181	0x3d6fc9d4	0.058542088
182	0x3dd5189b	0.10405084
183	0xbe0a4073	-0.13501148
184	0x3dac40a9	0.084107704
185	0x3c87c21f	0.016572056
186	0x3d1630ec	0.03666775
187	0x3d913597	0.070902996
188	0xbdbc2772	-0.09187211
189	0x3e474357	0.19459282
190	0xbbe10a70	-0.0068676993
191	0xbe1a84a2	-0.15089658
192	0x3e25f084	0.1620503
193	0xbda061f6	-0.078311846
194	0xbd409e52	-0.047025986
195	0xbc2dac35	-0.010600139
196	0xbe070d4c	-0.13188666
197	0x3e0c61d7	0.13709198
198	0xbda2593d	-0.07927177
199	0xbe41da75	-0.18930991
200	0xbeb0d131	-0.345346
201	0xbd9e63c7	-0.07733875
202	0xbde1b1a9	-0.11020214
203	0x3d16cc36	0.036815844
204	0x3e335d77	0.17516123
205	0x3d5d8679	0.05408332
206	0x3df0a3be	0.11749981
207	0xbdf11d15	-0.11773125
208	0xbd1cf7a2	-0.0383221
209	0xbd405290	-0.046953738
210	0x3e1973de	0.14985606
211	0x3de56f13	0.11202826
212	0xbd7bfb48	-0.061518937
213	0xbb1a7f76	-0.0023574508
214	0xbc6cfd28	-0.014464654
215	0x3d4ace31	0.049513046
216	0x3e430eb6	0.1904858
217	0xbd83e8a3	-0.06440856
218	0x3e0234d6	0.12715468
219	0xbdf4b52e	-0.1194862
220	0x3baf03e0	0.005341038
221	0x3e04a4bb	0.12953465
222	0xbdbaba04	-0.09117511
223	0xbcebfc53	-0.028806841
224	0xbe91d287	-0.28480932
225	0xbcb06024	-0.021530218
226	0x3dde56c6	0.108563945
227	0x3ce3b9ee	0.02779862
228	0xbd34b888	-0.044121295
229	0x3de865b1	0.11347521
230	0xbd8e6d76	-0.06954472
231	0x3d1f67c3	0.038917314
232	0xbe0fe8cf	-0.14053653
233	0xbe5256ed	-0.20540972
234	0xbdbc29b4	-0.09187642
235	0x3b38a76c	0.0028175963
236	0x3c384471	0.011246786
237	0x3d645a7d	0.05575036
238	0x3e4c46e1	0.19948913
239	0xbe34a247	-0.17640029
240	0x3e3490cc	0.1763336
241	0x3d4412f0	0.047869623
242	0xbe3cfb65	-0.18455274
243	0x3db2e1c6	0.08734469
244	0xbe499f7a	-0.19689742
245	0xbe60942a	-0.2193152
246	0xbe1ceb77	-0.15324198
247	0x3e4ad544	0.19807917
248	0x3e2ff7d9	0.1718439
249	0x3c99b819	0.018764542
250	0xbe00292b	-0.12515704
251	0x3e1938b2	0.14963034
252	0x3c945e66	0.018111419
253	0x3b9313cf	0.0044884454
254	0xbe0f48d2	-0.13992622
255	0xbc109067	-0.008823491

conv1.bias f4 [16]
0	0xbd940930	-0.07228315
1	0x3e043de8	0.1291424
2	0xbe046361	-0.12928535
3	0x3dfccf0d	0.12344179
4	0xbd7ae239	-0.0612509
5	0xbd963055	-0.07333437
6	0x3de9d955	0.11418406
7	0xbdeee97a	-0.11665626
8	0xbe42fe38	-0.1904229
9	0xbe2541ab	-0.16138332
10	0xbe3270bf	-0.17425822
11	0xbb99f463	-0.0046983226
12	0x3ccef258	0.025262043
13	0x3e1ea2df	0.15491818
14	0x3dcb4aec	0.099263996
15	0xbcc4c36e	-0.02401897

bn1.weight f4 [16]
0	0x3f8b758d	1.0895249
1	0x3f89fbb3	1.0779938
2	0x3f5456ab	0.82944745
3	0x3f769d8c	0.9633415
4	0x3f792d42	0.9733468
5	0x3f4beff6	0.79663026
6	0x3f4aa034	0.791507
7	0x3f795581	0.97396094
8	0x3f856759	1.0422164
9	0x3f860b1e	1.0472143
10	0x3f7c7808	0.98620653
11	0x3f805c88	1.0028238
12	0x3f8c4273	1.0957779
13	0x3f87a10b	1.0596021
14	0x3f73a098	0.9516692
15	0x3f8b3af9	1.0877372

bn1.bias f4 [16]
0	0xbdec3297	-0.11533087
1	0xbe158eac	-0.14605206
2	0xbe24ca56	-0.1609281
3	0xbe38f894	-0.18063575
4	0xbbdbd4ad	-0.0067087025
5	0xbe52695d	-0.20548005
6	0xbe08013a	-0.13281718
7	0xbe146763	-0.14492564
8	0xbdf3a96c	-0.11897549
9	0xbdc30319	-0.09522075
10	0xbe099811	-0.13436915
11	0xbe16dae1	-0.14731933
12	0xbdcdad5b	-0.100428306
13	0xbd865b9c	-0.06560442
14	0xbd7464d7	-0.05966648
15	0x3c5c4bea	0.013445834

bn1.running_mean f4 [16]
0	0xbea6a4df	-0.32547662
1	0x3c8bfa99	0.017087268
2	0x3eb709c3	0.35749635
3	0xbdd73d46	-0.10509734
4	0xbecc4184	-0.39893734
5	0x3f7b7688	0.9822774
6	0x3fa7e853	1.3117775
7	0xbecb43e6	-0.3970024
8	0xbee4de49	-0.4470084
9	0xbc7b375d	-0.015333024
10	0xbe429213	-0.19001035
11	0xbe30ea47	-0.1727687
12	0xbd51f5e3	-0.051259886
13	0x3e038d5d	0.12846895
14	0xbe9d05e1	-0.30668548
15	0xbd908585	-0.07056717

bn1.running_var f4 [16]
0	0x3e9e8f89	0.30968884
1	0x3e10a814	0.14126617
2	0x3e4e3844	0.20138651
3	0x3e2744c9	0.16334833
4	0x3e2202a4	0.1582132
5	0x3f59ffe1	0.85156065
6	0x3f8ab1ba	1.0835488
7	0x3e4031e4	0.18769032
8	0x3e1a2e0e	0.15056631
9	0x3e0eb6e7	0.13936959
10	0x3de1e2cb	0.110295855
11	0x3dbfaffa	0.09359737
12	0x3dbc33e9	0.091895886
13	0x3dfaf93e	0.122545704
14	0x3e49d5e3	0.19710498
15	0x3e03ee0e	0.1288378

conv2.weight f4 [32, 16, 3, 3]
0	0x3d018e65	0.03162994
1	0x3de0dc7c	0.10979554
2	0x3e23c20b	0.1599199
3	0xbd49232d	-0.049105812
4	0xbd93c782	-0.072157875
5	0x3e220d0f	0.15825294
6	0xbd49aca2	-0.0492369
7	0xbd7f8bd2	-0.062389202
8	0xb828d1d5	-4.0249743e-05
9	0xbd4728cb	-0.048622888
10	0xbb773dea	-0.0037726113
11	0x3d819c3e	0.06328629
12	0x3ccf7950	0.025326401
13	0x3d1763e1	0.036960486
14	0xbbc6778d	-0.006056732
15	0xbd2a5e20	-0.04159367
16	0xbd45d2db	-0.04829679
17	0xbe0d6338	-0.1380738
18	0xbbae3b84	-0.0053171534
19	0x3ca8e7ff	0.020618437
20	0xbcede0dc	-0.029037885
21	0xbd0c8e01	-0.034315113
22	0x3dab940f	0.08377849
23	0xbd90a530	-0.07062757
24	0x3d7a3211	0.061082903
25	0x3d885149	0.06656129
26	0x3ceee6b0	0.029162735
27	0x3dae8709	0.0852185
28	0xbd72af8b	-0.059249442
29	0x3e3d00ac	0.18457288
30	0xbd6464dd	-0.055760253
31	0x3c6574ff	0.014004945
32	0x3dde0d42	0.108423725
33	0x3d84a1da	0.06476183
34	0xbd024733	-0.031806182
35	0x3d44e954	0.04807408
36	0xbc81d93b	-0.015850654
37	0xbcdec596	-0.027193826
38	0x3e00f188	0.12592137
39	0x3db72007	0.089416556
40	0x3d1205f6	0.035650216
41	0x3e33fdc7	0.17577277
42	0x3dabaa0d	0.08382044
43	0x3d16a4df	0.036778327
44	0x3d841407	0.064491324
45	0x3d0f1f3b	0.034941893
46	0x3d8f8eaf	0.070096366
47	0xbd973de7	-0.07384854
48	0x3dae32c1	0.08505774
49	0xbcbc3762	-0.022975627
50	0xbb94059e	-0.004517271
51	0x3d4b483f	0.049629446
52	0x3af62628	0.0018779682
53	0x3d863f06	0.065549895
54	0xbd8e711d	-0.069551684
55	0x3d3a92ff	0.045550343
56	0xbd9f825f	-0.07788538
57	0xbd16fd0a	-0.03686241
58	0xbd9326a0	-0.071851015
59	0xbd9544f0	-0.072885394
60	0xbc35f473	-0.0111056445
61	0x3d36d7d1	0.044639412
62	0xbd837a1a	-0.064197734
63	0x3d6dde0e	0.058073096
64	0x3a73d243	0.0009301046
65	0x3e033835	0.1281441
66	0xbd5e4096	-0.054260813
67	0xbd5960c9	-0.053070817
68	0x3d4120aa	0.04715029
69	0x3d6274df	0.05528724
70	0x3da933dd	0.08261845
71	0x3da9a215	0.08282868
72	0xbcad4110	-0.021149188
73	0x3ca54d8f	0.020178584
74	0x3da0ed0f	0.07857715
75	0xbcb44e4d	-0.022009993
76	0xbd1057c1	-0.03523994
77	0xba9ffb34	-0.0012205602
78	0x3d472bac	0.048625633
79	0x3d97d4e3	0.07413652
80	0xbd08846d	-0.033329416
81	0xbcab2ec1	-0.020896317
82	0xbd71ce4f	-0.05903464
83	0x3c36dfef	0.011161788
84	0xbdbb1cf4	-0.09136382
85	0xbd4bd790	-0.049766123
86	0x3d175484	0.036945835
87	0x3d578d1a	0.0526248
88	0xbd729b8a	-0.059230365
89	0xbd613312	-0.054980345
90	0xbdd0eb20	-0.102010965
91	0xbb1fa7df	-0.0024361534
92	0xbc30a7aa	-0.010782162
93	0xbdb4b0c7	-0.0882278
94	0xbde64c81	-0.11245061
95	0xbccb5526	-0.024820875
96	0xbaea6d2d	-0.001788532
97	0xbdfd0087	-0.12353616
98	0xbded8f73	-0.115996264
99	0x3d43242f	0.04764193
100	0xbb8966cd	-0.004193163
101	0x3dfd2626	0.12360792
102	0xbdc47981	-0.095934875
103	0xbdeaad65	-0.11458854
104	0xbc547190	-0.012966529
105	0xbd6981a7	-0.05700841
106	0x3d0f9d10	0.035061896
107	0xbd89bced	-0.06725488
108	0xbdac2b79	-0.08406729
109	0x3cdc2e0b	0.026877424
110	0x3d970945	0.07374815
111	0xbd6ffac3	-0.058588754
112	0x3d56fbbe	0.052486174
113	0x3d7f2dff	0.062299725
114	0xbd8ce015	-0.06878678
115	0x3d0bd527	0.034138825
116	0x3cb3062f	0.021853535
117	0xbe37fc9a	-0.17967454
118	0xbd6cea82	-0.05784083
119	0xbca7431a	-0.020417739
120	0xbdbdf1ab	-0.0927461
121	0xbc940be9	-0.018072085
122	0x3d61a067	0.055084612
123	0xbd3ec92f	-0.046578582
124	0xbda85468	-0.08219224
125	0x3d574007	0.052551296
126	0xbdb523b3	-0.088447
127	0xbda6e2fc	-0.081487626
128	0x3db868c2	0.09004356
129	0xbd25994e	-0.040429406
130	0xbe0d6db1	-0.13811375
131	0x3d164c62	0.036693938
132	0xbc64a5d5	-0.013955553
133	0xbc59c1b7	-0.013290814
134	0xbd804e2b	-0.06264909
135	0xbdfada6c	-0.12248692
136	0xbd46b3c8	-0.048511297
137	0xbd83f8bc	-0.06443927
138	0xbd4a4c49	-0.049389157
139	0xbdfd5ef4	-0.123716265
140	0x3d0dc0e0	0.034607768
141	0xbdcb6729	-0.099317856
142	0x3c5dc2a6	0.013535177
143	0x3da790e0	0.081819296
144	0x3cd0675e	0.025439914
145	0xbc7cdf29	-0.015434065
146	0xbdcaa736	-0.09895174
147	0xbc771439	-0.015080505
148	0xbb9db47d	-0.0048127756
149	0x3d93ddce	0.0722004
150	0x3d3c1ed6	0.045927845
151	0x3e0ace3f	0.13555239
152	0x3cb07e59	0.021544622
153	0x3d459456	0.048237167
154	0x3d6bd8a6	0.05757966
155	0x3da4db2f	0.080496185
156	0xbce40414	-0.027833976
157	0x3c5bfc2d	0.013426823
158	0x3db5ac44	0.08870748
159	0xbdc817f1	-0.097701915
160	0x3d058f54	0.03260739
161	0x3dbea53b	0.09308859
162	0xbbb1ff00	-0.0054320097
163	0xbcf54244	-0.029938824
164	0x3c0d9c16	0.008643171
165	0xbd346b97	-0.04404792
166	0x3d799c71	0.06094021
167	0x3bdfff76	0.0068358732
168	0xbd8d2389	-0.068915434
169	0xbd5d8bdd	-0.054088462
170	0x3d419f38	0.047270983
171	0x3d5163d2	0.051120587
172	0x3c95fe0f	0.018309621
173	0xbdc37ee8	-0.0954569
174	0x3ce7b81b	0.02828603
175	0xbd7ac0bf	-0.061218973
176	0xbd353bc5	-0.044246454
177	0x3de578ce	0.11204682
178	0x3d5445b0	0.05182427
179	0x3c98f137	0.018669708
180	0x3ca0bfa4	0.019622631
181	0x3cf7e449	0.030260222
182	0x3cbefc8d	0.023313785
183	0x3cba4693	0.02273873
184	0xbcf49309	-0.029855268
185	0x3b601adf	0.0034195704
186	0x3dfc314e	0.123140916
187	0xbd926189	-0.071475096
188	0xbddd61d2	-0.10809673
189	0x3cdd861c	0.027041487
190	0xbcf63b92	-0.030057702
191	0x3d5a0bd3	0.053233933
192	0x3d88ab73	0.06673326
193	0xbcbccbde	-0.02304643
194	0x3dc4db23	0.096121095
195	0x3db38f28	0.08767539
196	0x3bd9c848	0.00664619
197	0x3bd92db1	0.0066277613
198	0xbc31ca4c	-0.010851454
199	0x3dbb8264	0.091557294
200	0xbd2ceabb	-0.042216044
201	0xbcd70422	-0.026247088
202	0x3c3404c0	0.010987461
203	0x3cdc81c3	0.026917344
204	0x3db7e98f	0.08980095
205	0x3cf40654	0.029788174
206	0xba7f5a5e	-0.0009740944
207	0x3d4ae556	0.049535118
208	0xbdb935e5	-0.09043483
209	0xbd391c97	-0.04519328
210	0x3cbc6d29	0.02300127
211	0x3d82f940	0.06395197
212	0x3b77e5de	0.003782622
213	0x3d85352e	0.06504284
214	0x3d7cf04b	0.0617526
215	0x3d3996d0	0.04530984
216	0x3d34a818	0.04410562
217	0x3d9f7d12	0.07787527
218	0x3ce9e8f5	0.028553465
219	0x3d888b17	0.06667154
220	0xbd412c7b	-0.04716156
221	0xbd567e21	-0.05236638
222	0x3d9d427d	0.07678697
223	0xbc7dc8ce	-0.01548977
224	0x3c426d73	0.011866915
225	0x3da8cc7c	0.08242127
226	0x3d35efc1	0.0444181
227	0x3c081c3c	0.008307513
228	0x3cd3ed50	0.025869995
229	0x3e0b5b7c	0.13609117
230	0x3d6ac920	0.057320714
231	0x3d883779	0.066512056
232	0x3d9e4399	0.07727737
233	0x3dcc6937	0.09981006
234	0x3d3fd425	0.046833176
235	0x3cedb4b0	0.029016823
236	0xbb851e03	-0.0040624156
237	0x3d42e7cf	0.04758435
238	0x3c58d2f1	0.013233886
239	0x3e084b60	0.13310003
240	0xbe181500	-0.14851761
241	0xbc6924bc	-0.01422995
242	0x3c5c9ad9	0.013464653
243	0xbd56d073	-0.052444886
244	0xbc3bcfc1	-0.011463107
245	0xbc8e2952	-0.017353687
246	0x3d1d1df1	0.038358632
247	0x3dcf47bd	0.10121105
248	0x3ccc9747	0.024974478
249	0x3d71411b	0.05889998
250	0xbbff0798	-0.0077828877
251	0x3d2a0396	0.041507326
252	0x3dfd5088	0.12368876
253	0xbcd7280e	-0.026264217
254	0x3c73eb36	0.014887622
255	0x3e040c99	0.1289543

conv2.bias f4 [32]
0	0xbd221509	-0.039570842
1	0x3c133ff9	0.00898742
2	0x3da3fb91	0.08006967
3	0x3d9c76cd	0.07639847
4	0xbca812dd	-0.020516807
5	0x3da73d60	0.08166003
6	0xbcb48715	-0.022037068
7	0x3c11a0ce	0.0088884365
8	0xbbf096db	-0.007342202
9	0xbccdd2df	-0.025124965
10	0x3d20937d	0.039203156
11	0xbceffd4f	-0.029295592
12	0x3c1acef1	0.009448753
13	0x3d94aefa	0.07259937
14	0x3d5e362b	0.054250877
15	0x3c65bc73	0.014021981
16	0x3bf35707	0.007426146
17	0xbc32cf99	-0.010913753
18	0x3cf1d87c	0.029522173
19	0x3dafbd22	0.08580996
20	0x3a320809	0.00067913585
21	0xbd83d427	-0.06436949
22	0x3c2da80c	0.0105991475
23	0x3d82cd49	0.06386811
24	0xbd40c7a4	-0.047065392
25	0xbd08597b	-0.03328846
26	0xbcf36531	-0.029711338
27	0x3cfb2c8b	0.030660888
28	0x3d61d737	0.055136885
29	0xbd3447a0	-0.04401362
30	0x3cffc676	0.031222563
31	0x3daa8cd2	0.083276406

bn2.weight f4 [32]
0	0x3f7e9ab6	0.9945482
1	0x3f81bc98	1.0135679
2	0x3f841d4c	1.0321441
3	0x3f9152dd	1.1353413
4	0x3f6aa161	0.91652495
5	0x3f829b61	1.0203668
6	0x3f6fcf34	0.9367554
7	0x3f831d02	1.0243227
8	0x3f70421a	0.9385086
9	0x3f773726	0.96568525
10	0x3f7fbd8c	0.998986
11	0x3f4ee139	0.8081241
12	0x3f6b8b3c	0.9200933
13	0x3f75e43c	0.96051383
14	0x3f730891	0.94934946
15	0x3f77c1a6	0.9677986
16	0x3f81e600	1.0148315
17	0x3f78325d	0.9695185
18	0x3f89978f	1.0749377
19	0x3f830006	1.0234382
20	0x3f6bafb8	0.92065
21	0x3f74fedd	0.9570139
22	0x3f82a2b8	1.0205908
23	0x3f79d701	0.97593695
24	0x3f886b4e	1.0657747
25	0x3f75daba	0.96036875
26	0x3f8416dd	1.0319477
27	0x3f7e5372	0.9934608
28	0x3f7f2e43	0.99679965
29	0x3f855370	1.0416088
30	0x3f6d53b9	0.92705876
31	0x3f684118	0.90724325

bn2.bias f4 [32]
0	0xbdf0d968	-0.11760217
1	0xbdf2ddc2	-0.11858703
2	0xbdb5a81e	-0.088699564
3	0x3dc7db7b	0.097586595
4	0xbe0ca6e2	-0.13735536
5	0xbe0604ed	-0.13087817
6	0xbd61cd75	-0.05512758
7	0xbe08c3d2	-0.1335595
8	0xbdbda539	-0.09260029
9	0xbe6aa1f0	-0.22913337
10	0xbebcb677	-0.3685796
11	0xbe789df1	-0.24279
12	0xbdc77bc7	-0.097404055
13	0xbed1e5c4	-0.4099561
14	0xbdbd64ff	-0.09247779
15	0xbdd44412	-0.10364546
16	0xbdd6a3c5	-0.10480455
17	0xbd27cb56	-0.0409654
18	0xbd0be04c	-0.034149453
19	0xbe222e3c	-0.1583795
20	0xbe0985d4	-0.13429958
21	0xbe535866	-0.2063919
22	0xbe1af41f	-0.15132187
23	0xbdf234a9	-0.118264504
24	0xbe6d0c6b	-0.23149268
25	0xbd241349	-0.040057454
26	0x3cab5ca4	0.020918198
27	0xbd5a0ad5	-0.053232986
28	0xbc25f4e3	-0.010129186
29	0xbcda0a3c	-0.026616208
30	0xbca6102a	-0.02027138
31	0xbda06221	-0.078312166

bn2.running_mean f4 [32]
0	0xbe45aeeb	-0.19305007
1	0x3f93cc6f	1.1546763
2	0x3dcaf431	0.09909857
3	0xbf5f43a0	-0.8721256
4	0xbf07ea31	-0.5309172
5	0x3f43fc58	0.7655692
6	0xbf82b864	-1.0212522
7	0xbdd55044	-0.104157
8	0x3e128893	0.14309911
9	0x3f6e68e3	0.93128794
10	0x3f6af395	0.91777927
11	0x3dc395d0	0.09550059
12	0xbdceb701	-0.10093499
13	0x3f939f2e	1.1532953
14	0x3f3dfbcf	0.74212354
15	0x3f803a42	1.0017779
16	0x3f068661	0.52548796
17	0xbf9537a2	-1.1657603
18	0xbf8c7d6a	-1.0975773
19	0x3ebc4b3e	0.36776155
20	0xbed8bf90	-0.4233365
21	0x3e84c783	0.25933465
22	0x3f6bd6db	0.9212472
23	0x3f8142dc	1.0098529
24	0x3eafe94a	0.34357673
25	0xbf04e229	-0.51907593
26	0xbfed22b5	-1.8526217
27	0x3ef9b0f5	0.4876782
28	0xbf2485f2	-0.64266884
29	0xbfc17220	-1.5112953
30	0xbf8196ed	-1.0124184
31	0xbf63b13d	-0.8894232

bn2.running_var f4 [32]
0	0x40061c3e	2.0954738
1	0x403ab3df	2.9172285
2	0x3f7a915a	0.9787804
3	0x3fe35b1a	1.7762177
4	0x3fa292dd	1.2701069
5	0x3fdde34f	1.7334994
6	0x401b3cac	2.425578
7	0x3fea71c8	1.8315973
8	0x3f7f9418	0.9983535
9	0x3fdbe08f	1.7177905
10	0x3fb52776	1.4152668
11	0x4030b17b	2.7608325
12	0x3fc491ee	1.5357034
13	0x3ff94e64	1.9477048
14	0x3ffaa698	1.958209
15	0x40487a7c	3.1324759
16	0x3f415335	0.7551759
17	0x40c40186	6.125186
18	0x40bfde02	5.9958506
19	0x3f3e4bfa	0.7433468
20	0x3fc3bcbf	1.5291976
21	0x3fcdec43	1.6087726
22	0x40000fed	2.000972
23	0x4022f812	2.546391
24	0x3f3e1daa	0.74264014
25	0x3fa323db	1.2745317
26	0x4109c28d	8.609998
27	0x3fb1d410	1.3892841
28	0x408610f6	4.1895704
29	0x40dc0787	6.875919
30	0x409dab56	4.927165
31	0x3fac94af	1.3482875

conv3.weight f4 [64, 32, 3, 3]
0	0x3ddeb6a0	0.10874677
1	0x3b099584	0.002099366
2	0xbd0ae4a0	-0.03390944
3	0x3d535b6a	0.05160085
4	0x3d9969f6	0.074909136
5	0xbceb81e0	-0.028748453
6	0x3cbba8e7	0.022907687
7	0x3d3d946d	0.046284128
8	0x3daca07d	0.08429048
9	0x3d849a11	0.06474698
10	0x3d8e51b5	0.06949178
11	0x3dba7678	0.09104627
12	0x3d400d83	0.046887886
13	0xbc8c825e	-0.017152008
14	0xbc047234	-0.008083869
15	0x3daba8bc	0.08381793
16	0xbce22e19	-0.027609872
17	0x3dfad060	0.122467756
18	0xbd881824	-0.066452295
19	0xbcfbac5d	-0.030721838
20	0x3dbae524	0.09125736
21	0xbd7e02ad	-0.06201427
22	0xbd91933d	-0.071081616
23	0x3cb202ad	0.021729792
24	0xbdd47218	-0.10373324
25	0xbda19162	-0.07889058
26	0x3d9b7ba4	0.07591942
27	0x3d369f8e	0.044585757
28	0xbe025a80	-0.12729836
29	0xbde95342	-0.11392833
30	0x3d9e7f0e	0.077390775
31	0xbdf71714	-0.12064949
32	0xbd9e92f0	-0.0774287
33	0x3d3cd80e	0.046104483
34	0xbd07e484	-0.033176914
35	0x3dce0dbc	0.100612134
36	0x3d847b83	0.064688705
37	0xbc3a3ebd	-0.011367497
38	0x3d2e760d	0.04259305
39	0xbbf60293	-0.007507631
40	0xbd38adf6	-0.045087777
41	0xbd9f786d	-0.07786641
42	0x3cf1ed34	0.029532053
43	0xbc97ef40	-0.0185467
44	0xbcc3cb2a	-0.023900587
45	0x3cc2b475	0.02376769
46	0x3d500b90	0.050792277
47	0x3dcd4e33	0.10024681
48	0x3c5cf38e	0.013485802
49	0x3d672034	0.056427196
50	0x3d4fba88	0.050715
51	0x3c8c12c2	0.017098788
52	0x3d90ab46	0.07063918
53	0x3c014c5c	0.007891741
54	0xbc80c242	-0.01571763
55	0x3bca2716	0.00616921
56	0xbce73297	-0.028222365
57	0x3d468f06	0.04847624
58	0xbd8b7ebc	-0.06811282
59	0xbd48081a	-0.04883585
60	0xbd52747e	-0.051380627
61	0xbd3c05a3	-0.045903813
62	0xbc240b23	-0.010012421
63	0x3d7d3576	0.061818562
64	0x3d188ae4	0.03724183
65	0x3dc1db2b	0.09465631
66	0x3c8532da	0.0162596
67	0xbbd921a8	-0.0066263266
68	0xbc962a6c	-0.018330775
69	0xbcf0129d	-0.02930575
70	0xbd9c89f5	-0.07643501
71	0xbd97398d	-0.07384024
72	0xbaa8c825	-0.001287703
73	0x3b0ee565	0.002180421
74	0x3caa0303	0.02075339
75	0x3d89f148	0.06735474
76	0xbb13e682	-0.0022567813
77	0x3bdc3042	0.00671962
78	0x3d882581	0.06647778
79	0x3d26f307	0.040759113
80	0xbd9c79f1	-0.07640446
81	0x3d1f8bb3	0.038951587
82	0xbdae7f97	-0.085204296
83	0xbdbc2c01	-0.091880806
84	0x3cec726a	0.02886315
85	0xbd73c4b8	-0.059513777
86	0x3cd23c07	0.025663389
87	0x3d04e29b	0.03244267
88	0x3ce2304a	0.027610917
89	0xbd1174e6	-0.035511874
90	0xbcd903b9	-0.026491033
91	0xbde8f4ba	-0.11374803
92	0xbc2d09a2	-0.010561379
93	0xbc2ecc90	-0.010668889
94	0xbd3d9844	-0.04628779
95	0x3c399255	0.011326392
96	0x3d2c0c2f	0.042003807
97	0xbd04b3c8	-0.032398015
98	0x3d2758dd	0.04085623
99	0xbc532c4a	-0.012888977
100	0xbd343a87	-0.04400113
101	0x3c23f747	0.010007686
102	0x3cc166ba	0.023608554
103	0x3d3e57aa	0.04647032
104	0xbd736a39	-0.059427474
105	0x3d748ca4	0.059704438
106	0x3cce1299	0.025155352
107	0xbd518bad	-0.051158596
108	0x3df94571	0.12171448
109	0xbcddffc2	-0.027099494
110	0x3c5ba46b	0.0134058995
111	0x3d377547	0.04478958
112	0xbcac63d9	-0.021043705
113	0xbd4de03c	-0.050262675
114	0x3d03b6c2	0.032156713
115	0xbc508f77	-0.012729517
116	0xbd5592b6	-0.052141868
117	0xbdb178f0	-0.08665645
118	0xbdd38bfe	-0.10329436
119	0xbdb96fc5	-0.090545215
120	0x3b6875cf	0.003547061
121	0xbd715f61	-0.05892885
122	0xbde9861a	-0.11402531
123	0x3b5c8ea1	0.003365435
124	0xbd5cd16b	-0.053910654
125	0xbc92b3bf	-0.017907975
126	0x3c8a8e61	0.016913595
127	0x3ca197c6	0.019725692
128	0x3d13ad46	0.03605392
129	0x3d519570	0.051167905
130	0xba5c3fde	-0.0008401851
131	0xbcff69e6	-0.031178426
132	0x3d438e5a	0.04774318
133	0x3d261a20	0.04055226
134	0x3cabf190	0.02098921
135	0x3d1463d1	0.036228005
136	0x3db0b8a5	0.08628968
137	0x3d954b3b	0.0728974
138	0x3cf40b5d	0.029790575
139	0x3ae20d0e	0.0017246322
140	0x3d66f5b2	0.056386657
141	0x3d708eb1	0.05872983
142	0x3cd5aa50	0.026082188
143	0x3dbf0ddb	0.093288146
144	0xbc90c5b4	-0.017672397
145	0xbd5a23a4	-0.053256646
146	0xbdef55d1	-0.1168629
147	0xbd85fae2	-0.06541993
148	0xbd0539f6	-0.03252598
149	0xbd893f9a	-0.06701584
150	0xbd135491	-0.03596932
151	0xb99a4753	-0.0002942631
152	0x3d11d7a6	0.03560605
153	0xbc071423	-0.008244547
154	0xbb981897	-0.004641603
155	0xbc9db12e	-0.019249525
156	0xbd435a9b	-0.04769383
157	0xbcab95f4	-0.020945527
158	0xbc9a2e8f	-0.018821029
159	0x3d3dcd50	0.04633838
160	0x3d44d2ba	0.048052527
161	0x3d9586b9	0.07301087
162	0x3d814e3e	0.06313752
163	0x3c9a71f5	0.018853167
164	0x3d4f57a0	0.050620675
165	0x3d611edb	0.054961067
166	0x3c82c53d	0.015963191
167	0x3d326e3b	0.043562155
168	0x3e49235d	0.19642396
169	0x3d8fcf35	0.070219435
170	0x3d4afc73	0.04955716
171	0x3e029917	0.12753712
172	0x3e0ded44	0.13860041
173	0x3ce9cf45	0.028541217
174	0xbc2f0862	-0.010683151
175	0xbb178e59	-0.0023125617
176	0x3cdee9c2	0.027211074
177	0xbdd06e14	-0.10177246
178	0xbd9b7572	-0.0759076
179	0xbc114220	-0.008865863
180	0x3da49d9b	0.08037873
181	0x3dad29cd	0.084552385
182	0x3d9053f6	0.07047264
183	0x3bd58be2	0.0065169195
184	0xbd255db0	-0.04037255
185	0xbd9dbca3	-0.07701995
186	0x3c99b40d	0.018762613
187	0xbda980e2	-0.082765356
188	0xbcb23e8c	-0.02175834
189	0xbc828f63	-0.015937513
190	0xbde3986a	-0.11113055
191	0x3d685464	0.056721106
192	0xbd68fcd6	-0.05688175
193	0xbd0b93e2	-0.03407658
194	0x3c873cc3	0.016508466
195	0x3da3d347	0.07999282
196	0x3d6ebfff	0.05828857
197	0x3d971645	0.073772945
198	0x3c0dc657	0.008653245
199	0x3baf2087	0.0053444537
200	0x3d8d2d5f	0.068934195
201	0xbd2962aa	-0.04135386
202	0x3d39e31f	0.045382615
203	0x3d880e33	0.06643333
204	0x3c6a0178	0.014282577
205	0x3c5e5742	0.013570609
206	0x3dea0d96	0.114283726
207	0xbc95d36d	-0.018289292
208	0x3d046217	0.03232011
209	0x3dd63605	0.10459522
210	0x3c2d36f1	0.010572181
211	0x3d46ccb6	0.04853507
212	0x3d2cab39	0.04215548
213	0x3dc51bdb	0.09624454
214	0x3d51711f	0.05113327
215	0x3b5dc93a	0.0033841864
216	0xbd3a3ebd	-0.04546999
217	0xbdd7a765	-0.10529975
218	0xbcb3b60e	-0.021937396
219	0x3d8d5591	0.06901086
220	0x3c89fdfc	0.016844742
221	0x3c72e055	0.014823993
222	0x3d070ffa	0.03297422
223	0x3cf44e05	0.029822359
224	0x3e10feb8	0.14159667
225	0xbddc6160	-0.1076076
226	0xbc9543f9	-0.018220888
227	0xbd05a2d1	-0.032625977
228	0x3cfdc164	0.030976005
229	0x3cb3397b	0.021877995
230	0x3cf33146	0.029686581
231	0x3c1bac33	0.009501505
232	0x3ba20f53	0.0049456744
233	0xbb8ad502	-0.0042368183
234	0x3e0e0bb3	0.1387165
235	0x3dafee87	0.08590417
236	0x3e0119a7	0.12607442
237	0x3dba5ebe	0.09100102
238	0xbc04b076	-0.008098712
239	0x3cfb3997	0.03066711
240	0x3dab8cab	0.0837644
241	0xbb89bbf5	-0.0042033144
242	0x3d1234fd	0.035695065
243	0xbc22c9b9	-0.00993579
244	0x3c917e25	0.017760346
245	0x3decbf7f	0.115599625
246	0xbd68d807	-0.056846645
247	0xbcddb139	-0.027062045
248	0x3d742c07	0.0596123
249	0xbd435e35	-0.047697265
250	0x3c3fe2de	0.011711804
251	0x3dad0d04	0.08449748
252	0x3d7ccc3f	0.06171822
253	0x3d87aadc	0.06624386
254	0x3d6102e2	0.05493439
255	0x3d4052e4	0.04695405

conv3.bias f4 [64]
0	0x3b35ecdf	0.0027759594
1	0x3cf18b69	0.029485421
2	0xbd2a8e96	-0.041639887
3	0xbd09bc52	-0.033626862
4	0xbc015c89	-0.007895597
5	0x3d1212d5	0.03566249
6	0xbbba8632	-0.005692267
7	0xbcee1448	-0.029062405
8	0x3d72d3c0	0.05928397
9	0xbd54a563	-0.051915538
10	0x3d435b35	0.047694404
11	0x3cc6deee	0.024276223
12	0x3d321df6	0.043485604
13	0xbb3d649d	-0.0028899082
14	0x3a07de97	0.000518301
15	0xba3c2c58	-0.00071782386
16	0x3d42ae33	0.04752941
17	0xbcee10c0	-0.029060721
18	0xbd55d1d9	-0.05220208
19	0x3c785ca5	0.015158807
20	0xbd343421	-0.043995026
21	0x3c8c1d96	0.017103951
22	0x3cd50761	0.026004495
23	0xbbcead98	-0.006307315
24	0xbc6ad820	-0.014333755
25	0x3d35cc8e	0.04438453
26	0x3c86eddc	0.016470842
27	0xbc940ab0	-0.018071502
28	0x3d1b5446	0.037922166
29	0xbce56d0c	-0.0280061
30	0x3ca99b94	0.020704068
31	0xbd31ef40	-0.043441057
32	0xbcd86a81	-0.026417973
33	0x3c9dae45	0.019248137
34	0xbc718c03	-0.014742854
35	0xbc11d14d	-0.008899999
36	0x3cfbdeb0	0.030745834
37	0x3d628830	0.05530566
38	0xbd500f34	-0.05079575
39	0x3cf7b48b	0.030237457
40	0x3cabbf49	0.020965235
41	0xbd5d406d	-0.05401652
42	0x3c032b06	0.008005863
43	0x3bd686c7	0.0065468284
44	0xbcbbf2dc	-0.022942953
45	0xbcabceac	-0.020972572
46	0xbccbd0d5	-0.024879852
47	0x3d7e726a	0.062120833
48	0x3cf68708	0.030093685
49	0xbd64946e	-0.055805616
50	0xbcfc7259	-0.030816244
51	0xbd06ad5f	-0.032880183
52	0x3d25f7f9	0.04051969
53	0xbc7dea97	-0.015497825
54	0xbd082b8c	-0.033244655
55	0x3d517bd9	0.0511435
56	0x3d1fc004	0.03900148
57	0x3c9b8f8e	0.01898935
58	0xbd3d4261	-0.046205882
59	0x3cfa0ab1	0.030522676
60	0xbd1c99bc	-0.03823255
61	0xbd011986	-0.03151848
62	0xbc158138	-0.009125046
63	0xbcba4b60	-0.02274102

bn3.weight f4 [64]
0	0x3f917895	1.1364924
1	0x3f8fe213	1.1240867
2	0x3f803ba7	1.0018204
3	0x3f7e1404	0.9924929
4	0x3f91d153	1.1392006
5	0x3f7d92de	0.99052227
6	0x3f8cf784	1.1013036
7	0x3f847fd4	1.035151
8	0x3f7d9047	0.99048275
9	0x3f8c197e	1.094528
10	0x3f7b767e	0.9822768
11	0x3f79aa9e	0.97525966
12	0x3f8fdbb9	1.1238929
13	0x3f85570d	1.0417191
14	0x3f8cf897	1.1013364
15	0x3f902ac5	1.1263052
16	0x3f8e3bb8	1.1111975
17	0x3f8631be	1.048393
18	0x3f7af6f3	0.98033065
19	0x3f83b977	1.0290974
20	0x3f78d655	0.97202045
21	0x3f8ddc08	1.1082773
22	0x3f7f655c	0.9976404
23	0x3f71d454	0.9446461
24	0x3f8027b8	1.0012121
25	0x3f91c60b	1.1388563
26	0x3f90f933	1.132605
27	0x3f8ed702	1.1159365
28	0x3f907d2e	1.1288202
29	0x3f81bcab	1.0135702
30	0x3f5c3550	0.8601885
31	0x3f8f3de5	1.1190764
32	0x3f8ffadf	1.1248435
33	0x3f928487	1.1446694
34	0x3f80e33f	1.006935
35	0x3f8e1bba	1.1102211
36	0x3f8f8488	1.121232
37	0x3f82e16b	1.0225042
38	0x3f79e6ab	0.97617596
39	0x3f763e3c	0.9618871
40	0x3f91a79e	1.1379278
41	0x3f71b96f	0.94423574
42	0x3f74aed1	0.9557925
43	0x3f8e00d8	1.1094007
44	0x3f800432	1.000128
45	0x3f8269d4	1.0188546
46	0x3f887d5f	1.066326
47	0x3f83d39c	1.0298953
48	0x3f72bf52	0.9482318
49	0x3f91c745	1.1388937
50	0x3f7ec4e7	0.995192
51	0x3f84488e	1.0334642
52	0x3f8f666e	1.1203134
53	0x3f7cd831	0.9876738
54	0x3f872f08	1.0561228
55	0x3f8bd7e0	1.0925255
56	0x3f8ae718	1.0851774
57	0x3f8faae9	1.1224033
58	0x3f7fa440	0.9986
59	0x3f82ff4d	1.0234162
60	0x3f7f92be	0.99833286
61	0x3f88e54c	1.0694976
62	0x3f7996ec	0.97495914
63	0x3f80ba7d	1.0056912

bn3.bias f4 [64]
0	0xbdb2af21	-0.087248094
1	0xbdcc91d5	-0.09988753
2	0x3cf46d7f	0.029837368
3	0x3cddbc1e	0.02706724
4	0xbdfbe932	-0.12300338
5	0x3c405db2	0.011741089
6	0xbdda3da5	-0.10656289
7	0xbdb26728	-0.08711082
8	0xbda71d82	-0.08159925
9	0xbdc75244	-0.09732488
10	0x3c3256fb	0.010884996
11	0xbc40c4ef	-0.011765703
12	0xbe08a502	-0.13344195
13	0xbc7e2f17	-0.015514157
14	0xbde0e74e	-0.10981618
15	0xbdf5f8aa	-0.120103195
16	0xbdc87a06	-0.09788899
17	0x3bd9e1ed	0.006649247
18	0xbb278fab	-0.002556781
19	0xbdaee19e	-0.08539127
20	0xbd4cd093	-0.0500036
21	0xbde4bd3f	-0.11168908
22	0xbe369448	-0.17830002
23	0xbde346de	-0.11097501
24	0x3cd095db	0.025462082
25	0xbdc08e82	-0.09402181
26	0xbdd28410	-0.10279095
27	0xbe024e02	-0.1272507
28	0xbdd9bba0	-0.1063149
29	0xbc1e79cb	-0.009672592
30	0xbdff90e0	-0.124788046
31	0xbde5272c	-0.11189112
32	0xbdee4a99	-0.11635322
33	0xbdc26258	-0.09491414
34	0x3d0bb0d0	0.03410417
35	0xbdde1073	-0.10842981
36	0xbdf9f145	-0.12204222
37	0xbd921986	-0.071337745
38	0xbdf63701	-0.1202221
39	0xbc477558	-0.012173973
40	0xbdf24103	-0.11828806
41	0xbcbef876	-0.023311835
42	0xbde3193b	-0.11088797
43	0xbdf44b92	-0.119284764
44	0x3c272603	0.010201934
45	0xbd0e8a68	-0.034799963
46	0xbd81457f	-0.063120835
47	0x3c45659f	0.012048154
48	0xbddb8476	-0.10718624
49	0xbdf8c4b1	-0.12146891
50	0x3d0b4f87	0.03401139
51	0x3c984a07	0.018589986
52	0xbdd3fb6a	-0.10350688
53	0x3bf91351	0.0076011796
54	0xbe0842a9	-0.13306679
55	0xbdb3ab1d	-0.08772872
56	0xbe0f14a5	-0.13972719
57	0xbde10264	-0.10986784
58	0x3ce9e0c9	0.028549569
59	0xbd8580d4	-0.06518713
60	0x3cd37faa	0.02581771
61	0xbde8622f	-0.11346852
62	0x3bd66d1e	0.0065437695
63	0xbcf4686e	-0.029834952

bn3.running_mean f4 [64]
0	0x3f86b9d0	1.0525455
1	0x3f2d0b64	0.67595506
2	0xbf4327ee	-0.762328
3	0xc03686a7	-2.8519685
4	0x3f1ef651	0.620946
5	0xc0234e70	-2.5516624
6	0x3f5fea94	0.8746731
7	0x401c33be	2.440658
8	0x3f559549	0.83430916
9	0x3f79d9df	0.9759807
10	0xc024c203	-2.5743415
11	0xbee4d989	-0.44697216
12	0x3f6f9b0a	0.93595946
13	0x3fbbf62a	1.4684498
14	0x3f730291	0.9492579
15	0x3f7cb70c	0.9871681
16	0x3f70c938	0.94057035
17	0xc02bb553	-2.6829422
18	0x3fdba5fe	1.7160032
19	0x3fca03d7	1.5782422
20	0x4014968e	2.3216891
21	0x3f5ed510	0.8704386
22	0x3f872385	1.0557715
23	0x3fbb0910	1.4612141
24	0xbfce81b2	-1.613333
25	0x3f9e122c	1.2349296
26	0x3f5c835d	0.86137944
27	0x3f29267c	0.6607435
28	0x3f1af6e2	0.60532963
29	0x3f12fd2e	0.5741757
30	0x3f203196	0.6257566
31	0x3efe8109	0.4970782
32	0x3f5ce58f	0.8628778
33	0x3f60459a	0.87606204
34	0xc01c1fd3	-2.4394424
35	0x3f7909ac	0.97280383
36	0x3f47b560	0.7801113
37	0x404ec9b6	3.2310615
38	0x3fbcd42c	1.475225
39	0xbfac2cb4	-1.3451142
40	0x3f184ea9	0.59495026
41	0xbfbd9229	-1.481023
42	0x3f6cd128	0.9250665
43	0x3f237162	0.63844883
44	0xbfa5530f	-1.2915972
45	0x400c7e98	2.1952267
46	0x3f995580	1.1979218
47	0xbf91da93	-1.1394829
48	0xbeeac327	-0.45852014
49	0x3f41cb14	0.757005
50	0xc02fca19	-2.74671
51	0xbd80b1f3	-0.06283941
52	0x3f843bff	1.0330809
53	0xbf85e112	-1.0459311
54	0x3f5a352c	0.85237384
55	0x3fa73bc5	1.3065115
56	0x3f831efc	1.0243831
57	0x3f2813ac	0.65655017
58	0xc00c66e0	-2.193779
59	0x40334374	2.800992
60	0xbffe1780	-1.9850922
61	0x3f9c8332	1.2227538
62	0xbf8bab7f	-1.0911711
63	0x404ad4c7	3.169237

bn3.running_var f4 [64]
0	0x400d24b0	2.2053642
1	0x40015427	2.0207613
2	0x408541b3	4.16427
3	0x40d4ca26	6.6496763
4	0x4004b2e2	2.0734181
5	0x4121f9e1	10.123506
6	0x3ff81ef0	1.9384441
7	0x405ecebd	3.4813683
8	0x403b1689	2.9232504
9	0x4005874e	2.0863833
10	0x40a22646	5.067172
11	0x3ff59d0b	1.9188551
12	0x400c4065	2.1914303
13	0x4012f254	2.2960405
14	0x400e103a	2.2197404
15	0x40092dea	2.1434274
16	0x3fde8de7	1.7387055
17	0x3f485bfa	0.78265345
18	0x40241af6	2.5641456
19	0x4055ed07	3.342592
20	0x40a05f30	5.0116196
21	0x4007af81	2.120087
22	0x4015c924	2.3404016
23	0x401a3f7d	2.410125
24	0x4083a4ce	4.1138678
25	0x40040f23	2.0634239
26	0x400b9db4	2.1815004
27	0x401d036b	2.4533336
28	0x400fc5ec	2.2464552
29	0x4012a47b	2.291289
30	0x40897da2	4.296586
31	0x40148ff3	2.321286
32	0x400773c7	2.1164415
33	0x400b69d4	2.1783342
34	0x409b5b64	4.854906
35	0x4008d892	2.1382184
36	0x40198a61	2.399071
37	0x40b399bf	5.612518
38	0x405a514c	3.411212
39	0x3fb2cc59	1.3968612
40	0x400abe14	2.1678514
41	0x3fdea302	1.7393496
42	0x400d2cc5	2.2058575
43	0x401338e3	2.300347
44	0x40239860	2.5561752
45	0x40c7e1cb	6.2463126
46	0x4039bbc5	2.9020855
47	0x3fee6296	1.8623836
48	0x40885184	4.2599506
49	0x4016e265	2.357568
50	0x40b660af	5.699302
51	0x40608cdc	3.5085974
52	0x40209ad5	2.5094502
53	0x400c19fc	2.189086
54	0x4022e662	2.5453115
55	0x402021dc	2.5020666
56	0x403a9c2f	2.9157827
57	0x402246d4	2.535573
58	0x4065798f	3.5855443
59	0x40cf927d	6.486632
60	0x40e44470	7.133354
61	0x40208fb8	2.508772
62	0x3ff812f0	1.9380779
63	0x40a4371f	5.1317286

fc1.weight f4 [128, 64]
0	0xbe7a9458	-0.24470651
1	0xbe4b332f	-0.19843744
2	0x3e33d1d6	0.17560515
3	0x3e339393	0.17536764
4	0xbe15a90d	-0.14615269
5	0xbce611b5	-0.028084615
6	0xbc4d7e35	-0.012542297
7	0x3d7f93c9	0.0623968
8	0xbbfadc1f	-0.007655635
9	0xbe0ed115	-0.13946946
10	0x3e38c84c	0.18045157
11	0x3c96aa1e	0.018391665
12	0xbe7f5d66	-0.24937972
13	0x3cda67e7	0.026660873
14	0xbdc40ba1	-0.095725305
15	0xbd5e4b61	-0.054271106
16	0xbe218de0	-0.15776777
17	0x3ddf8e37	0.10915797
18	0xbc3ddf3d	-0.011588869
19	0x3a0ae4e6	0.0005298391
20	0x3e00f8db	0.12594931
21	0xbdc1998e	-0.09453116
22	0xbc001045	-0.007816379
23	0xbd3885f7	-0.045049634
24	0xbd5a55e8	-0.053304583
25	0x3b26d471	0.0025456215
26	0xbe03901d	-0.12847944
27	0xbdb53890	-0.08848679
28	0xbde234a2	-0.11045195
29	0x3e257d4e	0.16161081
30	0xbd07842c	-0.033085033
31	0xbda85580	-0.08219433
32	0xbe1483d8	-0.1450342
33	0xbd322f4f	-0.04350215
34	0x3dfe8be0	0.12429023
35	0xbe0eb6c0	-0.13936901
36	0x3c36451b	0.011124874
37	0xbd21137f	-0.039325234
38	0xbd5a122e	-0.053239994
39	0x3d961851	0.07328857
40	0xbc882c13	-0.016622579
41	0x3d04ba62	0.03240431
42	0xbd9e43ac	-0.07727751
43	0xbd4bfa22	-0.049799092
44	0x3da974ac	0.082742065
45	0x3ba990ad	0.0051747174
46	0xbdf57c9d	-0.11986659
47	0xbcdcf750	-0.026973397
48	0xbbd17707	-0.006392363
49	0xbe6c863b	-0.2309808
50	0x3df039cc	0.11729774
51	0xbce2b6e5	-0.027675102
52	0xbdc29da0	-0.09502721
53	0x3e1d715c	0.15375274
54	0xbe1cdf62	-0.15319589
55	0xbd1c9714	-0.038230017
56	0xbe4834b9	-0.19551362
57	0xbdba4f71	-0.090971835
58	0x3dd71720	0.105024576
59	0x3d17fee1	0.037108306
60	0x3daa084c	0.08302364
61	0x3d0a3d50	0.03374988
62	0x3e19be65	0.15014036
63	0xbd607af4	-0.054804757
64	0xbe1a9b36	-0.15098271
65	0xbe07ab9b	-0.13249056
66	0x3beea4c0	0.0072828233
67	0xbd60f331	-0.054919425
68	0x3d50b49c	0.050953493
69	0x3d8f8e64	0.07009581
70	0xbd4b6dc9	-0.049665246
71	0xbd41ce89	-0.047316108
72	0x3dc5884d	0.09645138
73	0x3d40f194	0.047105387
74	0x3d997f5a	0.074949935
75	0x3d9cb808	0.07652289
76	0xbdac05ed	-0.08399568
77	0xbcd135c5	-0.025538335
78	0xbde66bd5	-0.11251036
79	0x3d83f1a1	0.064425714
80	0x3da9121e	0.08255409
81	0xbc79e73c	-0.0152528845
82	0xbda3b7f4	-0.07994071
83	0xbe170534	-0.14748079
84	0x3d4d3203	0.050096523
85	0x3da04b8f	0.07826912
86	0x3cc45ad4	0.023969091
87	0xbe05ba1b	-0.13059275
88	0xbd93fc10	-0.072258115
89	0xbd5b5f89	-0.053557906
90	0xbd08f2a2	-0.033434518
91	0x3db89013	0.09011855
92	0x3cb8cb85	0.022557983
93	0xbcd29058	-0.025703594
94	0xbcce66e6	-0.02519555
95	0xbc80ef6d	-0.015739167
96	0x39fb20ee	0.00047898985
97	0xbd26b690	-0.04070145
98	0x3d3bbfcb	0.045837205
99	0xbdc334d8	-0.095315635
100	0x3da46f84	0.080290824
101	0xbd2f207f	-0.0427556
102	0xbc5e5364	-0.013569687
103	0x3d97109f	0.07376217
104	0xbb50b3ba	-0.0031845407
105	0xbda0f9df	-0.07860159
106	0x3c434013	0.011917132
107	0x3db57563	0.0886028
108	0xbddedda3	-0.108821176
109	0xbd9d3244	-0.07675603
110	0xbcd751a1	-0.02628404
111	0xbe28a055	-0.16467412
112	0xbd072044	-0.032989755
113	0xbc9b4401	-0.018953325
114	0x3d26dc0f	0.040737208
115	0x3ca91e7e	0.020644423
116	0xbd86c38b	-0.065802656
117	0xbe1b386c	-0.15158242
118	0x3d9c7676	0.07639782
119	0xbe1f55e9	-0.15560116
120	0xbd169f64	-0.0367731
121	0xbe072b9e	-0.13200232
122	0xbd35ef09	-0.044417415
123	0xbdccdad2	-0.10002674
124	0x3da9781d	0.08274863
125	0xbde23a1a	-0.11046238
126	0x3daa6280	0.08319569
127	0x3d726608	0.059179336
128	0xbce19ad3	-0.027539646
129	0x3e09071a	0.13381615
130	0x3d83b7f7	0.06431573
131	0xbdbf0f78	-0.09329122
132	0x3d858237	0.06518977
133	0xbd1efedb	-0.038817268
134	0x3e16321f	0.14667557
135	0xbd1c8810	-0.038215697
136	0xbe2ce3d6	-0.16883788
137	0x3e4d1f8e	0.20031568
138	0xbdc60a8f	-0.09669983
139	0xbd847734	-0.06468049
140	0xbcf48ca7	-0.029852225
141	0xbe2ffe27	-0.17186795
142	0x3ddd649c	0.10810205
143	0x3e56fcc8	0.20994866
144	0x3dec6e8f	0.11544525
145	0xbe3186e7	-0.17336617
146	0x3d90f2d9	0.070775695
147	0x3da4c3a0	0.08045125
148	0xbe051598	-0.12996519
149	0x3e202374	0.15638524
150	0xbbdc7bc2	-0.0067286203
151	0x3abb46f3	0.0014288112
152	0xbc9bb192	-0.01900557
153	0x3e46d39f	0.19416665
154	0x3de885eb	0.11353668
155	0x3de8744c	0.11350307
156	0x3ba56fb6	0.0050487174
157	0x3d386388	0.045016795
158	0x3cd8f712	0.026485
159	0x3de8318c	0.11337575
160	0x3dab3340	0.083593845
161	0x3e160b2d	0.146527
162	0xbda01bc8	-0.07817799
163	0x3de51966	0.11186485
164	0xbc6b3e1a	-0.014358068
165	0xbcf64451	-0.030061873
166	0x3e0941b6	0.13403973
167	0x3da436a6	0.08018236
168	0x3d124956	0.03571447
169	0xbccf32c4	-0.025292762
170	0xbce3efed	-0.027824366
171	0x3de8661b	0.113476
172	0xbcb62e69	-0.022238927
173	0xbe122595	-0.14272149
174	0xbd865e6b	-0.065609775
175	0xbe03c98f	-0.12869857
176	0x3db4e3fe	0.088325486
177	0x3dabb2c0	0.08383703
178	0x3d49c473	0.049259614
179	0x3cdb39a0	0.026760876
180	0x3ad8581a	0.0016505748
181	0xbe117a22	-0.14206746
182	0xbd557ff4	-0.05212398
183	0x3e039cd1	0.1285279
184	0x3e3c48d6	0.1838716
185	0x3e3036fb	0.17208473
186	0xbd9b7cf2	-0.07592191
187	0xbe1bd759	-0.15218867
188	0xbd1f3f33	-0.03887863
189	0xbcd37f1b	-0.025817445
190	0xbe01f33e	-0.12690446
191	0xbdf7e821	-0.12104822
192	0xbe25b72b	-0.16183154
193	0xbb3c4405	-0.0028727066
194	0x3d68109a	0.056656457
195	0x3c92d40d	0.01792338
196	0x3c662d94	0.014048953
197	0xbcc91280	-0.024544954
198	0xbe34595f	-0.17612217
199	0xbc58fac0	-0.013243377
200	0x3d80536f	0.06265914
201	0xbda73c85	-0.0816584
202	0xbd1efc4b	-0.038814824
203	0x3ba5c829	0.0050592613
204	0xbde0da6d	-0.109791614
205	0x3dc4dcaa	0.09612401
206	0x39153622	0.00014229913
207	0xbe58e0bc	-0.2117948
208	0x3cb5595c	0.022137336
209	0x3d830080	0.0639658
210	0xbcdc3aeb	-0.026883563
211	0x3bd3d0c7	0.006464097
212	0x3df13d0e	0.117792234
213	0xbe368da8	-0.17827475
214	0x3d7d5756	0.06185087
215	0x3d786ccb	0.060650628
216	0x3d9894e8	0.074502766
217	0xbd5c6467	-0.05380669
218	0xbe2a4ddf	-0.16631268
219	0xbd233db6	-0.039853774
220	0xbdfc9f59	-0.12335081
221	0x3ddcf405	0.107887305
222	0xbe18f5b3	-0.14937477
223	0xbda187d8	-0.07887238
224	0xbcc71956	-0.024304073
225	0xbe179b7c	-0.14805406
226	0x3d2b3818	0.041801542
227	0xbc3fe1eb	-0.011711578
228	0xbe41601c	-0.18884319
229	0x3e104c10	0.14091516
230	0x3d3a38d1	0.04546434
231	0x3d58afe7	0.05290213
232	0xbe39e579	-0.18153943
233	0x3db178e8	0.08665639
234	0x3d88e904	0.06685069
235	0xbd078e67	-0.03309479
236	0x3d555336	0.05208131
237	0x3c08631f	0.008324414
238	0xbe3578a2	-0.17721799
239	0xbb50766c	-0.0031808866
240	0x3bac97a0	0.0052670985
241	0xbe3fbd34	-0.18724519
242	0x3d52406e	0.051330976
243	0xbda593d0	-0.080848336
244	0xbc94abc9	-0.01814832
245	0xbda8d909	-0.08244521
246	0x3c8d56c5	0.017253289
247	0x3c11c9a7	0.008898175
248	0xbda179d0	-0.07884562
249	0xbe225343	-0.15852074
250	0x3d9cebc0	0.07662153
251	0x3da508eb	0.080583416
252	0x3d62cf45	0.05537345
253	0x3d183045	0.03715541
254	0x3d96d3ab	0.07364591
255	0x3d0238d3	0.031792473

fc1.bias f4 [128]
0	0xbcb8ee87	-0.022574676
1	0xbd32e903	-0.04367925
2	0x3ba62939	0.005070832
3	0x3d51aab2	0.05118818
4	0xbdfe45cf	-0.12415659
5	0x3e24ba1e	0.16086623
6	0x3ddc79d3	0.107654236
7	0x3ca18f12	0.019721542
8	0x3d0d1921	0.034447793
9	0xbd61fa3c	-0.055170283
10	0xbcc099b9	-0.0235108
11	0x3d72cad0	0.05927545
12	0xb97fc407	-0.00024391721
13	0x3d0e7850	0.034782708
14	0xbcfda9b1	-0.030964704
15	0x3e017248	0.12641251
16	0xbb20832f	-0.0024492254
17	0x3c61d264	0.013783071
18	0xbd2f1b35	-0.042750556
19	0xbdc439c2	-0.09581329
20	0xbd87c984	-0.06630233
21	0xbde3ddeb	-0.11126312
22	0xbc05ea3d	-0.008173523
23	0x3dada167	0.08478051
24	0x3d2fb0eb	0.04289333
25	0x3e4c3e5d	0.19945665
26	0x3ce7b648	0.02828516
27	0x3c5ff45a	0.013669098
28	0x3dcbb95d	0.099474646
29	0x3e055b78	0.13023174
30	0xbd96ab7e	-0.07356928
31	0x3d26ad91	0.04069287
32	0xbdb93884	-0.090439826
33	0x3d9f9671	0.07792366
34	0xbd38015f	-0.044923183
35	0xbda5a265	-0.08087615
36	0x3b263b7e	0.002536505
37	0x3d2ca6a0	0.042151093
38	0xbba0c01f	-0.004905715
39	0x3c3fe483	0.011712196
40	0xbda7a6a9	-0.08186085
41	0xbdb616a1	-0.08891035
42	0x3e2e816e	0.17041561
43	0xbd821cab	-0.06353124
44	0xbe0754ff	-0.13216017
45	0xbd6f7cbc	-0.058468565
46	0x3d064aea	0.032786287
47	0x3ae2ef3f	0.0017313733
48	0x3e2a0ff7	0.16607653
49	0x3dc47a59	0.095936485
50	0xbd24e7ac	-0.040260002
51	0xbd7110cf	-0.05885392
52	0x3d699dfe	0.05703544
53	0xbdae6fe8	-0.08517438
54	0x3d90b0fa	0.070650056
55	0x3d3a6199	0.045503233
56	0x3c9831f0	0.0185785
57	0x3b38c64a	0.0028194361
58	0xbcd4fe41	-0.026000144
59	0xbd0a7ae7	-0.033808615
60	0xbd757200	-0.059923172
61	0x3d75b8de	0.059990756
62	0x3e377620	0.17916155
63	0x3c08fd19	0.008361124
64	0x3e15d078	0.14630306
65	0xbd4bc493	-0.049748015
66	0xbdee6228	-0.116398156
67	0x3e2f396b	0.17111747
68	0xbcc9c2dc	-0.024629049
69	0xbd67e41b	-0.056614023
70	0x3dcdb153	0.100435875
71	0x3d2f1f46	0.042754434
72	0x3d7bcda8	0.061475426
73	0x3d51150e	0.05104547
74	0x3c60ba66	0.013716316
75	0x3d23c780	0.03998518
76	0xbcf0ff66	-0.029418658
77	0x3dda1750	0.10648978
78	0x3e32df6c	0.17468041
79	0x3e27ba5e	0.16379687
80	0xbe06e37c	-0.13172716
81	0xbd1ea6fb	-0.038733464
82	0xbd0ebe89	-0.034849677
83	0xbda3fc1e	-0.08007072
84	0x3dfa45d7	0.12220352
85	0x3bb09304	0.0053886194
86	0xbc4d3d3a	-0.012526805
87	0x3e2cf9fb	0.16892235
88	0xbcf99702	-0.030467514
89	0xbdf8f8d9	-0.12156839
90	0xbd36b332	-0.044604488
91	0x3d2fcccd	0.042919923
92	0xbd9defa7	-0.07711726
93	0xb8c799de	-9.5177194e-05
94	0xbc184818	-0.009294532
95	0x3ceafab3	0.028683996
96	0xbdb208ad	-0.08693061
97	0xb7ca3cab	-2.4108527e-05
98	0xbb336ab2	-0.0027376828
99	0xbda79cdd	-0.08184216
100	0x3e1124a2	0.1417413
101	0x3d3c126d	0.04591601
102	0xbded38cc	-0.11583099
103	0x3ac037eb	0.0014665102
104	0x3d7a2995	0.061074812
105	0xbccc064f	-0.024905352
106	0xbd6a8fb4	-0.057265952
107	0x3d8cfc17	0.0688402
108	0x3db44dbf	0.088038914
109	0xbdc7ecb1	-0.09761942
110	0x3d749026	0.059707783
111	0xbc5357c5	-0.012899344
112	0x3e45086d	0.19241495
113	0x3d6c1abe	0.05764269
114	0x3d8722bc	0.06598422
115	0xbde2b0c9	-0.11068875
116	0x3d1cc3aa	0.038272537
117	0xbd89ef6e	-0.06735121
118	0xbd9a39c8	-0.07530552
119	0xbb2840eb	-0.002567346
120	0xbd477d22	-0.04870332
121	0x3d173757	0.03691801
122	0xbd48ce9b	-0.04902516
123	0xbdcf11aa	-0.10110791
124	0xbd4ca7f2	-0.049964853
125	0x3d90689d	0.070512034
126	0x3d160d56	0.036633812
127	0x3d90af02	0.0706463
