checkpoints/trained_gap_224x224_20251211_201602.pth (torch, 140348 bytes, 22 tensors)

conv1.weight f4 [16, 3, 3, 3]
0	0x3dd74ea9	0.1051305
1	0xbe8b6e6a	-0.27232677
2	0x3d67c0e4	0.05658044
3	0xbde4939f	-0.11160969
4	0xbdec8378	-0.11548513
5	0x3e065144	0.13116938
6	0x3e505a69	0.20346989
7	0xbdc5c3e7	-0.09656506
8	0x3e08d93c	0.13364118
9	0xbe500a5c	-0.20316452
10	0xbef471b9	-0.47743014
11	0xbe4d9e80	-0.20079994
12	0x3d9d5ca4	0.076836854
13	0xbe170440	-0.14747715
14	0x3c8604ef	0.016359774
15	0x3e1f11f5	0.15534194
16	0xbbf2ff80	-0.007415712
17	0x3d6b3bcf	0.057430085
18	0xbe1d3d27	-0.15355359
19	0xbe21ffee	-0.15820286
20	0xbe32cff5	-0.17462142
21	0x3e29ae14	0.16570312
22	0xbe2d46f5	-0.16921599
23	0xbe1e8709	-0.154812
24	0x3d8c9b12	0.06865515
25	0x3d16182d	0.03664415
26	0x3dd7b397	0.10532301
27	0x3c4c192d	0.012457174
28	0x3e0913d3	0.13386469
29	0x3ddeab99	0.108725734
30	0x3defa9b7	0.117022924
31	0x3dbf34a6	0.09336214
32	0xbcfb568c	-0.030680917
33	0xbddca456	-0.10773532
34	0xbdcac37d	-0.09900568
35	0xbe62c86c	-0.22146767
36	0x3defa078	0.11700529
37	0x3e0518f8	0.12997806
38	0x3e052f8f	0.13006423
39	0xbdb0eedc	-0.08639309
40	0xbc021462	-0.00793943
41	0x3d6b153e	0.057393305
42	0xbeb41485	-0.35171905
43	0xbe64aa5d	-0.22330613
44	0xbe2ea21e	-0.1705403
45	0x3cda1330	0.026620477
46	0xbcdb7bba	-0.026792396
47	0x3e383516	0.17989
48	0xbc95caa6	-0.018285107
49	0xbdbad979	-0.09123511
50	0x3d89a1fb	0.067203484
51	0x3cdc87b6	0.02692018
52	0xbe89dd41	-0.26926616
53	0x3dd3ab1a	0.103353694
54	0xbe5f37d2	-0.21798638
55	0xbe8c170f	-0.27361342
56	0xbe26ca71	-0.16288163
57	0x3e443373	0.19160251
58	0x3e0a775a	0.13522092
59	0xbdb16fa0	-0.08663869
60	0x3dd3eaf2	0.10347547
61	0x3cfa9111	0.030586751
62	0x3e43be0d	0.19115467
63	0xbdd23964	-0.10264853
64	0xbe24e8a5	-0.16104372
65	0xbb4a859e	-0.0030902396
66	0x3e27e5db	0.16396277
67	0xbd66c61a	-0.056341268
68	0xbe1f3763	-0.15548472
69	0x3c5b49b9	0.013384276
70	0x3e06f7ff	0.1318054
71	0xbdb20594	-0.0869247
72	0xbe5924d3	-0.21205454
73	0xbe84b44a	-0.259188
74	0xbdf76ddf	-0.12081503
75	0x3cdbf8e7	0.026852084
76	0x3e1a3f19	0.15063132
77	0xbe2df7c9	-0.16989054
78	0x3e7267c8	0.23672402
79	0x3d9e0fff	0.07717895
80	0xbb3aeacb	-0.0028521295
81	0x3dc5a8b7	0.096513204
82	0x3e0df2e9	0.13862194
83	0xbe3b506c	-0.18292397
84	0x3e078fef	0.132385
85	0xbe0f0bfc	-0.13969415
86	0xbe87fe27	-0.2656109
87	0x3b3a56ef	0.0028433164
88	0xbe4e4de7	-0.20146905
89	0xbe0f539c	-0.13996738
90	0x3e3aa5b4	0.18227273
91	0x3db340d0	0.087525964
92	0x3d266169	0.04062024
93	0xbddb067f	-0.106945984
94	0xbe2834df	-0.16426419
95	0xbde287d8	-0.110610664
96	0xbc12df21	-0.008964331
97	0xbe5ed2c5	-0.2176009
98	0xbdc8fb84	-0.09813598
99	0x3dccd941	0.100023754
100	0x3e4ecf46	0.20196256
101	0x3dfc1a32	0.12309684
102	0xbe02ca45	-0.12772472
103	0xbdec746c	-0.11545643
104	0x3d7484c3	0.059696924
105	0x3e223d47	0.15843688
106	0xbcbe24a9	-0.02321084
107	0x3e2c8fa3	0.16851668
108	0xbe9e1ed1	-0.30882886
109	0xbe4a964a	-0.19783893
110	0xbe004eaf	-0.12530015
111	0xbda0dc4d	-0.07854519
112	0xbde6fa26	-0.11278181
113	0x3df5f749	0.120100565
114	0x3e52d77c	0.20590013
115	0x3e7ce515	0.24696763
116	0xbc987efa	-0.018615235
117	0xbe504bd3	-0.20341425
118	0xbda774fe	-0.08176611
119	0x3dd00c54	0.101586014
120	0x3da25feb	0.07928451
121	0x3dd3f3de	0.10349248
122	0x3d8226ff	0.06355094
123	0xbc935438	-0.017984495
124	0x3e54be03	0.20775609
125	0x3e4c57e1	0.19955398
126	0xbe5e0d07	-0.21684657
127	0xbe854e01	-0.26036075
128	0xbe61f9be	-0.22067925
129	0x3d133a40	0.035944223
130	0xbdfcc17d	-0.123415925
131	0x3dbf393d	0.09337089
132	0x3de2b2e3	0.11069276
133	0xbda1c532	-0.0789894
134	0x3e122be7	0.1427456
135	0xbe112dda	-0.14177647
136	0x3bbd0c4d	0.0057692886
137	0xbe4e00a1	-0.20117427
138	0x3cec3318	0.028832957
139	0x3c21e5f0	0.0098814815
140	0x3da119b2	0.07866229
141	0x3cf3fc4e	0.029783394
142	0x3dc1115d	0.0942714
143	0x3e7e9337	0.24860846
144	0x3d4fe15d	0.050752033
145	0xbe71120a	-0.23542038
146	0xbe670b55	-0.22562917
147	0xbda118cb	-0.07866057
148	0x3dc8db7a	0.09807487
149	0x3b1f6d94	0.0024326788
150	0xbb6b436a	-0.0035898336
151	0x3e3eaa7d	0.18619724
152	0x3d5d2ce9	0.053997908
153	0x3ce89129	0.02838953
154	0xbe87c5dd	-0.26518145
155	0xbe4d8e9c	-0.20073932
156	0xbc9b9c99	-0.01899557
157	0xbaca353f	-0.0015427246
158	0x3e2c1ba3	0.16807418
159	0x3e56cbf7	0.20976244
160	0x3e6978de	0.22800013
161	0x3d077e6b	0.033079546
162	0x3e67cacb	0.22635953
163	0x3dda7214	0.1066629
164	0x3e7dbfbf	0.24780177
165	0xbce521b6	-0.027970176
166	0xbe3a550d	-0.18196507
167	0xbdc7e359	-0.0976016
168	0xbdc5b421	-0.096534975
169	0x3e9259b6	0.2858407
170	0x3df50f7f	0.11965846
171	0xbdba4dd9	-0.090968795
172	0x3e274b32	0.16337278
173	0x3daaf8b6	0.08348219
174	0x3dcf4187	0.1011992
175	0xbe3b9f6b	-0.18322532
176	0xbe4fd249	-0.20295061
177	0x3de592d3	0.11209645
178	0x3e8ccb46	0.27498835
179	0xbe050ffc	-0.12994379
180	0x3e328846	0.17434797
181	0xbd902706	-0.07038693
182	0x3deb506f	0.11489951
183	0xbd212fd1	-0.039352242
184	0xbe4195dd	-0.18904825
185	0xbbcccec3	-0.006250234
186	0xbe179c51	-0.14805724
187	0x3d7af75a	0.06127105
188	0x3e0e2937	0.1388291
189	0x3e5032c8	0.20331872
190	0xba17f0dd	-0.00057960843
191	0xbd3ab7c3	-0.045585405
192	0xbe0b17cc	-0.13583297
193	0x3de613b3	0.11234226
194	0xbe54ffe8	-0.20800745
195	0x3e32dc76	0.17466912
196	0x3e4f889b	0.20266955
197	0xbe1b4733	-0.15163879
198	0x3e9100cd	0.28320923
199	0x3e6aefd5	0.22943051
200	0xbe000d49	-0.12505068
201	0xbe1e05f3	-0.15431957
202	0xbe5cc933	-0.21561126
203	0xbe6a970d	-0.22909184
204	0x3db89921	0.09013582
205	0xbabdd132	-0.0014481901
206	0xbe43c5ac	-0.19118375
207	0x3e5b082c	0.21389836
208	0xbdbc7e67	-0.09203797
209	0x3d25f42a	0.040516056
210	0xbdf86fc7	-0.12130695
211	0xbdc6682f	-0.0968784
212	0xbda13d0b	-0.07872971
213	0x3e61ddd1	0.22057272
214	0x3d8bb309	0.068212576
215	0x3a6a261e	0.00089320715
216	0x3e5f2a6a	0.21793523
217	0x3e819ac0	0.25313377
218	0x3e24f914	0.16110641
219	0xbd1f94e4	-0.038960353
220	0x3e1d3dd9	0.15355624
221	0x3e00601e	0.12536666
222	0xbdf25e9c	-0.118344516
223	0x3d41ea01	0.047342304
224	0x3d98bb7e	0.07457636
225	0x3e6f0a06	0.23343667
226	0x3e7a679f	0.24453591
227	0x3ead1601	0.3380585
228	0x3c7d3e6c	0.015456777
229	0xbc86e2b1	-0.016465517
230	0x3dd0c53f	0.10193872
231	0xbe2866da	-0.16445485
232	0x3da821af	0.0820955
233	0x3ddd1b03	0.10796168
234	0x3dd8c895	0.10585133
235	0x3dc6c54f	0.097056024
236	0x3d5836d8	0.052786678
237	0x3d96d0a1	0.073640116
238	0xbd861eca	-0.06548841
239	0x3e2765ff	0.16347502
240	0x3c84e248	0.01622118
241	0xbe9f71e0	-0.31141567
242	0xbd76bb24	-0.060237065
243	0x3d51c827	0.05121627
244	0xbe248e16	-0.16069826
245	0x3e447e4f	0.19188808
246	0x3e86e6ce	0.26347965
247	0x3daa2ff8	0.083099306
248	0x3e6eff2a	0.23339525
249	0xbcd5fda4	-0.026121922
250	0xbe250f88	-0.16119206
251	0xbdbca77b	-0.09211632
252	0xbd24760c	-0.04015164
253	0xbe21238a	-0.15736213
254	0x3d0cc089	0.034363303
255	0x3d888480	0.06665897

conv1.bias f4 [16]
0	0x3d190447	0.037357595
1	0xbe45ae9f	-0.19304894
2	0x3dc2109a	0.09475823
3	0xbe1cb890	-0.1530478
4	0x3dd76d8e	0.10518943
5	0xbe146017	-0.1448978
6	0xbb90da5a	-0.004420561
7	0xbe21abc3	-0.15788178
8	0x3e0a1586	0.13484773
9	0xbe7ef5e6	-0.2489849
10	0x3d3cf77f	0.04613447
11	0xbe6abcc6	-0.22923574
12	0x3d9d04a5	0.076669015
13	0x3e0ca7a1	0.1373582
14	0xbe180164	-0.1484428
15	0x3dffba18	0.124866664

bn1.weight f4 [16]
0	0x3f4c6d32	0.7985412
1	0x3f8ad837	1.0847234
2	0x3f6b58d1	0.919324
3	0x3f455f44	0.7709849
4	0x3f7e1e94	0.9926541
5	0x3f92d4e3	1.1471218
6	0x3ec07c86	0.37595004
7	0x3f9f0cf5	1.2425829
8	0x3f26c50b	0.65144414
9	0x3f8a174a	1.0788357
10	0x3f1f1a76	0.6214975
11	0x3f6f6c87	0.93524975
12	0x3f3fc2ae	0.7490643
13	0x3f8f6612	1.1203024
14	0x3f5c023b	0.85940903
15	0x3f43d4f5	0.7649682

bn1.bias f4 [16]
0	0xbee39574	-0.4444996
1	0xbe893f17	-0.26805946
2	0xbe35c2c5	-0.1775008
3	0xbd8df964	-0.06932333
4	0xbe03eb60	-0.12882757
5	0xbe41fdc7	-0.18944465
6	0xbf0d5757	-0.55211395
7	0xbedc4b38	-0.43026137
8	0xbeb3b341	-0.35097697
9	0xbe9724e8	-0.29520345
10	0xbe286eb6	-0.16448483
11	0xbe9663b9	-0.29372957
12	0xbe89dea2	-0.26927668
13	0xbdb166ae	-0.08662163
14	0xbeab75b8	-0.3348825
15	0xbf3c9ace	-0.73673713

bn1.running_mean f4 [16]
0	0xbf6c932c	-0.92412066
1	0xbf054193	-0.52053183
2	0xbedbed58	-0.42954516
3	0xbed3e960	-0.41388988
4	0xbe4a8799	-0.19778289
5	0xbb52b9ef	-0.0032154282
6	0x3f141068	0.57837534
7	0xbe1f8705	-0.1557885
8	0x3fd31d84	1.6493382
9	0xbe5e97d8	-0.21737611
10	0x3f5cb525	0.86213905
11	0xbf02d229	-0.5110193
12	0x3f5af1f5	0.8552545
13	0x3d2e811a	0.04260359
14	0xbf8854d4	-1.0650887
15	0xbeee943f	-0.46597478

bn1.running_var f4 [16]
0	0x3f66e1ef	0.901885
1	0x3e64d04a	0.22345081
2	0x3eb91c22	0.36154276
3	0x3e49b023	0.19696097
4	0x3e7b4122	0.24536565
5	0x3e229875	0.1587847
6	0x3eaa19d1	0.3322282
7	0x3de477fd	0.111556984
8	0x400cea1d	2.2017891
9	0x3d3df545	0.046376485
10	0x3f5d01a3	0.8633062
11	0x3e4145a5	0.18874224
12	0x3f500d0f	0.81269926
13	0x3e3d6952	0.18497208
14	0x3f442852	0.76624024
15	0x3eb42fdc	0.35192764

conv2.weight f4 [32, 16, 3, 3]
0	0xbdbb166e	-0.091351375
1	0xbd30eb05	-0.043192882
2	0xbdb22a05	-0.08699421
3	0xbd3bb250	-0.04582435
4	0x3a588f12	0.0008261065
5	0x3c31aee1	0.010844917
6	0xbe0bd2e8	-0.13654673
7	0xbdf3e43f	-0.11908769
8	0xbd0bcd09	-0.034131084
9	0xbe1ef9be	-0.15524957
10	0xbd94ba98	-0.072621524
11	0x3dcb3bc9	0.099235125
12	0xbe4a9860	-0.19784689
13	0xbe003d69	-0.12523426
14	0xbd15f4e1	-0.036610488
15	0x3ca1887a	0.019718397
16	0x3d8de979	0.06929297
17	0x3e006558	0.1253866
18	0xbe30d0ec	-0.17267197
19	0xbddabe7a	-0.10680862
20	0xbe064348	-0.13111603
21	0xbda58f8a	-0.080840185
22	0x3e2085c4	0.15676028
23	0x3dfa4727	0.122206025
24	0xbe12cdde	-0.14336345
25	0x3cb6e8c4	0.022327788
26	0xbc5fa6fe	-0.013650654
27	0x3d7063f9	0.05868909
28	0x3dee314a	0.11630495
29	0x3d7eb752	0.062186547
30	0xbdb3a8b6	-0.087724134
31	0x3c5645c8	0.013078161
32	0xbd40605d	-0.0469669
33	0xbcdd177b	-0.026988735
34	0x3c8a4306	0.016877662
35	0xbd37e2f8	-0.04489419
36	0xbe2b589e	-0.16733024
37	0xbcffb467	-0.031213952
38	0xbbbaea7b	-0.005704222
39	0xbe155e63	-0.14586787
40	0x3dc32f5c	0.095305175
41	0x3dce8230	0.10083425
42	0xbd8f4051	-0.06994689
43	0x3d9fc289	0.078007765
44	0xbcb0dfaf	-0.021591036
45	0xbe6798fc	-0.22616953
46	0xbe9ea1e4	-0.30982888
47	0xbea81f2f	-0.3283629
48	0x3d2b0b1c	0.04175864
49	0x3dab4586	0.0836287
50	0x3d6853d8	0.056720585
51	0xbdb70a8e	-0.0893756
52	0x3d9a7d90	0.075434804
53	0xbd1d46e5	-0.03839769
54	0xbd711176	-0.058854543
55	0xbc0c1c29	-0.008551636
56	0xbce225e9	-0.027605968
57	0xbd8fbc1c	-0.07018301
58	0xbbd9e776	-0.0066499067
59	0xbd7703bb	-0.060306292
60	0xbddca2db	-0.1077325
61	0xbdcba62b	-0.099438034
62	0xbd8aa5ef	-0.067699306
63	0xbdeec822	-0.11659266
64	0x3d33bfaa	0.043883957
65	0xbeb2e445	-0.3493978
66	0xbda65454	-0.08121553
67	0x3c8df471	0.017328473
68	0xbe35fd47	-0.17772399
69	0xbe1660f0	-0.14685416
70	0xbe30204c	-0.1719982
71	0xbeeb0273	-0.45900306
72	0x3d928259	0.07153768
73	0xbd0f6db4	-0.03501673
74	0x3d7199dd	0.058984626
75	0x3da10ebd	0.07864139
76	0xbb90f1b3	-0.004423344
77	0x3cecd1ca	0.028908629
78	0x3dd9eb57	0.10640591
79	0x3dad4781	0.08460904
80	0x3dfb7363	0.12277868
81	0xbe055372	-0.13020113
82	0xbdaa7e02	-0.08324815
83	0xbe35e93f	-0.17764758
84	0xbdced8bc	-0.100999326
85	0xbe56b7a7	-0.20968495
86	0xbe200775	-0.15627845
87	0x3a4ed7d5	0.0007890438
88	0xbba2c57a	-0.0049673887
89	0xbd8ed82e	-0.06974827
90	0xbd7c04cc	-0.061528012
91	0xbdae0fa8	-0.0849908
92	0xbcdba2a9	-0.02681096
93	0xbd31af63	-0.043380152
94	0x3d1381d0	0.03601247
95	0x3caf6b2e	0.021413412
96	0xbda0f377	-0.07858937
97	0xbccec760	-0.025241554
98	0x3cbf2c32	0.023336504
99	0xbdf33f36	-0.11877291
100	0xbd84469e	-0.06458782
101	0x3d85bcf3	0.0653018
102	0xbe2686e2	-0.16262391
103	0xbd57c29d	-0.052675832
104	0xbd670c84	-0.05640842
105	0xbe4352f6	-0.19074616
106	0xbda7d52a	-0.08194955
107	0xbd80ff74	-0.06298724
108	0x3ca960ef	0.020676104
109	0xbd40955b	-0.047017436
110	0x3d81c883	0.06337073
111	0xbd60316d	-0.054734636
112	0xbcbc0076	-0.022949439
113	0x3c55c45c	0.013047304
114	0x3d055d1f	0.03255951
115	0xbd413e40	-0.047178507
116	0xbc774d6e	-0.015094144
117	0xbe08334a	-0.13300815
118	0xbdb9e7ba	-0.090774015
119	0x3cd46236	0.025925737
120	0xbe8f37d1	-0.27972272
121	0xbe2ea676	-0.17055687
122	0xbe01e7b2	-0.12686041
123	0x3c69b153	0.014263469
124	0x3dfd5fdf	0.123718016
125	0x3e253340	0.16132832
126	0x3bc767fe	0.006085395
127	0x3d3f771c	0.04674445
128	0xbd2e559a	-0.042562105
129	0xbdcf29dc	-0.10115406
130	0x3dba0a2f	0.090839736
131	0xbcb7f33e	-0.022454854
132	0xbdc6dc32	-0.09709968
133	0xbd812043	-0.063049816
134	0xbdebbfef	-0.11511218
135	0xbe98b769	-0.2982743
136	0xbe420533	-0.18947296
137	0xbe9e2e19	-0.30894545
138	0xbe96080f	-0.29303023
139	0xbe793c7b	-0.24339478
140	0xbe6e0a8d	-0.23246212
141	0xbd94e79b	-0.07270738
142	0x3c05c636	0.008164933
143	0xbdae8517	-0.085214786
144	0x3ce5a032	0.028030489
145	0x3d51b668	0.051199347
146	0xbdaadedc	-0.08343288
147	0x3e37611a	0.17908135
148	0x3dfd31b7	0.12362998
149	0x3dbaa8d6	0.09114234
150	0x3e34ef70	0.17669463
151	0x3e05b430	0.13057017
152	0xbdd8afd7	-0.10580414
153	0x3d81f484	0.06345466
154	0x3d09426a	0.033510603
155	0x3dc49dfa	0.09600444
156	0x3e405005	0.18780525
157	0x3d5b5cbd	0.05355524
158	0x3dd0d22f	0.10196339
159	0x3dc4b4fa	0.09604831
160	0x3e10b614	0.14131957
161	0x3e2618e6	0.16220436
162	0xbcb62815	-0.02223591
163	0xbdfc5796	-0.12321393
164	0xbdfd1292	-0.12357058
165	0x3d6a9b82	0.05727721
166	0x3d48a72c	0.048987553
167	0xbcc863e0	-0.024461687
168	0xbc75b12b	-0.014995853
169	0xbca756c1	-0.02042711
170	0xbda06b8e	-0.078330144
171	0x3d4bd3dc	0.04976259
172	0x3dea2e45	0.114346065
173	0xbcb2c869	-0.021824079
174	0x3d9a37d8	0.075301826
175	0x3d83c999	0.06434936
176	0x3cbc4991	0.022984298
177	0x3d69363a	0.05693648
178	0x3bf37ca9	0.007430632
179	0xbcc8bc2b	-0.024503788
180	0x3a60c008	0.0008573537
181	0xbc819eaa	-0.015822727
182	0x3da15c8c	0.0787898
183	0x3de2e4bf	0.11078786
184	0x3e091b63	0.13389353
185	0x3de49862	0.11161877
186	0xbd1150b5	-0.03547736
187	0xbd39794f	-0.045281705
188	0xbb141590	-0.002259586
189	0x3dd0feb5	0.102048315
190	0x3cee6e29	0.029105263
191	0x3d91b622	0.07114817
192	0x3db35a28	0.0875743
193	0x3d1aa9ab	0.037759464
194	0x3e4bb67e	0.19893834
195	0x3d878baf	0.066184394
196	0x3d8486f3	0.06471052
197	0x3e253ed0	0.16137242
198	0x3d5897b0	0.052879035
199	0xbccd130f	-0.025033502
200	0xbdb87627	-0.09006911
201	0x3d6b89dc	0.05750452
202	0x3d921019	0.07131977
203	0xbda6ff20	-0.0815413
204	0x3d217cf4	0.039425805
205	0xbcdf175a	-0.027232815
206	0xbd365aba	-0.044520117
207	0x3c5e6daa	0.013575951
208	0x3d1e10d8	0.038590282
209	0xbe0bd1a6	-0.13654193
210	0x3d15f9b4	0.03661509
211	0xbc48d650	-0.012258127
212	0xbe3bbf9e	-0.18334815
213	0x3d546fc4	0.0518644
214	0x3d790e63	0.060804736
215	0xbe3a929e	-0.18219993
216	0xbd855120	-0.06509614
217	0x3c57de8a	0.013175616
218	0x3e082ef5	0.13299163
219	0xbd5ef6b2	-0.054434486
220	0x3d170dbe	0.03687834
221	0x3da2bfe4	0.079467565
222	0xbd310c61	-0.043224696
223	0x3d1895c6	0.03725221
224	0xba380e66	-0.00070211885
225	0xbe2c1890	-0.16806245
226	0xbe7332e4	-0.23749882
227	0xbe3d1bc7	-0.18467627
228	0xbe12e239	-0.1434411
229	0xbde6653c	-0.11249778
230	0xbe04c13a	-0.12964335
231	0xbe0ea083	-0.13928418
232	0xbe458584	-0.19289213
233	0xbd8b1c02	-0.067924514
234	0xbcaef590	-0.021357328
235	0xbd87227a	-0.06598373
236	0x3d656d90	0.05601269
237	0xbd1ef261	-0.03880537
238	0xbd9081be	-0.07055996
239	0x3cad8a1e	0.021184023
240	0x3d21d282	0.039507397
241	0x3d37cc0f	0.04487234
242	0x3d7a965e	0.061178558
243	0x3e33fbd6	0.17576537
244	0x3e88d41e	0.26724333
245	0x3e42cb0d	0.1902277
246	0x3e7de0f0	0.24792838
247	0x3e159466	0.14607391
248	0x3da36fae	0.079802856
249	0x3e029f98	0.12756193
250	0x3e5223bc	0.20521444
251	0x3e10eacb	0.14152066
252	0x3b5d5c6b	0.003377701
253	0xbc190c38	-0.009341292
254	0x3e11fb14	0.14255935
255	0xbd694301	-0.056948666

conv2.bias f4 [32]
0	0x3d9a11b2	0.07522906
1	0xbdcd3f44	-0.100218326
2	0xbc124903	-0.00892854
3	0x3dae5a76	0.08513348
4	0xbdb20095	-0.08691517
5	0xbd7452b7	-0.059649196
6	0x3d06e04b	0.032928746
7	0xbd9decda	-0.077111915
8	0x3d4bfb9d	0.049800504
9	0xbd237564	-0.039906874
10	0x3cdc372d	0.026881779
11	0xbd3a99e8	-0.045556933
12	0xbd703645	-0.058645505
13	0xbc407389	-0.011746296
14	0x3d13c8ad	0.03608005
15	0x3d66a8aa	0.056313194
16	0xbb9aea95	-0.0047276714
17	0xbd275730	-0.040854633
18	0xbcc9c209	-0.024628656
19	0xbd6b614b	-0.057465833
20	0xbd17b927	-0.03704181
21	0x3d964a42	0.07338382
22	0xbdb80221	-0.08984781
23	0xbda2e2b7	-0.07953399
24	0xbc5bcfc3	-0.0134162335
25	0xbb5644ce	-0.003269482
26	0x3cb1aa8f	0.021687774
27	0xbdb2635d	-0.08710358
28	0xbd970168	-0.07373315
29	0xbd9f4ff1	-0.077789195
30	0xbd034bd2	-0.03205473
31	0xbc0e5889	-0.008688101

bn2.weight f4 [32]
0	0x3f4ac714	0.7921002
1	0x3f6ddcfe	0.9291533
2	0x3f6904d3	0.91022986
3	0x3f753968	0.9579072
4	0x3f7483d7	0.9551367
5	0x3f8404a6	1.0313919
6	0x3f357081	0.7087479
7	0x3f26cf07	0.6515965
8	0x3f8baa49	1.0911342
9	0x3f1cb5e6	0.61215055
10	0x3f8a30db	1.079616
11	0x3f6b2ab1	0.91862017
12	0x3f1c66b5	0.6109422
13	0x3f86cf69	1.0532047
14	0x3f6c1a58	0.922277
15	0x3f444e6e	0.76682174
16	0x3f779da8	0.9672494
17	0x3f663e49	0.8993879
18	0x3f76f869	0.96472794
19	0x3f0040ec	0.5009906
20	0x3f879bf3	1.0594467
21	0x3f670cc6	0.90253866
22	0x3f6088f4	0.87708974
23	0x3f683e5e	0.90720165
24	0x3ee83820	0.4535532
25	0x3f56f230	0.839633
26	0x3f6a1cb4	0.9145005
27	0x3f564b3c	0.8370855
28	0x3f42bbd3	0.76067847
29	0x3f8bd524	1.092442
30	0x3f3657a4	0.7122748
31	0x3f4e2d03	0.8053743

bn2.bias f4 [32]
0	0x3e88e88e	0.26739925
1	0xbe6ac50f	-0.22926734
2	0x3c528909	0.012850055
3	0xbebaa14f	-0.36451194
4	0xbebffb50	-0.37496424
5	0xbeb7be4f	-0.3588738
6	0xbe96e971	-0.29474977
7	0xbdceb9d6	-0.10094039
8	0xbeb0e734	-0.34551394
9	0xbe6a71fe	-0.22895047
10	0xbdd3faa2	-0.10350539
11	0xbe9249cf	-0.28571936
12	0xbe64fe40	-0.22362614
13	0xbf6ef515	-0.93342716
14	0xbe5b1f8b	-0.21398751
15	0xbe661a42	-0.22470954
16	0xbe720525	-0.23634775
17	0xbe8d799d	-0.27631846
18	0x3d148e47	0.0362685
19	0xbf1b461a	-0.6065384
20	0xbe294a0b	-0.16532151
21	0xbe5cc7b9	-0.21560563
22	0xbed07ad9	-0.40718725
23	0xbebb63b9	-0.3659952
24	0xbe8d6a1f	-0.27620026
25	0xbeaf5dc7	-0.34251234
26	0xbe2aa5f7	-0.16664873
27	0x3cd16639	0.025561439
28	0xbec23b52	-0.37935883
29	0xbf31ee58	-0.6950431
30	0xbe8f0acb	-0.27937922
31	0x3e8d4499	0.27591398

bn2.running_mean f4 [32]
0	0xbfbf130c	-1.4927688
1	0x3f92e7a3	1.147694
2	0xc02ff219	-2.7491515
3	0xbecce7a4	-0.40020478
4	0xbe86d6fd	-0.26335898
5	0x3dbefc05	0.09325413
6	0x3fd5f9e7	1.6716889
7	0xbfac569f	-1.3463935
8	0x3dce914e	0.100863084
9	0xbf130d84	-0.574425
10	0xbef66d74	-0.4813038
11	0x3e0629f1	0.13101937
12	0xbf98cc7b	-1.1937402
13	0x3f61f5b4	0.8826554
14	0x3fc315fb	1.5241083
15	0xbe4a2d82	-0.19743922
16	0xbea16603	-0.3152314
17	0x3f201038	0.6252475
18	0xc03d6454	-2.9592485
19	0x4010af7f	2.2607114
20	0x3e165ff9	0.14685048
21	0x3fb00d41	1.3754045
22	0xbe2f1ed3	-0.17101602
23	0xbdbbe3e7	-0.09174328
24	0xbfafe51a	-1.3741791
25	0xbf81da46	-1.0144737
26	0xbe9e1ac4	-0.30879796
27	0xc007a0c6	-2.1191878
28	0x3e1ec222	0.15503743
29	0x3f804121	1.0019876
30	0x3ed33eac	0.41258752
31	0xbfcf1b5a	-1.6180222

bn2.running_var f4 [32]
0	0x41393eba	11.577814
1	0x40fbf0f8	7.873165
2	0x41f62f24	30.773018
3	0x40a54a99	5.165356
4	0x40a4a2cf	5.144874
5	0x408ecb1a	4.4622927
6	0x414cf670	12.810165
7	0x412904bf	10.563659
8	0x4035d8ce	2.8413577
9	0x40e616f0	7.1903
10	0x40d01d88	6.503605
11	0x4084aa77	4.1458087
12	0x4125904e	10.347731
13	0x4107e804	8.494144
14	0x411e8b99	9.909081
15	0x40986e7e	4.763488
16	0x404b7f43	3.1796424
17	0x407cb56a	3.9485726
18	0x41f2f3e3	30.369085
19	0x41973be7	18.90425
20	0x40221039	2.5322402
21	0x4102439b	8.141505
22	0x40ae6ec2	5.4510202
23	0x4031be7e	2.7772517
24	0x410dbc50	8.858475
25	0x407d71fc	3.960082
26	0x40beef77	5.9667315
27	0x41a2c439	20.345812
28	0x40a6ef74	5.21673
29	0x40e03084	7.0059223
30	0x40b60a59	5.688763
31	0x413b46ef	11.704818

conv3.weight f4 [64, 32, 3, 3]
0	0x3e516666	0.20449218
1	0x3e29f258	0.16596353
2	0x3dc41fa8	0.095763505
3	0x3e3a36a6	0.18184909
4	0x3df5d1b0	0.12002885
5	0x3d9255c2	0.07145263
6	0x3e3acc3e	0.18241975
7	0x3e360ea0	0.17779016
8	0x3e211337	0.15729986
9	0xbcf9bd53	-0.030485785
10	0xbd86d29d	-0.0658314
11	0xbdd0dc0c	-0.101982206
12	0xbd5486f8	-0.05188653
13	0xbcd26b30	-0.025685877
14	0xbe2f5809	-0.17123426
15	0x3d7e6928	0.062112004
16	0xbccf0e9a	-0.025275517
17	0xbde552df	-0.11197447
18	0x3dc98f9d	0.09841845
19	0x3e137fb3	0.14404182
20	0x3e0e06e0	0.1386981
21	0x3d7ddce7	0.061978247
22	0x3dfc6744	0.12324384
23	0x3caea427	0.021318508
24	0x3e2daceb	0.16960494
25	0x3ddc598f	0.107592694
26	0x3d9faf8b	0.07797154
27	0x3e03546d	0.12825175
28	0x3d924e75	0.07143871
29	0x3dd0d151	0.10196174
30	0x3caf36fb	0.021388521
31	0x3d3ae705	0.045630474
32	0xbc5ee36f	-0.013604029
33	0xbcec0710	-0.028811961
34	0xbdc0b1c0	-0.09408903
35	0xbd746d28	-0.059674412
36	0x3dfe6c04	0.12422946
37	0x3e48daa9	0.19614662
38	0x3e1e88cb	0.1548187
39	0x3c583960	0.013197273
40	0x3d346363	0.044040095
41	0xbd119f90	-0.03555256
42	0xbd461903	-0.048363697
43	0xbd1a5b8f	-0.037684973
44	0xbdd78992	-0.10524286
45	0xbda54899	-0.080704875
46	0xbda33da4	-0.079707414
47	0xbe14ed72	-0.14543703
48	0xbcc74143	-0.024323111
49	0x3cea689f	0.02861434
50	0x3c014e8f	0.007892265
51	0x3e33af6c	0.17547387
52	0x3de7ab23	0.113119386
53	0x3e00dac0	0.12583447
54	0x3d9ac9ea	0.07558043
55	0x3e0fd3b9	0.1404561
56	0xbc842db7	-0.01613508
57	0x3dbb504d	0.091461755
58	0x3c143e92	0.009048121
59	0xbd253839	-0.04033682
60	0x3d3793be	0.044818632
61	0x3d624ef2	0.05525107
62	0xbd1e5e44	-0.038664117
63	0x3dd0e412	0.10199751
64	0x3e09f5c6	0.13472661
65	0x3c3ce7c4	0.011529867
66	0x3d469a37	0.048486914
67	0x3d8dd32a	0.06925042
68	0x3d339f94	0.043853357
69	0x3df199f9	0.11796946
70	0x3e0824f3	0.13295345
71	0x3dc5faac	0.096669525
72	0x3a091b3d	0.0005230194
73	0x3dfb2878	0.12263578
74	0x3c984a75	0.018590191
75	0x3e1310c5	0.14361866
76	0x3e8539ee	0.2602076
77	0x3da53c55	0.08068148
78	0x3df691d4	0.12039533
79	0x3e4efa0e	0.20212576
80	0x3e090449	0.13380541
81	0x3dc94b87	0.09828859
82	0x3cca5802	0.024700169
83	0xbc145242	-0.009052815
84	0x3ba2a3a2	0.004963354
85	0xbcc115c6	-0.023569953
86	0xbdfa37d9	-0.12217683
87	0xbde7c331	-0.11316527
88	0xbe25d2f5	-0.16193755
89	0xbdf3ced9	-0.119046874
90	0x3d98704b	0.07443293
91	0x3dc4b1f2	0.09604253
92	0x3d925dfc	0.07146832
93	0xbda748fe	-0.08168219
94	0xbaf1b40c	-0.0018440499
95	0xbd87af16	-0.06625192
96	0x3bfe43d6	0.0077595515
97	0xbd00544c	-0.03133039
98	0xbde29837	-0.11064189
99	0xbc924bde	-0.017858442
100	0xbd5ffe9d	-0.054686178
101	0xbe4d0725	-0.20022257
102	0xbc82ca74	-0.015965678
103	0xbc443af0	-0.011976942
104	0xbe3f9e72	-0.18712786
105	0x3db3835a	0.08765288
106	0x3c74c58b	0.014939676
107	0xbd83b9ff	-0.0643196
108	0xbd83b8d9	-0.06431741
109	0xbced0d34	-0.02893696
110	0xbe046985	-0.12930878
111	0xbca6782e	-0.020320978
112	0xbd4d128f	-0.050066527
113	0xbd7e7efe	-0.062132828
114	0xba938c9d	-0.0011257116
115	0x3da1154a	0.07865389
116	0x3d33eeb9	0.043928836
117	0x3dec7c1d	0.1154711
118	0x3e4d2b0b	0.20035951
119	0x3e0b580e	0.13607809
120	0x3e8d9dfb	0.27659592
121	0x3e6089a8	0.21927512
122	0x3e19ffd2	0.15038994
123	0x3e5179b5	0.20456584
124	0x3e7ea054	0.24865848
125	0x3e67bf35	0.22631533
126	0x3dc7c008	0.09753424
127	0xbc4de89b	-0.0125676645
128	0xbdec0086	-0.11523537
129	0xbcc054d3	-0.023477947
130	0x3c853d24	0.016264506
131	0xbdf484e1	-0.11939407
132	0x3d18da4e	0.037317567
133	0xbd8a5c31	-0.06755865
134	0xbe143d83	-0.1447659
135	0x3defe9c9	0.11714513
136	0x3d849c98	0.064751804
137	0xbc526e18	-0.012843631
138	0x3cb2339e	0.021753129
139	0xbd29c53a	-0.041447856
140	0xbdd2aefd	-0.102872826
141	0xbdbcfad0	-0.09227526
142	0xbdbfd93a	-0.093676046
143	0xbe2fd47f	-0.17170905
144	0xbc53651f	-0.012902527
145	0x3d25f2e7	0.040514853
146	0x3d5e1434	0.054218486
147	0x3da24a3f	0.079243176
148	0x3da3d121	0.079988725
149	0x3de02d74	0.109461695
150	0xbc086315	-0.008324404
151	0xbcde7bac	-0.02715858
152	0xbd644530	-0.055730045
153	0x3d3d078f	0.046149787
154	0x3ccdf4e4	0.025141187
155	0xbdd21bc0	-0.10259199
156	0xbd019b95	-0.031642515
157	0xbc8bc564	-0.017061897
158	0xbe4acffc	-0.19805902
159	0xbd1a76d6	-0.037710987
160	0x3cfb5cec	0.030683957
161	0xbe1d788e	-0.15378019
162	0x3df7f7d1	0.12107814
163	0x3dbdeb15	0.09273354
164	0x3da4a904	0.0804005
165	0x3d9dcefb	0.07705494
166	0x3cab3c6b	0.020902833
167	0x3cd5bb5f	0.026090322
168	0x3ce3709e	0.027763661
169	0x39d69023	0.0004092465
170	0x3b8fc1b7	0.0043871063
171	0x3d73ddea	0.059537806
172	0x3e053033	0.13006668
173	0x3ce8947f	0.028391121
174	0x3e1bfff4	0.15234357
175	0x3d8c2636	0.06843226
176	0x3cd656bb	0.026164403
177	0x3e019a11	0.12656428
178	0x3d1b0a6b	0.037851732
179	0x3d6d5d08	0.05795005
180	0x3daccd73	0.08437624
181	0x3da0b1de	0.078464255
182	0xbcb85210	-0.022500068
183	0x3d577aba	0.052607276
184	0x3d132add	0.03592955
185	0x3d77b982	0.06047965
186	0x3dd9b602	0.10630418
187	0x3e1948dc	0.149692
188	0x3dae6867	0.08516007
189	0x3dc3f585	0.095683135
190	0x3caf9cf5	0.021437148
191	0xbd37e06f	-0.04489177
192	0xbb4dbc1d	-0.0031392642
193	0x3c4023ed	0.011727315
194	0xbd827cfb	-0.063714944
195	0xbaf8e0ea	-0.0018987928
196	0xbd4dde57	-0.050260868
197	0xbe05793b	-0.13034527
198	0x3e39e8d0	0.18155217
199	0x3e04b9fb	0.12961571
200	0x3e312271	0.17298295
201	0x3d5ccad0	0.053904355
202	0x3bae560c	0.005320316
203	0x3d126e59	0.035749767
204	0xbc777531	-0.015103624
205	0xbd702b0e	-0.05863481
206	0xbd094e28	-0.0335218
207	0x3d937dc5	0.07201723
208	0x3c712d76	0.014720311
209	0x3d94899d	0.0725281
210	0x3d8639bd	0.065539815
211	0x3d8f17c4	0.06986955
212	0x3c7d8061	0.015472502
213	0xbbcc3caf	-0.00623282
214	0xbd117a82	-0.035517223
215	0x3ce35cae	0.027754154
216	0xbd5512dd	-0.052019943
217	0xbc549180	-0.012974143
218	0x3cae6da1	0.02129251
219	0x3b048e63	0.002022647
220	0x3d616e7a	0.055037
221	0x3d154646	0.03644397
222	0x3d90c518	0.07068843
223	0x3d4a8c87	0.049450424
224	0xbc1ca0ee	-0.009559853
225	0xbd3a8ef9	-0.045546506
226	0x3c9c6205	0.019089708
227	0xbcc4674c	-0.023975037
228	0x3e5b1ca7	0.21397649
229	0x3e2e5e6b	0.17028205
230	0x3e1ea207	0.15491496
231	0x3da75e9b	0.081723414
232	0x3d91cc3b	0.07119032
233	0x3d390db3	0.04517908
234	0x3c7f732c	0.015591424
235	0xbbec0d27	-0.0072037163
236	0xbd882871	-0.066483386
237	0x3de71a81	0.11284352
238	0x3e0e6db1	0.13909031
239	0x3d02554b	0.031819623
240	0x3e03159e	0.12801215
241	0x3d7a122d	0.06105249
242	0x3dc6c46b	0.097054325
243	0x3e2c17b8	0.16805923
244	0x3de2247c	0.11042115
245	0x3d44d0a8	0.048050553
246	0x3ddb6ad6	0.10713737
247	0x3de8359a	0.11338349
248	0x3de7ae15	0.113125004
249	0x3e31004d	0.17285271
250	0x3dc04cca	0.09389646
251	0x3d0789ef	0.033090528
252	0x3e703359	0.23457088
253	0x3e24b113	0.16083173
254	0x3dce6549	0.10077912
255	0x3df74bf3	0.12075033

conv3.bias f4 [64]
0	0xbc9caabb	-0.01912438
1	0xbcf1f90e	-0.029537704
2	0x3c5a1ec4	0.013312999
3	0xbd094f4c	-0.03352289
4	0x3c7cd670	0.015431985
5	0x3d4e0a0e	0.050302558
6	0x3d36b4d0	0.04460603
7	0xbca8c17a	-0.02060007
8	0xbca038ea	-0.019558389
9	0xbb515943	-0.0031944073
10	0xbc76113d	-0.015018758
11	0xbd11f7c9	-0.035636697
12	0xbbefac5b	-0.0073142475
13	0xbd986b7f	-0.07442378
14	0x3c5f50a8	0.01363007
15	0xbc6ef4c5	-0.014584725
16	0xbd5eab0a	-0.054362334
17	0xbc58e972	-0.013239251
18	0x3d30b420	0.04314053
19	0xbd236d4a	-0.039899148
20	0x3cddb1a2	0.027062241
21	0xbb869930	-0.004107617
22	0xbca75096	-0.020424169
23	0x3c27dde5	0.010245775
24	0xbc4b71bc	-0.012417253
25	0x3d5d4c9d	0.054028142
26	0x3cfd2003	0.030899053
27	0x3caa202a	0.02076729
28	0x3c046249	0.008080074
29	0xbc854be8	-0.016271546
30	0xbd3618ab	-0.04445712
31	0xbd9727c9	-0.07380635
32	0xbd34c2be	-0.044131033
33	0x3cb69200	0.022286415
34	0xbd1511d4	-0.036393955
35	0xb9769729	-0.000235167
36	0x3ce61fd1	0.028091343
37	0xbd92ed0c	-0.07174119
38	0x3d3bd99b	0.04586182
39	0x3d6eba3b	0.058283072
40	0xbdc59f36	-0.09649508
41	0x3d21abb1	0.03947038
42	0x3cc9f35a	0.024652172
43	0xbca5e64f	-0.020251421
44	0x3d282e03	0.041059505
45	0x3c93461d	0.017977769
46	0xbb7b3133	-0.0038328886
47	0x3d731f51	0.059356038
48	0x3d7eaf66	0.06217899
49	0x3d3de543	0.04636122
50	0xbca254dd	-0.019815857
51	0x3d335840	0.043785334
52	0xba424862	-0.00074112986
53	0xbc27ce85	-0.010242109
54	0xbc8c6ba8	-0.017141178
55	0xbd25aac3	-0.040446054
56	0xbccb53b8	-0.024820194
57	0xbd686008	-0.056732208
58	0x3c159a7d	0.009131071
59	0x3c88ad67	0.016684247
60	0xbcd223d3	-0.025651848
61	0x3ceeb838	0.029140577
62	0x3bf975d9	0.0076129255
63	0xbd6c4927	-0.05768695

bn3.weight f4 [64]
0	0x3f7f2e93	0.9968044
1	0x3f9b0439	1.2110664
2	0x3f793395	0.9734433
3	0x3f8103f1	1.0079328
4	0x3f4d08e7	0.8009171
5	0x3f8340b9	1.0254127
6	0x3f9be720	1.2179909
7	0x3f757670	0.95883846
8	0x3f7044cb	0.9385497
9	0x3f58d9cc	0.8470733
10	0x3f8f9158	1.121623
11	0x3fa8213d	1.3135144
12	0x3f854742	1.0412371
13	0x3fa86d97	1.3158444
14	0x3f6bc54a	0.92097914
15	0x3f7f9990	0.9984369
16	0x3fa1733b	1.261329
17	0x3f82781d	1.0192906
18	0x3f7757de	0.9661845
19	0x3f4f0ad0	0.80875874
20	0x3f482476	0.78180635
21	0x3f7eb4cc	0.99494624
22	0x3f756ea6	0.9587196
23	0x3f80eae5	1.0071684
24	0x3f825d79	1.0184776
25	0x3f73f2a5	0.9529212
26	0x3f89063e	1.070503
27	0x3f992e87	1.1967324
28	0x3f7e1f9b	0.99266976
29	0x3f89a113	1.0752281
30	0x3f8db3d8	1.1070509
31	0x3f9a28af	1.2043666
32	0x3f9bed33	1.2181762
33	0x3f7c6cbe	0.9860343
34	0x3f860ffc	1.0473628
35	0x3f55c9ab	0.83510846
36	0x3f839008	1.027833
37	0x3f81f5cd	1.0153137
38	0x3f7d873f	0.99034494
39	0x3f95b1f0	1.1694927
40	0x3fa59a08	1.2937632
41	0x3f6d4681	0.92685705
42	0x3facf0d4	1.3510995
43	0x3f875cf8	1.0575247
44	0x3f49355f	0.7859706
45	0x3f8545bb	1.0411905
46	0x3f71a7bf	0.94396585
47	0x3f878c5a	1.0589707
48	0x3f8da34a	1.1065457
49	0x3f706399	0.93901974
50	0x3f9dc58a	1.2325909
51	0x3f878874	1.0588517
52	0x3fa8bafd	1.3182064
53	0x3f80f220	1.0073891
54	0x3f90213a	1.126014
55	0x3f7d280a	0.9888922
56	0x3f614508	0.8799596
57	0x3f52d307	0.8235325
58	0x3f6411e6	0.8908981
59	0x3f7aeefc	0.9802091
60	0x3f869795	1.0515009
61	0x3f83d80f	1.0300311
62	0x3faf5912	1.3699057
63	0x3f4f1d94	0.8090451

bn3.bias f4 [64]
0	0xbe47dd5d	-0.19518037
1	0xbec42832	-0.38311917
2	0xbe87fa36	-0.26558083
3	0x3d66cc1b	0.056346994
4	0xbdf525a2	-0.119700685
5	0x3ddc7451	0.10764373
6	0xbec8ffcb	-0.39257655
7	0xbdc67140	-0.096895695
8	0xbe838116	-0.25684422
9	0xbda1dee9	-0.07903845
10	0xbeb2ad8f	-0.3489804
11	0xbeb53046	-0.35388392
12	0xbe60b2e2	-0.21943238
13	0xbea90bb8	-0.33016753
14	0x3d276fd6	0.04087814
15	0x3da7f2b0	0.08200586
16	0xbeb7274c	-0.3577217
17	0xbe66e597	-0.22548519
18	0x3dab4e82	0.083645836
19	0xbe8f9ac2	-0.28047758
20	0xbe2ff882	-0.17184642
21	0xbe76015b	-0.24023955
22	0xbe8f2780	-0.27959824
23	0xbe9ac5fd	-0.30229178
24	0x3d8a9c4a	0.06768091
25	0xbddb8764	-0.10719183
26	0xbe809f33	-0.2512146
27	0xbed282ab	-0.41115317
28	0xbe943766	-0.28948516
29	0xbea92470	-0.33035612
30	0xbe3d6fdc	-0.18499702
31	0xbec298c8	-0.38007188
32	0xbeb3e0ff	-0.35132596
33	0x3d58031f	0.05273735
34	0xbe625523	-0.2210279
35	0xbd9decab	-0.077111565
36	0xbe6e2720	-0.23257113
37	0xbe9f49e9	-0.31111076
38	0xbe8e26d5	-0.27764
39	0xbec6720d	-0.3875889
40	0xbead03f1	-0.3379207
41	0xbe37a7c2	-0.17935088
42	0xbeab96a2	-0.3351336
43	0x3d5e5e4a	0.05428914
44	0xbe856a62	-0.26057726
45	0xbe83f78f	-0.2577481
46	0x3d2cd3c1	0.04219413
47	0xbe62ce74	-0.22149068
48	0x3decb352	0.1155764
49	0x3cf5e680	0.030017138
50	0xbe8dfb5f	-0.27730843
51	0xbe61feb6	-0.22069821
52	0xbeb2083e	-0.34771913
53	0xbe7a3b28	-0.24436629
54	0xbde56fc1	-0.11202956
55	0xbe2f67c6	-0.1712943
56	0xbe8f79f0	-0.28022718
57	0xbe2da4d8	-0.16957414
58	0xbc27e3a5	-0.010247146
59	0xbe8a8035	-0.2705094
60	0xbe754a00	-0.2395401
61	0xbe973a54	-0.29536688
62	0xbe82b73a	-0.25530416
63	0xbe7069aa	-0.23477808

bn3.running_mean f4 [64]
0	0x4053a33d	3.3068383
1	0xbd5a9e73	-0.053373765
2	0xc019c22d	-2.4024765
3	0xbfdbca90	-1.7171192
4	0x40082282	2.1271062
5	0xbf804825	-1.0022017
6	0xbd97481e	-0.07386802
7	0x405d2f90	3.456028
8	0x3fb14128	1.3848009
9	0x40225778	2.5365887
10	0xbe925cbc	-0.28586376
11	0xbf397f96	-0.72460306
12	0x3f495c82	0.7865678
13	0xbf746dfb	-0.95480317
14	0xbf2e2f0d	-0.68040544
15	0xbf9dbda6	-1.2323501
16	0xbee31762	-0.44353777
17	0x3f4ecb36	0.80778825
18	0xbf081407	-0.5315556
19	0x405430b3	3.3154724
20	0x4034f896	2.8276725
21	0x3f8540d0	1.0410404
22	0x3f9670cd	1.1753174
23	0xbfb72a46	-1.4309776
24	0xbfda3905	-1.7048651
25	0x4021577f	2.5209653
26	0x3f5d45f0	0.8643484
27	0xbd2767ff	-0.040870663
28	0xbf9a988e	-1.2077806
29	0x3ea5fc36	0.32418984
30	0xc0184098	-2.3789425
31	0xbd3903f7	-0.045169797
32	0xbe9d01fd	-0.3066558
33	0xbfff625a	-1.995189
34	0x3f2c4f8f	0.67308897
35	0xbf9ebf1d	-1.2402073
36	0xc0470c52	-3.110127
37	0xbf5eb798	-0.8699889
38	0x3f7fc194	0.9990475
39	0x3e6fe184	0.23425871
40	0xbf579e97	-0.84226364
41	0x407c7d98	3.9451656
42	0xbf85d248	-1.0454798
43	0xc03cf43f	-2.9524076
44	0x402326a3	2.5492332
45	0x3f8a1d19	1.079013
46	0xc00cb01d	-2.198249
47	0xbfd26c68	-1.6439333
48	0xc059d885	-3.4038403
49	0xc0149d42	-2.3220983
50	0xc0069caa	-2.103312
51	0x3f84bdb0	1.0370388
52	0xbf535936	-0.82558
53	0x3f60436d	0.87602884
54	0xc0163227	-2.346811
55	0x405d9a3d	3.462539
56	0xc07025f1	-3.7523158
57	0xc020fc1c	-2.5153875
58	0xbfef12f4	-1.8677659
59	0xc02808fd	-2.6255486
60	0x3f5cbef4	0.8622887
61	0xbfaadded	-1.3348976
62	0xc00c83e1	-2.1955492
63	0x3fe64286	1.7989051

bn3.running_var f4 [64]
0	0x412d97e6	10.849585
1	0x40d6c577	6.7116046
2	0x422d7505	43.364277
3	0x41529491	13.161271
4	0x40b9288a	5.7861986
5	0x4106f327	8.434363
6	0x40e67cfa	7.202756
7	0x404e30f0	3.221737
8	0x40fe27ef	7.9423747
9	0x407d1a3e	3.9547267
10	0x40eb88d4	7.3604527
11	0x40d3973f	6.6122127
12	0x411cb987	9.795295
13	0x40cf4a6a	6.4778337
14	0x416c74ff	14.7785635
15	0x415eac57	13.917075
16	0x40dde12e	6.9337378
17	0x4134de76	11.304312
18	0x40f21c9d	7.565993
19	0x41727107	15.152595
20	0x40f9d27c	7.806944
21	0x41052a63	8.322848
22	0x41132fd0	9.199173
23	0x421bca86	38.947777
24	0x412fdf74	10.992054
25	0x40a398b4	5.1123905
26	0x41147402	9.278322
27	0x40b8d8b3	5.7764525
28	0x421496d4	37.147293
29	0x40cbe4f6	6.3716993
30	0x418bd4c7	17.478895
31	0x40c83d2d	6.2574677
32	0x40c9470b	6.289922
33	0x4196d87c	18.855705
34	0x4147521f	12.457549
35	0x42105a0c	36.087936
36	0x420b8d9a	34.888283
37	0x41d70e2b	26.881918
38	0x4104f96b	8.310893
39	0x40c2ddb1	6.089562
40	0x40e019d8	7.0031548
41	0x41965090	18.789337
42	0x40e9ca33	7.3059325
43	0x40dee4b4	6.965418
44	0x40e2fc8a	7.0933275
45	0x40ffc08d	7.9922547
46	0x4207de20	33.96692
47	0x41a1e085	20.234629
48	0x40d7ed16	6.747691
49	0x4206cd43	33.70045
50	0x40b8f64e	5.7800665
51	0x412a0712	10.626726
52	0x40ddec96	6.93513
53	0x4133db43	11.241031
54	0x41760f14	15.378681
55	0x41364e50	11.394119
56	0x42235c9d	40.840443
57	0x41e4bc95	28.592081
58	0x41dea5db	27.830984
59	0x422af60f	42.74029
60	0x411c2aa7	9.760413
61	0x4222e88b	40.727093
62	0x40b6f2fe	5.717162
63	0x40c37b30	6.1087875

fc1.weight f4 [128, 64]
0	0x3d5d0cf2	0.053967424
1	0x3db0cf3f	0.08633279
2	0xbce9a048	-0.02851881
3	0x3d7d212d	0.061799217
4	0xbd510ece	-0.05103951
5	0x3daae32f	0.08344113
6	0xbde1eeb8	-0.1103186
7	0xbdc894f9	-0.09794039
8	0xbcffb8a2	-0.03121597
9	0xbdf65900	-0.12028694
10	0x3d5ebc45	0.054378767
11	0xbd54cf84	-0.051955715
12	0x3a71d86a	0.00092256686
13	0x3d26081e	0.040535085
14	0x3d9f84d6	0.07789008
15	0xbd780a07	-0.060556438
16	0xbd8f7e73	-0.0700654
17	0x3d04ba3b	0.032404166
18	0xbe098261	-0.13428642
19	0x3d93ae83	0.0721102
20	0xbd6c5d30	-0.057706058
21	0x3d677ee9	0.056517515
22	0xbdcc3665	-0.099713124
23	0xbd326ccc	-0.043560788
24	0xbdb00911	-0.08595479
25	0x3ccb5963	0.024822896
26	0xbe010edf	-0.12603329
27	0xbc78efaf	-0.015193864
28	0xbdef6fc5	-0.1169124
29	0xbd0b8f49	-0.034072194
30	0x3d8abfbb	0.06774851
31	0xbdcd0645	-0.100109614
32	0xbc827d1d	-0.0159288
33	0xbde5ff42	-0.11230327
34	0xbcd3caa4	-0.025853463
35	0xbd7a6765	-0.06113376
36	0xbd9215ee	-0.07133089
37	0xbd9f7997	-0.07786863
38	0xbb9afc68	-0.004729796
39	0x3dab250d	0.08356676
40	0x3d2eedfe	0.042707436
41	0xbd3a1079	-0.045425866
42	0x3da4076e	0.080092296
43	0x3dd46666	0.103710935
44	0xbcc81227	-0.024422718
45	0x3d790b4e	0.060801797
46	0xbd7cee63	-0.06175078
47	0xbde7b561	-0.11313892
48	0xbd3f5096	-0.046707712
49	0xbdc45417	-0.09586351
50	0xbdd99991	-0.106249936
51	0xbdb5ed9e	-0.088832125
52	0x3da7646e	0.08173452
53	0x3c0e2381	0.008675457
54	0x3deec5c5	0.11658815
55	0x3dd9c46a	0.10633166
56	0x3dd3773e	0.10325478
57	0xbdfd3885	-0.12364296
58	0xbdb60f0d	-0.088895895
59	0xbe01c272	-0.12671831
60	0x3dc13752	0.0943438
61	0x3c04a1b4	0.008095194
62	0xbc8fbeae	-0.017546978
63	0xbd832506	-0.06403546
64	0x3da197d6	0.078902885
65	0xbeafd9f5	-0.34345976
66	0xbd3394c5	-0.04384305
67	0x3c65e708	0.014032133
68	0x3de4ffaa	0.111815766
69	0xbd02086a	-0.031746306
70	0xbe789526	-0.24275646
71	0x3dcc9b2f	0.099905364
72	0x3d79ca26	0.0609838
73	0x3da65846	0.081223056
74	0xbe48df24	-0.19616371
75	0xbedbfc46	-0.42965907
76	0x3dd4bb34	0.10387269
77	0xbeab5212	-0.33461052
78	0x3daa5a34	0.08317986
79	0xbd1aea2b	-0.037820976
80	0xbeca57eb	-0.395202
81	0x3cc3ad97	0.023886485
82	0xbcc02a8b	-0.023457786
83	0xbd3c8c8a	-0.046032466
84	0x3e3320e9	0.17493023
85	0x3c82bbdf	0.015958725
86	0x3db246f9	0.08704943
87	0x3dd32503	0.10309794
88	0xbc3b1dd9	-0.01142069
89	0x3de912cb	0.113805376
90	0x3d68d80f	0.056846675
91	0xbeb151b9	-0.34632662
92	0x3e0a90ee	0.13531849
93	0xbd9c705d	-0.07638619
94	0x3e194c3b	0.14970486
95	0xbe8de7ab	-0.2771581
96	0xbe9bb425	-0.30410877
97	0x3daa4290	0.08313477
98	0xbdf49eab	-0.11944326
99	0x3d4253df	0.047443267
100	0x3e112306	0.14173517
101	0x3dd044c1	0.10169364
102	0x3dc68801	0.096939094
103	0xbdf969a9	-0.12178356
104	0xbe99480a	-0.29937774
105	0x3db44347	0.08801895
106	0xbf0cabd4	-0.5494969
107	0xbea2a273	-0.31764564
108	0x3cf5ef17	0.030021233
109	0xbd904669	-0.0704468
110	0x3e2414a8	0.16023505
111	0x3bedccde	0.007257088
112	0xbe7b08db	-0.24515097
113	0x3e1b9c43	0.15196328
114	0xbef07af5	-0.4696881
115	0x3d0d9912	0.034569807
116	0xbed09c3c	-0.40744197
117	0xbd9def29	-0.07711632
118	0x3e6deadc	0.23234123
119	0x3e67d7c5	0.22640903
120	0x3bf77646	0.007551941
121	0x3df076a6	0.117413804
122	0x3cd84057	0.026397867
123	0x3d002c84	0.031292453
124	0xbddef236	-0.10886042
125	0x3dd49d48	0.103815615
126	0xbf03bc0e	-0.51458824
127	0x3e3763b1	0.17909123
128	0xbd90f481	-0.070778854
129	0x3e9cfc5a	0.3066128
130	0x3ba3ba8c	0.0049966034
131	0xbd97d517	-0.074136905
132	0x3e145479	0.14485349
133	0xbd63702d	-0.0555269
134	0x3dc2055f	0.09473681
135	0x3a84da5b	0.0010135876
136	0x3e333fea	0.1750485
137	0x3b98adb6	0.00465938
138	0x3d282c03	0.041057598
139	0x3e1fc9ff	0.15604399
140	0x3df61952	0.12016548
141	0x3d75a0f8	0.059967965
142	0xbcb1ce1d	-0.021704728
143	0xbe032ff0	-0.12811255
144	0x3e014c6b	0.12626807
145	0x3e281fc6	0.1641837
146	0xbc9fa13b	-0.01948606
147	0xbe1c5dbb	-0.1527013
148	0xbdc9a192	-0.0984527
149	0x3e416002	0.1888428
150	0x3e56b16b	0.20966117
151	0x3dc90797	0.09815901
152	0xbe41c6d0	-0.18923497
153	0xbd9331b0	-0.071872115
154	0x3e87994d	0.26484147
155	0x3e62a206	0.2213212
156	0x3d87da88	0.066334784
157	0x3d96adaf	0.07357346
158	0x3e124381	0.14283563
159	0x3e70cc06	0.23515329
160	0x3e4a3a54	0.19748813
161	0xbe30a923	-0.1725202
162	0x3bb86812	0.0056276405
163	0x3cb41446	0.021982323
164	0x3e2f68dd	0.17129846
165	0x3e38e06c	0.1805436
166	0x3d72c1fa	0.05926702
167	0x3e6cc62d	0.23122473
168	0x3e050969	0.12991871
169	0xbe4a8f35	-0.19781192
170	0x3cf2f524	0.029657908
171	0xbe2ccee3	-0.16875796
172	0x3cd03183	0.025414234
173	0x3d1c0865	0.038093943
174	0x3d2dd54a	0.042439736
175	0x3e635d5b	0.22203581
176	0xbc9ce543	-0.01915229
177	0xbda2fc4a	-0.079582766
178	0x3df6c8e1	0.12050033
179	0x3e610eba	0.21978274
180	0x3d49a0d9	0.049225662
181	0x3cc4c373	0.024018979
182	0x3e1a17e8	0.15048182
183	0xbe294649	-0.16530718
184	0x3cb1116e	0.021614756
185	0xbd062aa2	-0.0327555
186	0xbc8120f2	-0.01576278
187	0x3e17ee1c	0.14836925
188	0x3e85c53b	0.26127037
189	0x3e236e83	0.15960126
190	0x3e0f8219	0.14014472
191	0x3dcef477	0.10105222
192	0xbcfdbf4e	-0.03097501
193	0x3dfd74f3	0.12375822
194	0x3d8ad86f	0.06779563
195	0xbe32ff37	-0.17480169
196	0xbcc56760	-0.024097145
197	0xbce58ea2	-0.028022114
198	0x3e8a589e	0.27020735
199	0xbc969373	-0.018380856
200	0x3e059dc0	0.13048458
201	0xbd43660c	-0.04770474
202	0x3e52078c	0.20510691
203	0x3cbb0adf	0.022832332
204	0x3df5e1ab	0.120059334
205	0xbca929ca	-0.02064981
206	0xbdaad8c2	-0.083421245
207	0xbcccc800	-0.024997711
208	0x3e482ffd	0.19549556
209	0x3e6a6b15	0.22892411
210	0xbdb33bbb	-0.08751627
211	0xbd66fad0	-0.056391537
212	0xbce0978f	-0.027416019
213	0x3e4ef8ea	0.2021214
214	0x3e0b3bdf	0.13597058
215	0x3d470e12	0.048597403
216	0xbd0464cd	-0.032322694
217	0x3e379e48	0.17931473
218	0x3e4474b4	0.19185144
219	0x3dc6f818	0.09715289
220	0x3ddc0db8	0.10744804
221	0x3e63c50a	0.22243133
222	0x3e86c54d	0.26322404
223	0x3e57fdf7	0.21092974
224	0x3d851b71	0.06499375
225	0xbe45c978	-0.19315135
226	0xbc917bfa	-0.017759312
227	0xbcf4a208	-0.029862419
228	0x3e016728	0.12637007
229	0x3e04876f	0.12942289
230	0x3df8ad67	0.12142449
231	0x3d71813d	0.05896114
232	0x3dd78715	0.10523812
233	0xbd9a0c48	-0.07521874
234	0xbcbdf871	-0.023189755
235	0xbdb45397	-0.08805006
236	0xbc9af712	-0.01891664
237	0x3cf0d680	0.029399157
238	0x3cfcec73	0.030874467
239	0x3e00939a	0.12556306
240	0xbd99de8d	-0.07513151
241	0xbe203470	-0.15645003
242	0x3d8ed045	0.06973318
243	0x3d1c2b13	0.038127016
244	0xbbf3dbba	-0.007441965
245	0x3e42ca0e	0.1902239
246	0x3e250bc5	0.16117771
247	0xbd91029d	-0.070805766
248	0x3e7d77e9	0.24752773
249	0x3e2293be	0.15876672
250	0xbd24bc23	-0.040218484
251	0x3e552953	0.20816545
252	0x3e4dca39	0.20096673
253	0x3d2c9459	0.042133663
254	0xbdf9aa40	-0.12190676
255	0xbc9101f5	-0.017701128

fc1.bias f4 [128]
0	0xbe0482f1	-0.12940575
1	0x3e80d4a3	0.2516223
2	0xbd30dcea	-0.04317943
3	0xbe602d75	-0.2189234
4	0xbd910051	-0.070801385
5	0x3e796b9e	0.24357459
6	0x3c82a7b9	0.015949117
7	0xbd88f8a4	-0.066880494
8	0xbe3efecd	-0.18651886
9	0xbd8550aa	-0.06509526
10	0x3e0bbd78	0.13646495
11	0xbd2a1dd9	-0.04153237
12	0xbe03c942	-0.12869743
13	0x3dd64bc8	0.10463673
14	0x3e5a18ae	0.21298477
15	0x3e3d1835	0.18466265
16	0xbde6f1a5	-0.11276559
17	0x3dff7dc7	0.12475162
18	0xbe0812cc	-0.1328842
19	0xbd72b9e2	-0.059259303
20	0xbd738073	-0.05944867
21	0x3c122e17	0.0089221215
22	0xbdded1fb	-0.10879894
23	0x3d1e5d2d	0.038663078
24	0x3cef6b3f	0.029225944
25	0x3e075743	0.13216881
26	0xbdc53124	-0.096285135
27	0x3e32ea6f	0.17472242
28	0x3c8e6756	0.017383259
29	0xbe4fc18b	-0.20288675
30	0xbc24a431	-0.010048912
31	0x3e28d5f7	0.16487871
32	0xbd3ccc9f	-0.04609358
33	0xbdfded9b	-0.12398835
34	0x3d8da5ba	0.069163755
35	0xbc15988f	-0.009130611
36	0x3d188ce8	0.037243754
37	0x3e2e7e29	0.17040314
38	0xbd8225b8	-0.063548505
39	0x3b9f6da0	0.0048653632
40	0xbc11e8db	-0.008905615
41	0x3e4e9b79	0.20176496
42	0x3e28866d	0.1645753
43	0x3c1b3c6f	0.009474858
44	0x3dc0d3c8	0.09415394
45	0x3e075c90	0.13218904
46	0xbe5126fe	-0.2042503
47	0xbdd8b341	-0.10581065
48	0x3e53aab2	0.20670584
49	0x3dd8ebdc	0.105918616
50	0x3da8b178	0.082369745
51	0x3d83b6ca	0.064313486
52	0x3e2a604f	0.16638301
53	0x3db60a70	0.088887095
54	0x3db0289e	0.08601497
55	0xbcac3960	-0.021023452
56	0xbc02cd95	-0.007983585
57	0x3e087229	0.13324799
58	0x3e5e3a9d	0.21702047
59	0x3e4e2204	0.20130163
60	0x3e68f880	0.22751045
61	0x3d324f9d	0.043532956
62	0x3e00a395	0.12562402
63	0xbc8bc228	-0.017060354
64	0x3e47365f	0.19454335
65	0xbe290fea	-0.16509977
66	0x3d6282c8	0.055300504
67	0x3e0223bf	0.12708949
68	0x3e3ef310	0.18647408
69	0x3d088b6b	0.033336084
70	0x3c6e9400	0.014561653
71	0xbda41b29	-0.08012993
72	0x3d9d59dc	0.07683155
73	0xbd143093	-0.036179136
74	0xbdb1bff6	-0.08679192
75	0x3bf3f42a	0.007444878
76	0x3aece774	0.001807435
77	0xbe6a979f	-0.22909401
78	0x3c2afecc	0.010436725
79	0x3d49f2a7	0.049303677
80	0xbd7dc9fd	-0.06196021
81	0x3ddbe5af	0.10737168
82	0xbdf74318	-0.12073344
83	0x3d169234	0.036760524
84	0xbe5b70c7	-0.2142974
85	0x3e7c6352	0.24647263
86	0x3e0c345e	0.13691851
87	0xbe41bae5	-0.18918951
88	0xbdad715a	-0.08468886
89	0xbddb4def	-0.10708224
90	0x3d12e52f	0.035863098
91	0x3e665417	0.22493015
92	0x3e0aa184	0.13538176
93	0xbd955d15	-0.072931446
94	0xbd36a85d	-0.044594157
95	0x3d44dbcd	0.04806118
96	0x3dc40ec8	0.09573132
97	0xbda9668d	-0.08271513
98	0xbc9ba457	-0.018999262
99	0xbdc34bab	-0.09535917
100	0x3df8b3c9	0.12143666
101	0xbe56687f	-0.209383
102	0xbdd3cb0a	-0.10341461
103	0x3d8d3099	0.06894035
104	0x3e40c2c2	0.18824294
105	0x3e06037e	0.1308727
106	0xbd5615be	-0.05226683
107	0xbd320eb2	-0.043471046
108	0x3e10b601	0.14131929
109	0xbe06375b	-0.13107054
110	0xbdfb853a	-0.1228127
111	0xbd8d8a54	-0.069111496
112	0xbe425fdc	-0.1898188
113	0xbdf69f2c	-0.120420784
114	0x3de42fac	0.11141905
115	0x3e256081	0.16150095
116	0x3c6d5f70	0.014488086
117	0x3e21ae83	0.15789227
118	0xbd975db8	-0.07390922
119	0x3e732a40	0.23746586
120	0x3e08e808	0.13369763
121	0xbd245a6a	-0.040125288
122	0xbca454d8	-0.020059988
123	0x3e018ec3	0.12652116
124	0xbe1e8005	-0.15478523
125	0xbdf0e265	-0.11761931
126	0x3e50ddd7	0.20397125
127	0x3d116447	0.035496023
