checkpoints/trained_dynamic_16x16_20251211_195229.pth (torch, 631930 bytes, 22 tensors)

conv1.weight f4 [16, 3, 3, 3]
00000000: d960 57be 4ebf 733d 8fab 363e 2a71 463e
00000010: a329 30bd 4cdc d0bd 54b3 fc3d bdc5 b43b
00000020: 0049 433e e395 1cbe 231d 8fbd 683d 94bd
00000030: 0dc9 5a3e e6f9 24bd e546 18be ef0e 3a3d
00000040: cc58 8fbd 623a c9bc 38d5 83be 4192 883c
00000050: ebed c43d 68b4 79bd f4af 4c3d 6c4b ea3d
00000060: 8101 a53d 3495 31bd da8f 19be 4c7a 293e
00000070: 9777 ddbd ef9f 513d 9a18 48be 2a6e 3b3e
00000080: 1ce2 f8bd a0b1 abbd 8efc 25be 1f71 3b3e
00000090: 093d 563c 8245 0bbe 3fb7 c6bd 3abc 3ebe
000000a0: 64e9 80bd 11e2 9bbd 23ca 383e 321d 483e
000000b0: aea8 1b3e 6d25 753d 3f17 74bd 35fd 80bd
000000c0: 61a8 2dbc 5920 aebc 0137 293d 484c 353e
000000d0: 5968 2ebe 43b2 283e 2d03 debd c819 f1bd
000000e0: e9ed c2bb 3541 97bb 8560 61bd 54e5 143d
000000f0: bfd8 5fbd 1929 23be f951 a7bd edc1 57be
00000100: e411 20bd c866 04be b673 bfbd 0f02 f23d
00000110: b610 b23d da3a 0e3e 4314 3c3d 03e2 d73d
00000120: 3494 113c dcee aabc 4edd b13d 03c6 413e
00000130: 6dc4 513e 2b27 21be 583e 023d 945f 393d
00000140: cb2b b23d 1774 443d 4b21 1fbe efd5 f83d
00000150: 2886 57bd 39c4 833d 0e65 763d 7b1d 833d
00000160: 449c 5abe 4490 8d3d c077 ba3c 4b04 15bd
00000170: 6761 85bc c416 cfbd 0771 afbd 846c 4b3e
00000180: 0401 96bd f6e1 41be 0a6a 273e 3b8f cd3c
00000190: 1a88 293e bd59 81bc cdc4 0e3c f720 6d3e
000001a0: a9c2 54bd 5f88 8ebd ec92 413c f01d 56be
000001b0: 9a3a 06bd 0a80 223e 1270 81be 2f47 363e
000001c0: fcfc 79bd 5ab8 53be c87a ce3d 7ea5 c0bd
000001d0: 774f d53d bdae e7bd 63d3 5e3d eb53 773d
000001e0: 525d 9cbd 7b9f 5b3d 534c adbd 9064 f73d
000001f0: 06a9 1d3e aa02 883d cef2 e93c 3d45 183e
00000200: 40e9 06be f71e 1f3c d35f d43d e998 e5bd
00000210: 7a54 3b3d 3d9a a43d 5a44 09bd 7581 cdbd
00000220: 1af2 833d 0f05 0d3e 8c60 be3d 3764 8a3d
00000230: d7c0 9b3d 260e 9bbd 45f6 70be af28 22be
00000240: 2580 37bd b3dc aa3c aa5f 133d 0dda 23bd
00000250: 6a19 0c3e 6ff5 de3d f917 233d 5b15 4cbe
00000260: cc28 cc3d d226 293d 1d9d ae3d 5d01 31be
00000270: 4192 363e 9434 53bd 4147 d63b 03d3 b43d
00000280: 8388 4abe 8a71 99bd a24a 893d 7939 2a3e
00000290: f334 003e 03f5 48be d125 89bd b493 06be
000002a0: a390 1c3e 3b6e 38be 96b3 783d ed07 da3d
000002b0: b88f e63d 2821 f53c c99c 2d3c 183e 06be
000002c0: 5d99 7d3d ac6c 2d3d 9e3f 963d 9538 0dbe
000002d0: 737d 46bc 39eb 15bd 4123 4ebe d963 bbbd
000002e0: a003 d43a 2054 3d3e 2a68 273e a347 2ebe
000002f0: 78e7 b63c c46a 00be 69a9 333e f14a 253d
00000300: 5b7a 313e 0b51 c1bd 9e79 9abc 4e88 6b3d
00000310: a832 10be 09ea a5bd dfc2 5bbd 9f16 05be
00000320: 71c5 fabd 5e0e 153e c386 163d a715 913d
00000330: 5965 47bd 8b9e 273e 7f33 26be 7abd 86bd
00000340: 675b b6bd e337 6b3e 08ef ee3d 80f5 4bbc
00000350: c6a4 0bbe 598f 043d 1038 fa3d 3b70 cdbd
00000360: 81ca 8bbd 793b 0bbe 1cf5 7abd e8b3 24be
00000370: 66ef d5bd ad41 923d a172 47be e780 a9bd
00000380: 3c42 f03d 6749 1a3e 1c6b 1d3e 9f7d fd3d
00000390: 9714 0cbd c5b2 363e ddb0 3f3d 6741 b8bd
000003a0: 24b9 babb d594 2b3e 6d68 aabd 7095 e33d
000003b0: a680 093e 5a22 e33d 7d17 85bd 44ab 993d
000003c0: 13d4 ef3d b5d3 30be c3da 433d 55db 89be
000003d0: 2fa3 273e d802 0b3e 2a6d a63d 5a57 73bd
000003e0: 469a 09be 4c2a 823c dc13 bcbc fc99 183e
000003f0: 45db 7abd 4d37 25be 41ca 75ba e098 143e
-0.21033038 0.059508614 0.17838882 0.19379106 -0.043008458 -0.10198268 0.123388916 0.0055167363
0.19070816 -0.15291552 -0.06987979 -0.07238275 0.21365757 -0.040277384 -0.14870794 0.045424398
-0.069993585 -0.024563972 -0.2574861 0.016671302 0.09615692 -0.060963064 0.04997249 0.11440167
0.080569275 -0.04335518 -0.14996281 0.16550559 -0.108138256 0.051177915 -0.19540635 0.18303743
-0.12152502 -0.08383489 -0.16209623 0.18304871 0.013076075 -0.13600734 -0.0970292 -0.1862649
-0.06294516 -0.07611478 0.18045859 0.19542387 0.15201065 0.059850145 -0.05959248 -0.062982954
-0.010599227 -0.021255659 0.04131222 0.1770488 -0.17031993 0.16474251 -0.108404495 -0.117724955
-0.0059487713 -0.0046159276 -0.05502369 0.036351517 -0.054650065 -0.15933646 -0.08169932 -0.2107007
-0.03907956 -0.12929833 -0.09348242 0.11816799 0.086945936 0.13889638 0.04591776 0.10541155
0.008885432 -0.02086585 0.08684789 0.18923192 0.20485087 -0.15737598 0.031797737 0.045257166
0.08699759 0.047962274 -0.15540044 0.121501796 -0.052618176 0.06433911 0.060154967 0.06402107
-0.21348673 0.06912282 0.02276218 -0.036381047 -0.016281797 -0.10111764 -0.0856648 0.19865614
-0.073244125 -0.18933854 0.16349044 0.025092712 0.16555825 -0.01578986 0.008713913 0.23157106
-0.051943455 -0.069596045 0.011814814 -0.20909858 -0.03277073 0.15869156 -0.25280815 0.17800592
-0.06103228 -0.20675793 0.100820124 -0.09406565 0.10415547 -0.113126256 0.054400813 0.060382765
-0.07634987 0.05361889 -0.08461823 0.12079728 0.15396509 0.06641133 0.028558161 0.14870162
-0.13174915 0.009711972 0.103698395 -0.11210806 0.04573486 0.08037231 -0.03351245 -0.100344576
0.064426616 0.13771461 0.092957586 0.06757396 0.07605141 -0.07571058 -0.23531444 -0.15835832
-0.044799943 0.02085719 0.035979904 -0.04000287 0.1368157 0.108866565 0.039817784 -0.19930021
0.09968719 0.041296788 0.08526061 -0.17285676 0.17829229 -0.051563814 0.006539256 0.0882931
-0.19778638 -0.07492359 0.06703688 0.16623487 0.12520199 -0.19624715 -0.06696666 -0.13142282
0.1528955 -0.180108 0.06071814 0.10646043 0.11257881 0.029923037 0.0105964625 -0.13109624
0.061913837 0.042339966 0.07336353 -0.13791116 -0.01211487 -0.03660128 -0.20130636 -0.09149904
0.0016175397 0.18489122 0.16348329 -0.17019515 0.02232717 -0.12540728 0.17545094 0.040354673
0.17331831 -0.09439286 -0.01885682 0.057503037 -0.14081824 -0.08101279 -0.05365264 -0.1299691
-0.1224469 0.14556262 0.036749613 0.07084208 -0.048680637 0.16369073 -0.16230582 -0.065791085
-0.08904152 0.22970538 0.11666685 -0.0124486685 -0.13637075 0.03236327 0.12217724 -0.10031172
-0.06825734 -0.13596906 -0.06126891 -0.16084254 -0.10446052 0.07141433 -0.19477321 -0.08276539
0.11731383 0.15067063 0.1537289 0.12377476 -0.034199324 0.17841633 0.04679953 -0.089968495
-0.00569834 0.16755994 -0.08320699 0.11112487 0.13427982 0.110905364 -0.06498621 0.075033695
0.11710372 -0.1726826 0.04781605 -0.2692515 0.16370843 0.13575304 0.0812629 -0.059409477
-0.13437757 0.01588931 -0.022958688 0.1490249 -0.061244268 -0.16134377 -0.00093761465 0.14511442

conv1.bias f4 [16]
00000000: ab6c 0a3e 7be1 1ebc 2e54 2fbc 8b45 633c
00000010: 6cad 33bd e4a3 0fbe 52d8 0bbe fb54 243e
00000020: 0602 973d 1bc9 2fbe ed18 21be 3134 25be
00000030: c942 8abc a53d 2fbd e714 1e3e ca0e fc3b
0.13518016 -0.009697313 -0.010701222 0.013871561 -0.04386656 -0.14027363 -0.13656738 0.16048042
0.07373433 -0.1716656 -0.15732165 -0.1613319 -0.016877549 -0.0427834 0.15437661 0.0076921927

bn1.weight f4 [16]
00000000: e6ce 843f c80b 853f f28b 823f 835d 753f
00000010: 76e9 593f 4919 803f 8448 813f 67a8 853f
00000020: b773 6e3f 6e0d 823f 1cb0 7d3f 3538 843f
00000030: ed7d 613f 82b6 823f ced0 813f 8a3b 8d3f
1.037564 1.039422 1.0198958 0.9584581 0.8512186 1.0007716 1.0100255 1.0442017
0.93145317 1.0160348 0.99096847 1.0329653 0.8808277 1.0211947 1.0141847 1.1033795

bn1.bias f4 [16]
00000000: fc90 013e cad9 7e3b 1111 443d d707 7f3d
00000010: 01f1 cbbd 1bdb 933d 0d58 d63c 3aad 853d
00000020: 115c 9dbc ffa7 c43c 6dad 8ebc 8a7b 213e
00000030: fda5 56bd 4c39 023e 2365 d73d eb5e 8e3d
0.12652963 0.0038887137 0.04786784 0.062263336 -0.09958077 0.072195254 0.026165033 0.06527181
-0.01920894 0.024005888 -0.01741668 0.15769783 -0.052404393 0.1271717 0.10517337 0.06951698

bn1.running_mean f4 [16]
00000000: eb51 733c 4b76 c6bc 4c68 013c adbf ac3c
00000010: d174 243e 9123 1ebe 8f33 30be bb64 1f3e
00000020: f028 d43e 91f4 25be 1ab9 cebe 2875 23be
00000030: ae42 063e 5e2f 34bd 278a 0a3e 29c7 b53d
0.014851074 -0.024226328 0.0078984015 0.021087492 0.16060187 -0.15443255 -0.17207168 0.1556577
0.41437483 -0.16206576 -0.40375596 -0.1596266 0.13111374 -0.043990485 0.13529263 0.088758774

bn1.running_var f4 [16]
00000000: 8bc3 b53d 7706 e53d 51da 923d 2ad1 a13d
00000010: c423 1f3e fac6 163e fa19 8b3d c8cf 813d
00000020: cfe9 093e 455e ae3d f9dd ed3d 534a dd3d
00000030: 509f d33d 04a7 313d 01bc 413e 46bf ec3d
0.088751875 0.11182874 0.07170547 0.07901223 0.15540987 0.14724341 0.06792064 0.06338459
0.13468097 0.08514074 0.116146035 0.10805192 0.10333121 0.04337217 0.18919374 0.1155992

conv2.weight f4 [32, 16, 3, 3]
00000000: b96a 53bd e0af 68bc 942a 96bd 7132 5c3d
00000010: 2623 babb 8346 9fbd 89f6 e33c c5f4 943d
00000020: 2ba0 873c 3d6e 43bd 33ee 50bd c7a5 3abe
00000030: 7133 263d c8a3 75bc 000d 86bd 4f8f e43d
00000040: 790d 89bd 8121 9c3d 5509 50bd a90e 9b3d
00000050: 55eb c3bd 1f46 2ebd b8a0 353d 0cfe 993c
00000060: 1504 0ebd 9832 793d 8794 c23d 6872 8abc
00000070: a6e7 61bc 6c38 7cbd 1d04 553d 3286 313d
00000080: 28d9 14bd 068c 8cbd c43a 143d b91b cc3d
00000090: 23b9 a9bc 755f 37bd 4189 26bd 2dd1 713d
000000a0: 999e 87bd 2862 1cbd aff7 53bd 73f9 fc3c
000000b0: eb35 65bd 1951 153d 7f68 c83c 9f25 12bc
000000c0: 315a 7a3d 0717 94bd 7120 f2bc 0327 9ebd
000000d0: b408 573d 92c9 9a3c b4be a1bd 534e dcbc
000000e0: 0c60 77be 5ecd 6dbd 8920 8a3d 9a99 ce3d
000000f0: 3abf 003e 2a1c 903d ee6b 30bd c488 543b
00000100: c72e 38bc 48e4 cebd 39a8 913b d8fc 683c
00000110: 51a2 30bd 1eba 873d 9e51 f13b 7966 9e3c
00000120: db20 05bd d5f1 abbc 2514 8fbd e581 9dbc
00000130: b75c 303d d56a d53c 6c0d 21bd 5540 e33c
00000140: 51bb 0fbd 2e37 093d ff46 d43c 676e 1abc
00000150: 1bca e03c 0628 40bd ca6e b6bc b1e6 913b
00000160: c93f c33b 1fe4 46bd 424a 5b3d 3279 9abc
00000170: ff69 0fbc c366 9c3c 87e6 083d 41a4 70bd
00000180: a1e8 8abd b767 cdbc d35c 64bd a9e0 e43c
00000190: 7a15 93bd a084 03be 1dba 203d 3ddf 093d
000001a0: f400 d43d f493 ac3b a4fe 83bc e2da 8d3d
000001b0: 5a7b 1d3d 04c0 b6bb 0903 9d3d 4c1d 093d
000001c0: 8e00 bf3c 4f32 89bd 81a4 1bbd 1557 533c
000001d0: b45d 343c b80c e93c 309c c0bc e2d0 10be
000001e0: f97c 163d e19b 283d c4b1 77bd c056 453d
000001f0: 3e9a d9bc 6d02 2bbd 3b77 be3d f63b 86bd
00000200: e3cb 2fbe fae6 80bb f44e 37bd 128d 2b3d
00000210: c38a c0bc 98eb f23c 9fb4 36bd 4653 ab3d
00000220: b874 573d 861e d9bc d03a edbc 4522 c1bc
00000230: c197 57bd 5d57 33bd da17 cb3a 50b1 95bb
00000240: ad2d 60bd 89c4 78bd ef1d 91ba ab31 8bbc
00000250: 4293 603c e80d 283d 9ba0 8c3d 0843 633d
00000260: 8204 f8bc 650d babc d6ba a8bd 6b97 6f3d
00000270: 9f4e ac3d 59b5 a63d 78b1 05bc c626 a63d
00000280: e124 81bc 1b5e fcbd 29b1 ad3c 2b83 293d
00000290: cf5c c83d b210 aabd 71fc 8b39 63a1 aa3d
000002a0: 4b91 b53d 38a5 753d 6ab9 843c d1a3 943d
000002b0: 9780 b8bc 045c 6d3d 74f9 f93c 0183 6ebd
000002c0: 70af aabd a64b 78bc eea9 e83c 4451 323d
000002d0: 05ed 84bd 71bc de3c c4f3 843d afba 293d
000002e0: 96be 0fbd 8f37 abbd 59d7 84bd 9a5d 353d
000002f0: 6e46 6c3d b016 1ebd 7953 8d3d cb06 2b3e
00000300: fa90 f2ba 2a0d 213d a32f 1f3c a0f4 2fbd
00000310: ccd9 2b3c 6bcc 0fbd 7b2a d23c 01a3 ad3c
00000320: caf4 ffbc c826 fabc d00b 27bc 6ff9 8abd
00000330: fd08 663c 0839 3d3c de7e 93bd b995 52bc
00000340: 0c77 273d d234 95bd a2d1 193e a003 a43c
00000350: a8b8 1dbd 983b 233e 26ff 5fbd 6375 17be
00000360: d1f4 56bd 4351 74bb 9166 debd 8f44 2e3d
00000370: 4c92 a23c 58c6 eabc ebe7 46bd 7055 e7bc
00000380: aaa5 ac3c c3ee 84bd 4de4 0ebd c1be 6d3a
00000390: 30f2 4ebd 1c18 84bd 9416 c33c 02a5 0d3d
000003a0: 67dd 15bd 82b7 0cbd bb14 993d d98b 973d
000003b0: 212d 8cbd c109 84bd ac9f 7abd d42e 373c
000003c0: fae4 e43d 5c6a b33c ca8c f4bd a2e3 5ebd
000003d0: 7dcc b13d a252 b33b 0720 623d 2c92 d93c
000003e0: a20e c2bd bdba 82bc f206 00bd 0ed5 d8bd
000003f0: 96a0 823b aacc 2ebd 8cbc e0bc ef14 143d
-0.05161545 -0.014202088 -0.0733234 0.053759042 -0.0056804596 -0.07777121 0.027827518 0.072732486
0.016555866 -0.047712553 -0.051008414 -0.18227302 0.040576402 -0.014992662 -0.06545448 0.111601464
-0.06692023 0.07623578 -0.05079015 0.075711556 -0.095663704 -0.04254734 0.044342726 0.018797897
-0.03467186 0.060839266 0.095009856 -0.016900256 -0.013788139 -0.061577246 0.052005876 0.04334087
-0.03633991 -0.06862645 0.036188856 0.09966225 -0.020718163 -0.04476877 -0.04065824 0.059037376
-0.06622047 -0.038179547 -0.05174988 0.030880665 -0.055959623 0.036454294 0.02446389 -0.008920102
0.06112117 -0.072309546 -0.029556485 -0.07722285 0.052498534 0.018894944 -0.07897702 -0.026892817
-0.24157733 -0.05805718 0.06744487 0.10087891 0.12572947 0.07036622 -0.04307168 0.0032430151
-0.011241621 -0.10102135 0.0044451025 0.014220439 -0.043123547 0.06627296 0.007364466 0.019335972
-0.032502037 -0.020989338 -0.06986264 -0.019226978 0.04305717 0.026051918 -0.03931944 0.027740637
-0.03509075 0.03349989 0.02591276 -0.009425736 0.027440121 -0.04691317 -0.022269625 0.0044525494
0.0059585315 -0.048557397 0.053537615 -0.018856619 -0.008753299 0.01909197 0.033422973 -0.058750395
-0.06782652 -0.02507387 -0.055752587 0.027939158 -0.07181831 -0.12843561 0.03923999 0.033660162
0.10351744 0.005266661 -0.016112633 0.06926514 0.038447715 -0.0055770893 0.076665945 0.033475205
0.023315694 -0.06699049 -0.03799868 0.01289918 0.011008669 0.028448448 -0.023511976 -0.14142182
0.036740277 0.041164283 -0.060472265 0.048178434 -0.026562806 -0.04175036 0.09300085 -0.065544054
-0.1716762 -0.0039337846 -0.04475303 0.041882582 -0.023503667 0.029653355 -0.044605847 0.083654925
0.052601546 -0.026503813 -0.028958708 -0.023575911 -0.05263496 -0.043784488 0.0015494779 -0.0045682564
-0.05473106 -0.060734306 -0.0011071543 -0.016991457 0.013706984 0.041028887 0.068665706 0.055483848
-0.030275587 -0.022711465 -0.08238761 0.058494013 0.08413433 0.08140058 -0.008159988 0.08112864
-0.015764656 -0.12322637 0.02120264 0.041384857 0.09783327 -0.08303966 0.0002670023 0.08331563
0.08865603 0.059972018 0.016201694 0.07257808 -0.022522254 0.05794908 0.030514456 -0.058230404
-0.08334243 -0.015154755 0.028401341 0.043534532 -0.064905204 0.027189465 0.06491807 0.0414378
-0.035093866 -0.08360206 -0.06486387 0.04427872 0.057684354 -0.038595855 0.06900687 0.1670181
-0.0018506341 0.039319195 0.009715947 -0.042957902 0.010488939 -0.035107058 0.025655022 0.02119589
-0.031244654 -0.03053607 -0.010195687 -0.06785857 0.014040229 0.011549242 -0.07201932 -0.0128530795
0.040885016 -0.07285465 0.15021375 0.02002126 -0.03850618 0.15940702 -0.054686688 -0.14790873
-0.05247957 -0.003727988 -0.10859407 0.04254585 0.01984515 -0.02865903 -0.048561018 -0.028238982
0.021075089 -0.06490853 -0.034885693 0.0009069257 -0.050523937 -0.06449911 0.023814477 0.03458119
-0.0365881 -0.034354694 0.07474657 0.07399721 -0.06844545 -0.06447173 -0.06118743 0.011180598
0.11176486 0.021901302 -0.11940916 -0.054416306 0.08681581 0.005472497 0.055206325 0.026558958
-0.09475447 -0.015958184 -0.031256624 -0.10587512 0.0039864285 -0.04267565 -0.027433656 0.036152776

conv2.bias f4 [32]
00000000: f349 87bd 72fd 7dbd 7033 f53c 8546 74bd
00000010: 208d a6bd 1b36 b53c 6908 87bd 796c 7c3c
00000020: 154d 803d 8028 b93c e1f3 89bd 2040 b63c
00000030: c6e8 fd3c fc9c 4dbc 2a71 e6bc 0a94 25bd
00000040: 14ec 153d 4619 7c3d fa5c 10bc dee9 f23c
00000050: 1584 e03c b976 91bd 329c 88bd 6823 8c3c
00000060: 1e26 6cbd 67a2 7bbd 5d93 94bb acbc 70bd
00000070: 27e0 b7bc 4009 ba3c 243e 923c b4c8 94bc
-0.066059016 -0.062009282 0.029931754 -0.059637565 -0.08132386 0.022120526 -0.06593401 0.015406721
0.06264702 0.02260232 -0.06735969 0.022247374 0.030994784 -0.012549635 -0.028130133 -0.040424384
0.036602095 0.06154754 -0.00881123 0.029652532 0.027406732 -0.07102723 -0.06670417 0.017106727
-0.05765354 -0.061434176 -0.0045341686 -0.05877368 -0.022445751 0.022709489 0.017851897 -0.018162109

bn2.weight f4 [32]
00000000: 48b4 6c3f b921 843f 0a88 803f bda1 833f
00000010: c874 733f 3be1 773f 4b03 783f b2aa 903f
00000020: e42f 753f 9bdd 873f 2cfc 6d3f e3d7 763f
00000030: c6e6 7d3f f800 873f fd88 873f 9037 803f
00000040: caf2 853f c921 883f 5175 753f eb34 6e3f
00000050: 694b 783f f068 823f 6110 723f ab82 7d3f
00000060: c5a9 833f edf5 7f3f 38f9 813f 4560 763f
00000070: 58f0 723f c242 7c3f 7d81 713f 6017 833f
0.9246259 1.0322791 1.0041516 1.0283734 0.9510007 0.9682805 0.96880025 1.1302092
0.957762 1.0614504 0.9296291 0.96423167 0.9918026 1.0547171 1.058868 1.0016956
1.0464718 1.063531 0.95882136 0.93049496 0.96990067 1.0188274 0.9455624 0.9902751
1.0286185 0.9998463 1.015418 0.96240646 0.94897985 0.98539364 0.9433821 1.0241508

bn2.bias f4 [32]
00000000: a84e 14bd 9b5f aebb c29e eabd bab8 ea3a
00000010: b98b e5bd 2e6b a3bd 9eff 83bc 0582 043c
00000020: f53c 84bb a33b 30bd 5e82 2bbd 1ebb 66bd
00000030: 8e4d 19bd 26bb 95bd 31c5 16bd 35a7 d4bd
00000040: f89e adbc b890 91bc d365 26bd d0b9 9cbd
00000050: 479d 96bd 650e 9a3b ae1d c7bd 0e5b 5abc
00000060: aaec 88bc 62d1 b1bd e553 59bd 70b8 fcbd
00000070: c171 acbd 6a37 35bd 65c3 85bd c83e 96bd
-0.036207825 -0.0053214557 -0.11456062 0.0017907836 -0.112082906 -0.07979427 -0.016113099 0.00808764
-0.004035587 -0.043025624 -0.041872375 -0.056330793 -0.037427478 -0.07311086 -0.03680915 -0.10383455
-0.021193966 -0.017769203 -0.04062445 -0.076526284 -0.07354217 0.004701423 -0.09722458 -0.013327373
-0.016714413 -0.08682515 -0.053058524 -0.12339866 -0.08420134 -0.0442423 -0.06531409 -0.07336193

bn2.running_mean f4 [32]
00000000: 4ed1 07bf fa91 8cbe e542 c3bf 1769 dfbd
00000010: f985 ebbf adab d6be 6fa8 ccbe 94e2 31bc
00000020: f36b 28bd f178 94be 0bcb 7dbf 096f e2be
00000030: 741d 5cbe 10c4 b6be 9377 45be 79af b7bf
00000040: b588 27bd 6b9b 9a3b 8e15 d4bd 06fc 41bf
00000050: 2637 7abf 4369 1cbc 5e9e 1abf d41c 81bc
00000060: a013 9fbd 3892 04bf 4af8 ccbe 647d 7fbf
00000070: dee9 52bf 6840 e73e 2efa d7be 6610 0dbf
-0.5305375 -0.2745512 -1.525479 -0.10908716 -1.840026 -0.41927853 -0.39972255 -0.010857243
-0.041118573 -0.2899852 -0.99137944 -0.44225338 -0.2149561 -0.3569646 -0.19283895 -1.4350425
-0.04090186 0.0047182343 -0.10355674 -0.7577518 -0.977404 -0.009546581 -0.603979 -0.015760817
-0.07767415 -0.5178561 -0.4003318 -0.99800706 -0.82388103 0.45166326 -0.4218306 -0.5510315

bn2.running_var f4 [32]
00000000: ccf9 813f 9fde 053f 1441 dc3f 3c5c 193f
00000010: 4dab d73f 1f6c 7d3f 64f7 f83e 9c67 293f
00000020: eb96 f23e 8d33 223f 8541 613f e45f 813f
00000030: 2e41 813e 980e 983f de99 0f3f c900 c73f
00000040: aba7 df3e 41ac bc3e 0988 f43e 0682 4a3f
00000050: 7377 ac3f c9d8 1e3f 7e94 763f 9069 033f
00000060: 9c5b 463f aa5a e53e 3d6c 0e3f 7257 cf3f
00000070: 8259 993f c2f7 e73e 76e8 1e3f 495a 133f
1.0154357 0.5229282 1.720736 0.59906363 1.6849152 0.98993105 0.48626244 0.6617372
0.47380766 0.6335991 0.879906 1.0107388 0.2524504 1.1879454 0.5609416 1.5547115
0.43682608 0.3685017 0.47760037 0.7910465 1.3473953 0.6204954 0.9632033 0.5133295
0.77483535 0.44795734 0.5563391 1.6198561 1.1980441 0.45306212 0.6207346 0.5755964

conv3.weight f4 [64, 32, 3, 3]
00000000: 3d9a 34bd e733 9fbc 0ac7 3a3d 75a8 eabb
00000010: 85d8 b53b 6cfb 12bc 8023 513d 8a07 703c
00000020: 0480 833a 1828 84bd 30e8 2b3c 62f9 af3b
00000030: 10b3 acbc eaf4 873c 6fed 3dbb 8dba d13d
00000040: d6d4 963c ddf1 34bd f263 a53c 2581 bfbc
00000050: 681b a9bb 97a9 76bc 0b9b 89bd 940e 82bc
00000060: de67 bdbd a24b a7ba d602 fd3b f926 e3bb
00000070: 70fa 76bd 5f18 a0bc c316 4f3d 03cc a43c
00000080: fdcd 013d 3eec 393c 8779 cd3c 2b15 d5bc
00000090: 6068 53bd 6ae5 6cba 780a 233d 498a 4b3b
000000a0: acad adbc 3e29 b13c 5eec 57bd 61c1 aabc
000000b0: fb42 94bc 31a3 94bd 3b74 16bd 184e 383d
000000c0: 0d7e 00bd 1741 c3bc a94f 01bc c7f0 983c
000000d0: 0867 883c e06f 4d3d 345e 053d 81e9 41bd
000000e0: 7998 2d3d d2dd f23c a803 183d 5cbe ecbb
000000f0: 7583 4fbd 64f9 2fbd e957 88bc c762 c0bd
00000100: cd4f 2fbe 9941 eabc 6ff2 6dbd 1893 e5bc
00000110: f548 81bd 2fd7 f03c 11d2 5f3d d6c9 483c
00000120: e79e 76bd f8c9 bdbd be1c bb3c 6c17 6c3d
00000130: 86b2 d53c 0bb4 e93c 3aab 0fbd b9d8 d6bc
00000140: 0105 0f3d 12e0 b1bd 2b34 23bd 37f4 16bd
00000150: 9d2b ab3c 10d3 c43c 5b1d 08bd cf03 a33c
00000160: abee fe3c 05ec 8cbc 8152 8ebd e209 1b3d
00000170: 4095 cebc 0705 2c3d f757 c93c 72f9 0b3b
00000180: 4bf4 2fbd 3954 ccbc d9f9 d33c 4bb2 3f3d
00000190: 0ad0 6abd 01a2 1e3d 13ee cf3c 6db1 3cbd
000001a0: b677 5bbc f45b 1dbb 0c87 6b3d 0098 9cbb
000001b0: 79db 51bc 2fbe 343d 5c2b e6bc 8204 1a3d
000001c0: 040b 1ebd de1a f4bc 5a32 acbc f5f8 0a3c
000001d0: d5d0 193d e05e f0bd 9933 843c b8f2 953c
000001e0: cd5c c93c 74c7 d33c 2a84 8c3d 5df0 36bd
000001f0: 56b7 763d 3a68 80bd a990 cbbd c0d4 3e3d
00000200: e393 903d 93f7 06bd 5bb6 2dbd eab7 08bd
00000210: 7d22 843c b72b a13c 9972 4e3d 633b 49bd
00000220: 7e17 20bd 7fc0 05bd e4b3 89bc 3b17 1abd
00000230: 0a72 e1bc f4f4 5dbd df97 93bc d356 c63c
00000240: 5833 b1bd aa9c 293c b6d6 1e3d 5b36 e2bc
00000250: e66e 7cbd 0d05 713c 051b b23d 0b2e 0a3d
00000260: 7328 553d a94c 7a3c b5d6 003d abfb 293d
00000270: a867 593d 22e5 b6bc 5521 cf3c 965a c23c
00000280: 16a8 23bd b158 cc3c 5b3f e0bc ad07 7dbd
00000290: ae5d fe3d 85e1 33bd a8f2 093b e64b 4a3c
000002a0: 1da4 7d3c 75c3 25bd 5a00 923d b72b 413d
000002b0: 6352 953d cef8 69bd fd3f dd3b 9792 b6bc
000002c0: 5b3d 2d3d d52a e5bb 2071 44bb fccf 80bd
000002d0: 03dc 84bd 415a 5f3d 8dfc 9ebc e12b e7ba
000002e0: d3ad eb3c f4f6 94bc 74ed aebc 0dd0 113c
000002f0: e321 6abd 9a06 9cbd 7aec 63bd c729 59bb
00000300: 10eb 9c3c 7970 d7bb dbf5 e13d cf4c 943d
00000310: 7609 e7bc 03f8 79bc 1ea7 15bd 1c92 73bc
00000320: 936d 84bb 443f 55bc 71b7 5abd 533e cabb
00000330: 02a8 5c3d a19e c5bb f7d0 5cbc 8bfb 81bd
00000340: 7bc8 e6bc 8490 c53b e398 6e3c 1153 623d
00000350: dbb7 8c3d 4d64 23bd bbd3 58bd fcce 823d
00000360: 972c 1bbd 1379 863d bf51 283d 232c 943c
00000370: 2418 903d 8677 15bc cbcf c6bc 0eba a4bb
00000380: dcb8 6c3a 3d09 0abd 6d27 ae3d 7a39 453d
00000390: 1962 53bd 0c28 24bc f8ac 993d 59c4 8bbd
000003a0: 29c7 22bd 229e fdbc 3700 b6bd a638 debd
000003b0: 60b3 703c c43b 803d 2250 07bd 6403 2a3d
000003c0: b338 383d 856d 453d a8bc f7bc ebe3 8a3c
000003d0: 7440 abbd 3a42 723d 684b d0bb fb85 edbc
000003e0: b026 673d 580c c6bd ccf4 43bd 8d22 d2bc
000003f0: ab5c 0ebd 9112 3e3c 7237 123d 5ade 3f3d
-0.044092406 -0.019433929 0.045599975 -0.007161195 0.005549493 -0.008971076 0.051059246 0.014650235
0.0010032658 -0.0645296 0.0104923695 0.005370305 -0.021081477 0.016596276 -0.0028980633 0.1024066
0.018412035 -0.04417597 0.02018926 -0.02337701 -0.005160738 -0.015055082 -0.06719025 -0.015876092
-0.09248327 -0.0012763629 0.0077212853 -0.006932136 -0.06029743 -0.019542871 0.050558817 0.020116812
0.031690586 0.011347828 0.025082363 -0.02601107 -0.05161321 -0.0009036871 0.039804906 0.0031057766
-0.021200977 0.021626111 -0.05271565 -0.020844163 -0.018098345 -0.07257689 -0.03673194 0.04499635
-0.03137021 -0.023834748 -0.007892528 0.0186695 0.016650692 0.05015552 0.032560542 -0.047341827
0.042381737 0.029646788 0.037112862 -0.007224841 -0.050662477 -0.042962447 -0.016643481 -0.0939384
-0.17120285 -0.028595733 -0.05809253 -0.028024241 -0.063127436 0.029399483 0.054643694 0.012255153
-0.060210135 -0.09267038 0.022840854 0.057639524 0.026086103 0.028528234 -0.035075404 -0.026226388
0.03491688 -0.08685316 -0.039844673 -0.036853995 0.02089482 0.024026424 -0.03323112 0.019899277
0.031119665 -0.017202387 -0.0694933 0.03785122 -0.025217652 0.041996982 0.024578078 0.0021358398
-0.042957585 -0.024942504 0.025875973 0.046800893 -0.057327308 0.038728718 0.025382077 -0.046067644
-0.0133952405 -0.0024011107 0.057501838 -0.004778862 -0.012808674 0.044126686 -0.028096847 0.037601955
-0.038584724 -0.029797968 -0.021020103 0.008482208 0.037552673 -0.11736846 0.016137885 0.018304214
0.024580384 0.025851943 0.06861146 -0.044662822 0.060233437 -0.0626988 -0.09939701 0.046589613
0.07059457 -0.03295095 -0.042410236 -0.03337852 0.016129727 0.019674165 0.050402258 -0.0491289
-0.039084904 -0.03265428 -0.016809411 -0.03761981 -0.027520198 -0.054188684 -0.018016754 0.024211323
-0.08652371 0.010352293 0.038778983 -0.02761381 -0.0616292 0.014710677 0.0869656 0.033735316
0.05204053 0.015277066 0.03145476 0.041499775 0.05307737 -0.022326056 0.025284449 0.023724835
-0.03995522 0.024944635 -0.02737396 -0.0617749 0.12420212 -0.043916244 0.0021049175 0.012347197
0.015481022 -0.040469605 0.07128973 0.04716083 0.07291105 -0.057122044 0.0067520128 -0.022286696
0.04229484 -0.0069936314 -0.0029974654 -0.0628967 -0.064872764 0.054529432 -0.019407535 -0.0017636978
0.02876941 -0.018184163 -0.02135346 0.008899701 -0.057161223 -0.07618447 -0.055645443 -0.0033136474
0.019155055 -0.006574687 0.11033221 0.072412126 -0.028202754 -0.0152568845 -0.03653633 -0.014866378
-0.0040413826 -0.013015572 -0.0533976 -0.0061719804 0.053871162 -0.006030873 -0.0134775555 -0.06346806
-0.028171768 0.0060291905 0.014562818 0.055255 0.06871005 -0.039890576 -0.052936297 0.063871354
-0.03788432 0.06566062 0.041093584 0.018087452 0.070358545 -0.009122735 -0.024269005 -0.0050270623
0.0009030232 -0.033700217 0.085036136 0.048150517 -0.051607225 -0.010019314 0.07503694 -0.0682456
-0.039740715 -0.030959193 -0.0888676 -0.108506486 0.014691204 0.062613994 -0.033035405 0.04150714
0.044975948 0.04820015 -0.030241325 0.016954383 -0.08361903 0.05914519 -0.0063566454 -0.02899455
0.05643338 -0.09670323 -0.04784088 -0.02565124 -0.034756344 0.011601106 0.035697408 0.04684291

conv3.bias f4 [64]
00000000: 53f8 4d3c f65f 2abd e519 5b3d 5c9b f2bc
00000010: df42 b6bc 20b6 3ebc 2d77 423d 0631 183c
00000020: 9d11 3ebd 7522 5c3b 3ebe 48bd 1cba 35bd
00000030: ffc5 f13c eaf9 babc adaa dabc 1124 a7bb
00000040: 52ef 3cbd 17ec 09bd b199 463d b19b 7d3c
00000050: 7f65 34bc 9b0e 91bc a10c afbb 2a29 be3c
00000060: 5a69 183d 707f f43c a5aa 6bbd 0a1a df3c
00000070: df98 c83c 385a c33c 10b3 5cbd 32fe 89bc
00000080: 5dc8 243d 2f9d 12bd 810d 43bd 4752 0cbd
00000090: 28b8 9b3c b37c 9f3c 7dc1 043d 5e23 91bc
000000a0: 30ba 693d 59b3 09bd 62f2 57bd 1d3d 25bd
000000b0: acdc 693d 50e4 f7bc 033a b3bc c8de 06bc
000000c0: a857 9b3c 4332 893c 49da 1d3d 7d01 4bbd
000000d0: 7d6f 2abd 17a6 293d 1553 5bbd 2e59 5fbd
000000e0: ffc9 49bd 7f87 f3bc a269 c23c fc99 90bc
000000f0: 768c 49bd 65e1 41bc 6945 4f3d b7a5 193d
0.012571412 -0.04159542 0.05349149 -0.029615097 -0.022248683 -0.011640102 0.047476936 0.009289032
-0.046403516 0.0033589874 -0.049009554 -0.04436694 0.029513357 -0.022824246 -0.026692713 -0.005100735
-0.04612667 -0.03367242 0.048486415 0.015479014 -0.011010527 -0.01770716 -0.0053420817 0.023212988
0.037209846 0.029845923 -0.057535786 0.027234096 0.024486957 0.02384673 -0.053881705 -0.016844843
0.040230144 -0.035794433 -0.0476203 -0.034258153 0.019008711 0.01946864 0.032411087 -0.01771706
0.057062328 -0.033618305 -0.05272139 -0.040341485 0.057095215 -0.030260235 -0.021878248 -0.008231826
0.018962696 0.0167476 0.03853825 -0.049561966 -0.04161023 0.04141816 -0.05354603 -0.054528408
-0.049264904 -0.029727696 0.02373201 -0.01765155 -0.04920622 -0.011833523 0.050603304 0.037511554

bn3.weight f4 [64]
00000000: a383 733f 7c03 823f 4569 6e3f dabd 723f
00000010: c1a1 6c3f 4f9c 883f 2708 6d3f a0f1 7c3f
00000020: e47c 703f d48d 863f f968 813f 9ba3 7c3f
00000030: 9998 703f 178c 783f df1d 823f 359e 833f
00000040: d5b3 663f da9d 6a3f 5468 803f de1f 833f
00000050: 32f3 7e3f fd2c 733f 8215 743f def1 743f
00000060: 61ef 813f 781c 7e3f 9470 793f 2a67 883f
00000070: 1c9e 7b3f 6c58 6d3f 58bf 863f 734b 7f3f
00000080: 401d 813f f684 893f 5407 843f a8ac 833f
00000090: c658 7e3f e277 7b3f 9256 813f 8e3a 743f
000000a0: dbd9 7f3f 96e7 863f 0f05 833f ca64 823f
000000b0: 75d0 793f f30d 763f 6a30 723f 9cf4 843f
000000c0: 7885 763f 76b1 803f 0d7f 723f 750b 833f
000000d0: 7fdf 6d3f 844b 873f f6a7 6e3f aff9 873f
000000e0: 19ec 833f a92d 723f 5f3d 833f 2e33 853f
000000f0: 1adf 673f e1b9 733f b130 7b3f 6dba 753f
0.95122737 1.0157313 0.9312938 0.9482094 0.92434317 1.0672702 0.92590564 0.9880619
0.9394057 1.0512033 1.011016 0.9868714 0.93982846 0.9708876 1.0165366 1.0282656
0.9011815 0.9164711 1.0031838 1.02441 0.99589837 0.9499052 0.9534532 0.9568156
1.0151178 0.9926219 0.97437406 1.0656483 0.9828813 0.92713046 1.0527143 0.997245
1.0087051 1.0743701 1.0314736 1.0287066 0.9935421 0.982298 1.0104544 0.9540185
0.99941796 1.0539424 1.0235919 1.0187008 0.97583705 0.96115035 0.94605124 1.0387149
0.9629741 1.0054157 0.94725114 1.0237871 0.9291915 1.056992 0.9322504 1.0623072
1.0306426 0.9460092 1.0253104 1.0406244 0.905748 0.95205504 0.9812117 0.9598759

bn3.bias f4 [64]
00000000: 6f49 73bd 9c28 fcbb d5c2 a9bd 4e12 6ebd
00000010: c3f3 09be e0a2 0abc 4c1a 93bd caf1 23bd
00000020: 86b7 debd 0617 bbbb fadd a6bc 15ca 57bc
00000030: 6d07 90bd 1e02 48bd 16a4 f6bc 13af ddbc
00000040: 8692 f1bd 258b 1abd efe1 cabd c195 dbbc
00000050: aaf0 00be f140 cfbd edc7 76bd 220c 87bd
00000060: bc03 67bd 4936 e7bd 4b52 6fbd deb6 78bc
00000070: 385f f9bc 51f2 aebd 9789 49bd eab7 a3bd
00000080: e7c4 c8bd 5cd1 15bc 3c2f 29bd 0b35 19bc
00000090: d615 7fbc 7bd1 33bd 97fc e1bb 1645 81bd
000000a0: 8f1a f0bc c561 49bc 7984 40bd bbc5 46bd
000000b0: e96a 98bd f7ff 6fbd 2c20 81bd 5dce 3ebb
000000c0: c963 97bd ae7d dfbc 8946 9cbd 5d54 18bd
000000d0: fa62 afbd e16a 93bc b31e 90bd 53af 8ebc
000000e0: 712c 94bd 00ce 5dbd 12ea 23bc 2da0 9ebc
000000f0: 1927 bbbd c67d 8bbd 7cc1 11bd 9ca5 5abd
-0.059396204 -0.0076952707 -0.082891144 -0.058122925 -0.13471894 -0.008461684 -0.0718275 -0.04002551
-0.10874848 -0.0057095317 -0.020369519 -0.013170739 -0.07032666 -0.048830144 -0.03010754 -0.027061021
-0.11795525 -0.037730355 -0.09906375 -0.026804807 -0.12591806 -0.101198085 -0.060249258 -0.06594111
-0.056400046 -0.11289651 -0.05842809 -0.015180318 -0.030440912 -0.08542312 -0.04920348 -0.07994063
-0.09803181 -0.009144153 -0.04130481 -0.009351025 -0.015569171 -0.043900948 -0.006896566 -0.06312005
-0.02930954 -0.0122913765 -0.047001336 -0.048528414 -0.074422665 -0.058593716 -0.063049644 -0.0029114701
-0.073920794 -0.027281608 -0.07630641 -0.03718983 -0.085638 -0.0179953 -0.070371054 -0.017417585
-0.07235039 -0.054151535 -0.010004537 -0.019363487 -0.09138317 -0.06811099 -0.03558491 -0.053380594

bn3.running_mean f4 [64]
00000000: d091 e8be cb0c 6b3f 91c6 c5be 207a 833f
00000010: 0893 b83e 8532 443f e7a8 14bf d871 2a3f
00000020: eb7f 9dbe f7db 4a3f 8d39 bf3f 4e29 2d3f
00000030: 039d 353f 1a1c 24c0 7beb 873f 30f3 9c3f
00000040: cbfc 77bd ac6a 603f 382f d73e c13a a53f
00000050: 48c7 323f 85c5 f03d dca0 2bc0 9fc9 44bf
00000060: 9e36 9e3e 7a8c 2e3f 0aa2 efbe fbb4 5a3f
00000070: f513 913f 1749 aebf ffe2 c43e 044d 1d3f
00000080: 2e29 363f 06e3 653f 4af3 7b3f 0480 483f
00000090: 8786 8a3f 805a 7c3f 24cc bf3f 2dc0 0dc0
000000a0: 1d6e 9d3f d45e 6b3f fdd6 7b3f f61b b33f
000000b0: 5bde 9d3f 1d3f 3dbf 6141 fdbf a9b3 8b3f
000000c0: 0f68 c63e dafb 733f f4bf f2bf 0466 703f
000000d0: f180 f1bf d8cb 553f 9a6a 023e a11b 6e3f
000000e0: 3d29 b73e 7a96 bfbf 7ef2 333f 4d63 833f
000000f0: 16ce 73bf 2fef 8e3f dd80 a43f 9741 043d
-0.45423746 0.91816396 -0.38628057 1.0271645 0.36049676 0.76639587 -0.58070225 0.6657996
-0.30761656 0.7924189 1.4939438 0.6764115 0.70942706 -2.5642152 1.0618738 1.2261715
-0.060543817 0.8766277 0.42028213 1.2908555 0.6983533 0.11756424 -2.681693 -0.7687015
0.30901045 0.681831 -0.46803313 0.85432404 1.1334215 -1.3616055 0.38454434 0.6144564
0.71156585 0.89799535 0.98418105 0.78320336 1.0822304 0.9857559 1.4984174 -2.2148545
1.2299229 0.9194157 0.9837492 1.3992908 1.2333483 -0.7392443 -1.9785577 1.0914203
0.38751265 0.9530617 -1.896483 0.93905663 -1.8867475 0.83514166 0.12735978 0.9301091
0.3577365 -1.4967797 0.7029189 1.0264679 -0.9523634 1.1166743 1.2851826 0.032289114

bn3.running_var f4 [64]
00000000: 75f6 833f f177 bc3f 74e2 4d3f 14ed 7f3f
00000010: ecd3 5b3f 9af6 8f3f 53b9 bc3f 55da 563f
00000020: fd44 893f 51ac a53f b975 763f 3f0e b33f
00000030: 9b51 393f a7ca ec3f 3fa1 a13f 68a7 ac3f
00000040: d34e b03f 96c6 863f 7a36 9d3f 7750 a33f
00000050: 0ccd 613f 2240 7a3f 9e25 9e3f 8397 3b3f
00000060: 2477 843f e710 483f 4c3a 913f 8e7f 973f
00000070: ec7f 863f 4d49 953f df6a 833f 34f8 953f
00000080: 3b5b 853f c5d5 e13f 58bb 6c3f ee78 803f
00000090: df32 6f3f 1e92 5f3f 82ea 613f 978a e23f
000000a0: a40b 9e3f 604e a33f 3692 5a3f cf35 b93f
000000b0: e759 953f f8b7 843f c8bb fe3f 77c4 c73f
000000c0: 529e 9e3f 25cb be3f d1a2 dd3f 81cb 9c3f
000000d0: d515 c33f 9722 a93f cabc 503f d09f 963f
000000e0: 1cc7 593f 29b0 d23f 2a8f 6b3f d499 453f
000000f0: ece3 3b3f af7c 6a3f 3aa0 7f3f eee6 b63f
1.0309588 1.4724103 0.80423665 0.9997113 0.8587024 1.1247132 1.4744056 0.839269
1.0724179 1.2943212 0.9627338 1.3988723 0.72390145 1.8499345 1.2627333 1.3488588
1.3774055 1.0529354 1.228225 1.2758931 0.882035 0.9775411 1.235523 0.73278064
1.0348859 0.7815079 1.1345916 1.1835802 1.0507789 1.1662995 1.026699 1.171637
1.0418466 1.7643362 0.92473364 1.0036905 0.93437 0.8733233 0.88248456 1.7698544
1.2347302 1.2758293 0.8537935 1.4469546 1.1668061 1.0368643 1.9901056 1.5606831
1.2392066 1.4905745 1.7315313 1.2249604 1.5241038 1.3213681 0.8153807 1.1767521
0.8506944 1.646001 0.92015326 0.7718785 0.73394656 0.915965 0.9985386 1.4289224

fc1.weight f4 [128, 1024]
00000000: 8691 96bc f471 3abd bd7a 14bd c583 1cbd
00000010: e624 17bd 44f8 0abc 7643 a2bc 2209 45bc
00000020: 6732 eabc 78bc ccbc a0ad 25bc f88d ebbb
00000030: 9224 44bd 8f58 35bd 0372 50bc 7524 b1bc
00000040: 7ea2 c6bc 1a0e 8dbc 59eb 4dbb 0f0e 233a
00000050: 261e b63c ff48 6e3c a18e c4bc 3b6a eabc
00000060: ff66 093c eb97 e83b 17d8 bebc e9c4 e2bc
00000070: a35f 483c de60 5cbc 1f5e d73b 89a2 9abb
00000080: 7c98 66bc 9185 fcbb e587 f5bc 80a7 913c
00000090: d668 16bc c000 603b a6cb 05bd 7a9b a9bc
000000a0: bdc0 543c 1f43 14bd 03fc ccbb 7b1b ccbc
000000b0: bf8a 1a3a 783b aabc 9702 a7bc 8434 02bd
000000c0: c36c 6a39 b454 19bd 838d 143b 23dd 843c
000000d0: fb66 493c c82a c4bb 8bda e3bc e1e2 0e3b
000000e0: 27fc f33c 50cc a8bc 4280 52bc 1944 2fbc
000000f0: ac20 d33c 2ea7 54bc 970e 903c 9c49 a1bc
00000100: 1f6b 03bd a263 d6bc 553b cbbc 10d8 bfbb
00000110: 421f cc3c 2579 2ebb dd05 0f3b 5642 56bc
00000120: 66d5 aa3c 967d 733c ac87 f13b 86e2 ddbc
00000130: 7178 02bd b991 8abc 9bb4 1d3c 75b6 df3a
00000140: dad5 d7bc 2880 873c 9d7d 113c a884 28bc
00000150: f243 c93c fad1 ef3b 6b9b 81ba 7602 d03c
00000160: 6b5b afbc 8e38 083d 9059 e7bc d248 06bd
00000170: e220 3e3c 1163 7bbb 4c8b d7bc d669 c6bb
00000180: 9e86 2ebd 54d3 f1bc 7b1a 00bd 13bd 42bc
00000190: b550 b1bb 5c0c a0bc 8597 20bd 6282 0abd
000001a0: f1d1 483c a19e b7bc a8c3 24bd 734f fe3b
000001b0: f451 66bc 69a0 343c e93c 7b3b be3b 1cbc
000001c0: f127 b93c ce8e 8ebb 3df4 f13b 4e1a 9738
000001d0: cd82 bdbc 814d 8539 a2cb 8ebc 321b 6b3c
000001e0: d091 013c 300a fd3c 0a3c b8bb af52 c3bc
000001f0: eb53 ecba 4b83 c73b 14ff b43c 2cf7 9d3c
00000200: 4ad8 afbb 359a ffbc cc89 e73b 3dfc 9eba
00000210: b88a f0bb 63f9 ec3b 0e77 bb3c b57c 1b3c
00000220: 390e 3e3c 0a73 81bc e66f 87bc 1284 3c3c
00000230: ed04 253b 8f25 ecbc bda0 8b3b 9370 c7bc
00000240: f1ac 4bbc 8c90 f23b 63e3 f3bc bcd0 29bc
00000250: a69a 8a3c d466 9fbc 7c4b 38bc 0316 963c
00000260: d9c5 993c afd7 983c b62a 833c 51bb a2bc
00000270: 8dcc 433c f044 823c 309a 04bc 9875 673c
00000280: ad34 1bbc b9d7 ad3c 881f 513c 1ee0 183a
00000290: 5345 573c b79b be3c 2382 783c 0ac3 4fbc
000002a0: 26ed acbc c093 4f3c ab5f 19bd 2d9f 13bd
000002b0: 9904 093d 7295 a2bc a091 61bc 6099 91bc
000002c0: 421d ffbc 20b1 63bc 6376 febc 52a8 00bc
000002d0: 38c6 2bbc ac61 01bd 734e 143c 9731 dcbc
000002e0: 63a1 553c 13cc aebb 7575 7e3a e174 d3bc
000002f0: 683f c73c 6e32 5abc 158e a33c 9df7 b3bc
00000300: 3057 5d3a 6f07 c83b 4749 77bc d84a 1cba
00000310: fdb7 20bd 0e9e f9bc e62f f4bb 5df4 ae3c
00000320: 27fc 773c f36f 88ba 30dc b8bc 61cc 32bc
00000330: b649 adbc a432 b53c a1eb 08bc f5ed b73b
00000340: 379a 5abb a65d 85bc aed2 f8bb de27 b2bc
00000350: 48a5 e93b d736 0a3b c00e e93b a41d 1f3c
00000360: b36d 1fbc a301 39bc d89b 3e3c eaca 40bc
00000370: 3fce 113a f0f5 cdbc 2cbd 40bd 8ae2 59bc
00000380: f4dc 8b3a 3d57 febc a466 eabc 064c a5bc
00000390: f176 b7bc 7965 d33b b7de 62bc 9684 d4bc
000003a0: 146b e7bc e25a 0fba 90d4 c8bc 080c f23a
000003b0: 1332 ff3c ee31 e2bc 6298 9d3c 4385 f33b
000003c0: f0b8 cabc dc3b 583c eabf 38bb 4d5e bdbc
000003d0: 0e1e ddbb 5fe4 363c 1c08 b3bb 8ffe a5bc
000003e0: 4a13 023d 5d13 c1ba 9d6c eabc 445c dc3c
000003f0: 542c 643a 23e8 2e3c 900f b8bc 599b c83c
-0.018379938 -0.04551883 -0.036249865 -0.038211603 -0.036900423 -0.008482043 -0.019807559 -0.012026103
-0.028588487 -0.024992213 -0.010112196 -0.007188555 -0.04788644 -0.04427391 -0.012722495 -0.02162383
-0.024247404 -0.017218638 -0.0031420796 0.00062200514 0.022231173 0.014543771 -0.023993792 -0.028615108
0.008386373 0.007098188 -0.023296399 -0.027681785 0.012229833 -0.013450829 0.0065724994 -0.0047190827
-0.014074441 -0.007706352 -0.029972026 0.017780066 -0.009180268 0.0034180135 -0.032664917 -0.02070402
0.0129854055 -0.036196824 -0.006255628 -0.024915447 0.00058953086 -0.02078031 -0.020386977 -0.031788364
0.00022356496 -0.037434295 0.0022667355 0.016218727 0.012292619 -0.0059865452 -0.02781417 0.002180271
0.029783322 -0.020605236 -0.012847962 -0.010697388 0.025772415 -0.012979312 0.017585082 -0.01968842
-0.03208458 -0.026170556 -0.024808565 -0.005854614 0.024917249 -0.00266225 0.0021823563 -0.013077339
0.02085371 0.014861485 0.0073709097 -0.027085554 -0.031853143 -0.01691519 0.009625579 0.0017067926
-0.02634709 0.016540602 0.008880046 -0.010285534 0.024568532 0.0073187323 -0.0009888237 0.025391798
-0.021405896 0.03325706 -0.028240949 -0.03278429 0.01160452 -0.0038358609 -0.02631154 -0.006055097
-0.04260885 -0.029519714 -0.031275254 -0.011885899 -0.0054112324 -0.019537143 -0.039207 -0.03381575
0.012257085 -0.022414507 -0.040225655 0.007760936 -0.014057625 0.011024573 0.0038335866 -0.009535728
0.022602053 -0.0043505197 0.007383852 7.205141e-05 -0.02313366 0.00025425482 -0.017431084 0.014349746
0.0079083 0.030888647 -0.0056223916 -0.023843138 -0.0018030381 0.0060886494 0.022094287 0.0192829
-0.00536636 -0.031201461 0.007065987 -0.0012129616 -0.0073407553 0.0072318777 0.022883918 0.009490182
0.011600071 -0.015801925 -0.01653285 0.011506097 0.0025179938 -0.028826503 0.004261105 -0.024345672
-0.012431369 0.0074024852 -0.029771512 -0.010364708 0.016919445 -0.019458212 -0.011248466 0.018321043
0.018771099 0.018657533 0.016011577 -0.01986471 0.011950624 0.015902013 -0.008093402 0.014127158
-0.009473008 0.021221029 0.012763865 0.0005831736 0.013139087 0.02326761 0.015167746 -0.012680778
-0.021109175 0.012669504 -0.03744475 -0.036040474 0.03345165 -0.019846652 -0.01376763 -0.01777333
-0.03114188 -0.01389721 -0.03106231 -0.007852631 -0.010484271 -0.031587288 0.009051907 -0.026879115
0.013038966 -0.005334386 0.00097068335 -0.025812568 0.024322227 -0.013317687 0.01996521 -0.021968657
0.0008443473 0.006104402 -0.015093154 -0.00059620803 -0.039237965 -0.030470874 -0.007451999 0.021356756
0.015135801 -0.001040934 -0.022565931 -0.010912986 -0.021153312 0.022118874 -0.00835696 0.0056130835
-0.003335608 -0.016280007 -0.0075934744 -0.021747526 0.0071302988 0.0021089816 0.007112354 0.009711657
-0.009730744 -0.011291894 0.011633836 -0.0117671285 0.0005562044 -0.025141686 -0.04705541 -0.01329864
0.0010670708 -0.031047458 -0.028613396 -0.020177852 -0.022395583 0.0064513055 -0.013847045 -0.025942128
-0.028249301 -0.00054685597 -0.02451542 0.001846672 0.031151807 -0.027611699 0.0192377 0.0074316575
-0.024746388 0.013197865 -0.0028190562 -0.023116255 -0.0067479676 0.011162846 -0.005463613 -0.020262985
0.031756677 -0.0014730502 -0.028616244 0.026899464 0.0008704115 0.010675463 -0.022468358 0.024488138

fc1.bias f4 [128]
00000000: 8293 f7bb 6691 8e3c 557a ac3c 189d 803c
00000010: c15d 59bc 8e5f 32bb d39f 013d ee3f c13c
00000020: a6e0 653c 08a1 90bc eb14 973c 6185 ac3c
00000030: d63d cebc e76e d63c 2499 9abc 01bb 27bc
00000040: 38ee e139 beee 1a3d 37b2 38bc 0037 b63b
00000050: fc99 38bd d3d5 c6bb 486c 58bd e12c 843c
00000060: 2d13 d73b ca09 18bd 186e 523c 052b 853c
00000070: fed6 2c3c 9db3 403c 76eb c73c a4bd 93bc
00000080: b980 1fbd 5cb2 bd3c 5f94 f1bc 9d02 853b
00000090: 7ce8 b7bc 9378 9cbc 3a17 0bbd 7a84 173b
000000a0: 65b8 15bd 98af 19bd 025e e63c 9c44 a7bb
000000b0: 8c74 c3bc 2163 0abd f23d 14bd 57af 473c
000000c0: 0946 2dbc cc6a 44bd 9ff8 39bc 6723 1fbb
000000d0: 051d 953b cf4e bd3c 7048 373c 5367 ad3b
000000e0: ef4a 1abc 9892 93bc 84a4 533c c2f5 213c
000000f0: 0589 97bb 07dc f0bc b9fd 453c e539 c7bc
00000100: d288 b7bc 558f 093c 163f 10bd bb25 683c
00000110: 2a75 a2ba dca0 a53c ca79 ca3b c3a2 903c
00000120: 624e f33a d8bd 2abd 3723 50bc 83c6 e43c
00000130: 5029 41bc 8119 48ba 944b 083d 5413 6d39
00000140: 2131 a23c 7d83 943c eec9 9cbc 1c6d 603c
00000150: 88d1 df39 0d04 013c b75b c9bc d5df 27bd
00000160: fc3f 00bd 9f6e 0d3b f113 993b 2257 f2bc
00000170: d4cb ce3c d652 923c b7fa 293d 1c8b 0f3d
00000180: 3317 43bb 8123 3d3b 0ade b6bb dda2 2fbc
00000190: 8996 0f3c 22eb b8bc 10b5 593c e8ba 5cba
000001a0: ee4e 68bb 0e9f f4bc ce35 7d3b 62c1 e1bc
000001b0: e016 0a3c 2967 17bc 7b95 9fbc 367d eebc
000001c0: aca6 debc 2336 6cbc 4386 82bc 23a4 c63c
000001d0: fb16 c4bc 55c2 213c d5b0 4bbc 5fa0 873c
000001e0: a02f 223c 8021 0abd bc10 ba3a 5792 36bc
000001f0: b0cd 3f3c 0a69 373c b065 a23b f5ee 983c
-0.007555426 0.017403316 0.021054426 0.015699908 -0.013266982 -0.00272176 0.03164656 0.023590054
0.014030611 -0.01765491 0.018442592 0.021059694 -0.02517597 0.02617593 -0.018871851 -0.010237456
0.0004309283 0.03782534 -0.0112729585 0.0055607557 -0.045068726 -0.0060679703 -0.05283764 0.016134681
0.006563565 -0.03711871 0.012843631 0.016255865 0.010549305 0.011761573 0.024404269 -0.018034764
-0.03894112 0.023156337 -0.029489694 0.0040591494 -0.022449724 -0.019100463 -0.033957697 0.0023119734
-0.036552805 -0.037520975 0.028120998 -0.0051046144 -0.023859285 -0.033785943 -0.03619189 0.0121878
-0.01057578 -0.047953412 -0.01135078 -0.0024282576 0.0045505785 0.023108868 0.011186704 0.005291858
-0.00941728 -0.018014237 0.012917642 0.009885253 -0.0046244883 -0.029401792 0.012084418 -0.024319598
-0.022404108 0.008395989 -0.035216413 0.014169152 -0.0012394537 0.020218305 0.006179069 0.017655736
0.0018562789 -0.041684955 -0.012703708 0.027926689 -0.011789635 -0.0007633195 0.033275202 0.00022609282
0.019798817 0.018129105 -0.019139256 0.013697889 0.00042689987 0.007874501 -0.024579866 -0.040984947
-0.03131102 0.0021580828 0.0046715667 -0.029582564 0.025243677 0.017861765 0.041498866 0.035044774
-0.0029768466 0.0028860273 -0.0055806683 -0.010719982 0.008763918 -0.022573058 0.013287798 -0.0008420185
-0.0035447436 -0.029861 0.0038636806 -0.027558032 0.008428305 -0.009240904 -0.019480458 -0.02911244
-0.027179085 -0.014417204 -0.015933162 0.024248188 -0.02393674 0.0098729925 -0.012432297 0.016555963
0.00989905 -0.033723354 0.0014195661 -0.011143289 0.011706755 0.011194477 0.0049559698 0.018668631

fc2.weight f4 [2, 128]
00000000: 3c25 f63c 5635 ae3d 6f38 633d 3899 b53d
00000010: 4acb 6b3d 5f50 a23d 6c5e e53c 7fad a63d
00000020: d1c6 44bb b2c2 993c 5cba 813d 5cd8 9f3d
00000030: cc5b 75bd f1cd 7d3d c3db 393c 87b1 85bb
00000040: 5d4c 053e 6638 0ebd 5019 8c3d 5954 64bd
00000050: dcd2 7dbd 701e 0d3d b0b2 42bd e564 cc3d
00000060: 03f2 18bd bf21 79bd cf2d d83b f3bd 873d
00000070: cb3b c03d cdb1 533d 8465 69bd ac06 7d3d
00000080: c4e5 b5bc 5365 97bd a61c 00bb 86ac 4e3b
00000090: 7294 01bd 1b39 723d 59d1 343b c1a7 403c
000000a0: a415 2bbd fe18 9fbc 0ccf 293d cbd2 093d
000000b0: 607e 813c 38f5 9abd e00a 20bd f5c1 cebc
000000c0: 02d4 a6bd ef5d 80bc 8c60 70bd 7c1a bbbc
000000d0: 99ba b43d eab2 013c 06ee 9dbc b7fd 2dbd
000000e0: d83c 5f3d 67af 97bd 10f2 62bb 947d babb
000000f0: 3268 8f3d 51e1 d9bc b0f6 8bbc 8619 cebc
00000100: b9d4 aa3b 1d48 2cbd e6e6 853d 053f 36bc
00000110: 0a20 88bc 7d7a f7bc 14ce d93c fab7 203d
00000120: a222 a5bd e672 403d ae40 6abd b405 cc3d
00000130: aa08 3b3d bf60 86bd e88f ad3a 523a 5bbd
00000140: 4668 423d 45c4 8ebd 558f 16bd 2b6a 943b
00000150: e6ab 973d 9929 22ba d0ef 5fbd 263b 56bd
00000160: 9304 81bd 954f 94bb 112f c6bd a00b 2cbd
00000170: 7632 6d3d ff49 bbbc 4eec 36bc 5426 2b3c
00000180: d891 92bd 05d4 e1bc 4c74 9dbd fd8e 7ebd
00000190: 3fe1 08bc aa69 1c3d 2e2e 113d f3cb e4bc
000001a0: 545b 043c daf2 34bd 1226 90bd d256 973d
000001b0: b241 87bd 228e 89bd 1250 21bd 491c 68bd
000001c0: 5573 85bd f410 273d df47 01bc bce3 3abd
000001d0: 76f3 2c3d 646d 993d 8fa0 97bd 6754 643d
000001e0: 3dbe 81bd 2ed5 88bd e3af 12bd 39c7 19bd
000001f0: 24d5 96bd a06d 8b3c 5101 99bc 9bd7 af3d
00000200: 6124 383d 1d2e 8ebc 0821 1fbd f7d9 543d
00000210: 7bc4 82bc d528 543c a265 82bd 8bb1 5f3c
00000220: 9eeb bebd 674d 93bd 7724 8b3d 8e24 96bc
00000230: bd0b 9c3d 9868 2cbd 0e84 6dbd 5f51 783d
00000240: 3245 e73b 9f4e cfbd 78f1 7e3d 9eb2 99bd
00000250: bfa2 803c aa62 a63d 34eb a03c 5970 7d3d
00000260: 96c5 373c 0b3b 6ebc 0c24 8c3d efcf 5e3b
00000270: 3d83 283c ebdf b23c c7bd 80bc 6823 8c3d
00000280: d42a b0bc 0ac7 743d 1b05 0bbb a9fb b53c
00000290: fd7f a23c 147e 993d 38c0 293d 1044 32bd
000002a0: ff04 c23c 21ef 093d 9e39 40bd 36ee 6ebb
000002b0: 4d28 bebd da0d a53d bdfa 13bc 09e6 a33d
000002c0: 28d2 ceb9 d959 273d 41ae e0bc e57d 91bd
000002d0: b961 f43c ba6e 943d 68d0 26bd a5b8 a5bd
000002e0: 767f db3d a728 91bd bc28 24bd 5698 483d
000002f0: 0be2 c53d d27d d13c f4dc 64bd 5579 68bd
00000300: fc72 a0bd 4c67 823d c27f 5f3d fcfb 63bd
00000310: 65de 2d3d 65a0 8abd 480d 91bd c1ea b7bd
00000320: 3dab 9cbb dbd6 533d a4a7 9e3c 15f0 9fbb
00000330: 876a a6bc 1186 a83b aaca 17bd 2558 bbbd
00000340: b2fd 5f3d 27c8 213c 4906 4e3d 07fa a5bd
00000350: 4a5d adbc c8d1 0fbd 562a 89bb 7c4a 083d
00000360: bfa2 f03c 402a 5a3d e215 14bd b821 2e3d
00000370: fe84 d53b 0338 e13b 65b1 5cbd 3d66 2ebd
00000380: b84f 9dbd 9045 84ba f53d edbc af22 823d
00000390: b2b3 313d ede0 803d e9bf 80bd bdb6 83bd
000003a0: 7440 763d 677a dc3c f536 783d 9dc5 183d
000003b0: 9a2a 36bc 348b c1bc 220d 843c e8a8 543d
000003c0: 80e8 023d ff0d a3bc 1000 3b39 ea0b b1bd
000003d0: 7282 31bd 7a27 a0bd 0953 83ba 9af9 183d
000003e0: ab26 ab3c 9bf7 ed3b 1e12 94bc 5f3f be3c
000003f0: 508f 8f3d b46c 2c3b 9aa0 403d b0bc 703d
0.030047052 0.08506267 0.05547374 0.08867115 0.05756692 0.07925486 0.027999125 0.081385605
-0.003002573 0.018769596 0.06334373 0.07804939 -0.059901997 0.06196398 0.011343899 -0.004080001
0.13017412 -0.034721754 0.068407655 -0.055744503 -0.06196867 0.034452856 -0.04753369 0.099801816
-0.037340175 -0.0608232 0.0065972577 0.06628027 0.093864046 0.051683236 -0.05698158 0.06177394
-0.022204287 -0.07392373 -0.0019548326 0.0031535937 -0.03163571 0.05913649 0.0027590601 0.011758746
-0.041768685 -0.019421097 0.04145722 0.033648293 0.01580733 -0.07566303 -0.03907287 -0.02523897
-0.08145906 -0.015669791 -0.058685824 -0.022839777 0.08824653 0.007916192 -0.019278537 -0.04247829
0.054501384 -0.07406502 -0.0034629144 -0.0056912396 0.070022956 -0.026596697 -0.017085403 -0.025158655
0.005213347 -0.04206096 0.06538181 -0.011123423 -0.01661684 -0.030209774 0.026587524 0.039237954
-0.08063246 0.046984576 -0.05719059 0.09962025 0.04566256 -0.065614216 0.001324174 -0.053522415
0.047462724 -0.06971029 -0.036757786 0.004529258 0.07405834 -0.0006186008 -0.054672062 -0.052302502
-0.062997006 -0.0045260885 -0.09676946 -0.042003274 0.05790945 -0.022862433 -0.011164738 0.01044615
-0.07156724 -0.02756692 -0.076881975 -0.062148083 -0.008354484 0.038186707 0.03544443 -0.027929282
0.008078415 -0.044176914 -0.07038511 0.073896065 -0.06604327 -0.06716563 -0.039383 -0.0566676
-0.065161385 0.040787652 -0.007890671 -0.04562734 0.04222437 0.07491568 -0.07403671 0.055744555
-0.06335113 -0.06681286 -0.03581227 -0.03754351 -0.07364872 0.017020047 -0.018677386 0.08586045
0.04495657 -0.017355973 -0.03884986 0.05196568 -0.01596283 0.012949188 -0.06367041 0.013653169
-0.09322284 -0.07192498 0.067940645 -0.018327978 0.076194264 -0.042091936 -0.057987265 0.060624477
0.0070578093 -0.10122418 0.062242 -0.07504772 0.015702603 0.081242874 0.019643404 0.06187472
0.011216542 -0.014540444 0.06842813 0.003399845 0.010285196 0.021835288 -0.015715493 0.06842691
-0.021504797 0.05976013 -0.002121276 0.022214727 0.01983642 0.074947506 0.04144308 -0.04352194
0.023684023 0.033675317 -0.046929948 -0.0036457903 -0.092850305 0.080592826 -0.009031949 0.0800286
-0.0003944796 0.04085717 -0.02742684 -0.071040906 0.029831754 0.07247682 -0.040726095 -0.08091859
0.107176706 -0.07087832 -0.04007791 0.048973404 0.09662255 0.025572691 -0.05587478 -0.056756336
-0.078344315 0.063673586 0.0545652 -0.055660233 0.04244842 -0.06768874 -0.07082611 -0.08980323
-0.0047811554 0.051718574 0.019367047 -0.004880915 -0.020314468 0.005142935 -0.03705851 -0.091476716
0.054685302 0.00987438 0.050298963 -0.081043296 -0.021162648 -0.035112172 -0.004185955 0.03327416
0.029374478 0.05326295 -0.03615368 0.042512625 0.006516098 0.006873132 -0.053880114 -0.04257797
-0.07681221 -0.0010091532 -0.028960207 0.063542716 0.04338426 0.06292901 -0.06286604 -0.06431339
0.06012006 0.026913835 0.060599286 0.037297834 -0.011118555 -0.023625948 0.016119543 0.051918894
0.03196001 -0.019904135 0.00017833733 -0.086448506 -0.043337293 -0.078200296 -0.0010019253 0.037347414
0.020892462 0.007262183 -0.018075045 0.023223577 0.070097566 0.002630991 0.04702816 0.058773696

fc2.bias f4 [2]
00000000: 5ac7 67bc 8874 173d
-0.01414665 0.036976367
