checkpoints/trained_dynamic_128x128_20251211_195859.pth (torch, 631992 bytes, 22 tensors)

conv1.weight f4 [16, 3, 3, 3]
-0.056921046 -0.0005006203 0.06593727 0.08059116 0.06505979 -0.0039642258 -0.0667946 0.08943341
0.04807131 -0.12321583 0.020460691 0.070695974 -0.054230053 -0.28375646 0.072608 -0.18237086
0.092190124 0.10479149 -0.2502774 -0.021755062 -0.24140029 -0.17491466 -0.24825571 -0.09056979
0.059748523 -0.13254811 -0.15063348 0.14285617 0.1679472 0.14556868 0.14332263 0.0054105786
-0.069885455 0.09042474 -0.0033452061 -0.21276361 0.17401423 -0.07572483 0.15009479 0.07753127
-0.1494439 -0.061406612 -0.23220716 -0.23327228 -0.19074585 0.0944852 0.22456594 0.059711386
-0.048709262 -0.13250574 -0.03244288 -0.067496635 0.0149578005 -0.20778148 0.19745782 -0.14499573
-0.13687925 -0.06109152 0.21827944 -0.14841516 0.23765302 -0.025500353 -0.12727624 -0.040452607
0.09717775 -0.1676566 0.24389458 -0.123110645 -0.10660363 -0.053865522 0.18694331 -0.19251408
0.113235846 0.10017547 -0.2240268 0.07253664 0.08611888 -0.16493385 0.093376786 0.118649155
-0.1525596 -0.11326582 0.088353425 -0.11378422 0.10308963 -0.17076747 -0.17189744 -0.034970835
-0.13133572 0.13676229 -0.04468396 -0.15762526 -0.10438304 -0.30564874 -0.1303885 -0.042857982
-0.091460094 -0.037998244 0.017587053 0.19541553 -0.074938476 0.1519204 0.096950784 0.060660906
-0.09093432 0.092783146 0.005319512 0.18907054 -0.06599085 0.2245035 0.008233343 -0.05294506
-0.014119887 0.21405262 -0.18435052 -0.18552889 0.085031904 -0.08752339 0.13774781 0.1774598
-0.08790567 0.17612627 -0.051598508 -0.2719088 -0.2490434 -0.16163766 0.1915291 0.24555105
-0.057235107 0.00699227 -0.10039892 0.019438222 0.02530244 -0.17542861 0.044138428 -0.2465623
-0.09753176 0.12175621 -0.14022158 -0.04709037 0.14940205 -0.03311825 0.050051484 0.036169097
-0.08618079 -0.101426035 -0.11745896 -0.1039284 -0.065683566 0.22938009 -0.012631295 0.1292577
0.12271297 -0.07810651 -0.20813665 -0.11386686 -0.047242742 0.11586953 -0.11328209 0.1776387
0.031231651 0.24694674 -0.072858706 0.18313652 0.1176978 -0.15732151 0.09092937 0.04642317
-0.23312716 0.13777786 0.060342092 0.01935821 -0.098800585 0.1913231 -0.21106075 0.14901365
0.024996618 -0.118740045 -0.12956291 -0.103507295 0.011841299 0.12602638 0.11007088 -0.0033020629
-0.17505585 0.21568711 -0.17477208 0.00679938 -0.11843941 -0.16331835 0.12796618 0.022812318
0.01938244 -0.064918265 -0.13611342 0.05012875 -0.2620629 -0.15736826 0.16610278 -0.06646795
-0.14224003 0.098426975 0.092965364 -0.22519882 -0.12011465 -0.26812354 -0.19782405 0.18078977
-0.041992296 0.10313358 -0.15931629 0.0004997774 0.021111201 0.017577404 -0.17587785 -0.03756412
-0.07583618 0.026679277 -0.011701521 0.007584608 -0.09141291 0.13367431 0.005428148 0.005961514
0.020361485 0.14004211 -0.22803377 -0.27423257 0.06619205 -0.14390561 0.010197832 0.21837088
0.23187624 0.015375481 -0.012246273 -0.1789917 -0.10250154 0.07531084 0.035736643 -0.21797213
0.20839743 0.016723184 -0.10174014 0.1780075 -0.22838207 -0.13641025 -0.16388969 0.1414586
0.14527258 0.013597388 0.0063947383 0.10456479 -0.14996317 -0.2103631 -0.1187986 -0.115084216
00000000: 0b26 69bd 0f3c 03ba 1f0a 873d fa0c a53d
00000010: 113e 853d 56e6 81bb 9bcb 88bd dd28 b73d
00000020: 6ce6 443d 9558 fcbd 2e9d a73c 0dc9 903d
00000030: 5520 5ebd 8748 91be 81b3 943d 6dbf 3abe
00000040: 2dce bc3d ec9c d63d 5c24 80be ac37 b2bc
00000050: a331 77be d41c 33be bf36 7ebe a77c b9bd
00000060: deba 743d b1ba 07be aa3f 1abe e348 123e
00000070: 5afa 2b3e f50f 153e 2bc3 123e 394b b13b
00000080: 1b20 8fbd 9b30 b93d 3f3b 5bbb b4de 59be
00000090: c930 323e 9f15 9bbd 73b2 193e b7c8 9e3d
000000a0: d207 19be 8085 7bbd b7c7 6dbe eede 6ebe
000000b0: e152 43be 7581 c13d 9df4 653e ed93 743d
000000c0: 5d83 47bd 96af 07be d3e2 04bd ad3b 8abd
000000d0: 9011 753c abc4 54be 6232 4a3e c379 14be
000000e0: 132a 0cbe 1a3b 7abd a584 5f3e 25fa 17be
000000f0: 505b 733e 1ee6 d0bc b454 02be a2b1 25bd
00000100: 2105 c73d 2cae 2bbe 80bf 793e 6f21 fcbd
00000110: 0153 dabd 18a2 5cbd 116e 3f3e 6922 45be
00000120: 32e8 e73d cc28 cd3d 4867 65be 178e 943d
00000130: 185f b03d 6be4 28be 543c bf3d 54fe f23d
00000140: 9538 1cbe e9f7 e7bd a4f2 b43d b307 e9bd
00000150: a820 d33d abdd 2ebe e205 30be 943d 0fbd
00000160: df7c 06be 6a0b 0c3e 8706 37bd 8468 21be
00000170: c6c6 d5bd fe7d 9cbe 9084 05be da8b 2fbd
00000180: 6e4f bbbd 0ca4 1bbd b912 903c 021b 483e
00000190: 5879 99bd 0591 1b3e 228e c63d 9277 783d
000001a0: c63b babd 1705 be3d 4d4f ae3b b59b 413e
000001b0: 3626 87bd 3fe4 653e 25e5 063c ebdc 58bd
000001c0: 1957 67bc 9c30 5b3e 62c6 3cbe 49fb 3dbe
000001d0: 3525 ae3d 773f b3bd c30d 0d3e 06b8 353e
000001e0: e307 b4bd 725a 343e f558 53bd a137 8bbe
000001f0: 3c05 7fbe 5884 25be 3420 443e bc71 7b3e
00000200: 5c6f 6abd 691f e53b f39d cdbd e83c 9f3c
00000210: 1047 cf3c 8fa3 33be 7fca 343d d47a 7cbe
00000220: bbbe c7bd 525b f93d 3f96 0fbe d5e1 40bd
00000230: dafc 183e 01a7 07bd c902 4d3d 0c26 143d
00000240: 8e7f b0bd 74b8 cfbd 538e f0bd 6ad8 d4bd
00000250: 1b85 86bd 9de2 6a3e 7ef3 4ebc 215c 043e
00000260: f050 fb3d 4ef6 9fbd c621 55be 0733 e9bd
00000270: 9b81 41bd 014d ed3d 7100 e8bd ebe6 353e
00000280: 85d9 ff3c 9bdf 7c3e f236 95bd 2488 3b3e
00000290: 8b0b f13d e418 21be 2d39 ba3d 3926 3e3d
000002a0: e3b8 6ebe a415 0d3e 4529 773d 1c95 9e3c
000002b0: f657 cabd 34ea 433e 4f20 58be 0997 183e
000002c0: b5c5 cc3c fb2d f3bd 24ac 04be a2fb d3bd
000002d0: 0202 423c 0f0d 013e d76c e13d 6c67 58bb
000002e0: d741 33be 15dd 5c3e 74f7 32be 55cd de3b
000002f0: 5d90 f2bd ed3c 27be 9109 033e e6e0 ba3c
00000300: ecc7 9e3c def3 84bd 5161 0bbe ce53 4d3d
00000310: 1c2d 86be 2525 21be d916 2a3e 5920 88bd
00000320: 5fa7 11be 1594 c93d a064 be3d 859a 66be
00000330: abfe f5bd 7d47 89be 6392 4abe f420 393e
00000340: 1d00 2cbd b337 d33d cf23 23be 7e03 033a
00000350: 66f1 ac3c 7dfe 8f3c 5319 34be d6dc 19bd
00000360: 0050 9bbd 808e da3c bdb7 3fbc 4e88 f83b
00000370: b136 bbbd ebe1 083e 9bde b13b ce58 c33b
00000380: 21cd a63c 3367 0f3e af81 69be 3668 8cbe
00000390: b38f 873d fe5b 13be cf14 273c 9e9c 5f3e
000003a0: f770 6d3e 71e9 7b3c 98a4 48bc 9a49 37be
000003b0: 54ec d1bd 923c 9a3d 9660 123d 1634 5fbe
000003c0: 2366 553e 0fff 883c 225d d0bd 9947 363e
000003d0: fddc 69be 21af 0bbe b3d2 27be 86da 103e
000003e0: 56c2 143e 94c7 5e3c f48a d13b 1126 d63d
000003f0: f28f 19be 6d69 57be ae4c f3bd 46b1 ebbd

conv1.bias f4 [16]
-0.06936746 -0.092088155 0.10356113 0.065025285 -0.017713219 -0.063652515 -0.14881682 -0.11967168
0.056388706 -0.11873639 0.17572296 0.063762434 0.0642371 -0.094422765 0.07473472 -0.038259532
00000000: 8710 8ebd b798 bcbd dc17 d43d fa2b 853d
00000010: 501b 91bc 405c 82bd 7063 18be 6d16 f5bd
00000020: d8f7 663d 102c f3bd b8f0 333e e195 823d
00000030: be8e 833d b960 c1bd 840e 993d 07b6 1cbd

bn1.weight f4 [16]
0.80448985 0.95576364 1.2095448 1.0091835 1.0113713 1.0061859 1.1860154 0.9346005
1.0397369 1.0796436 0.8512048 1.0648181 0.78985375 0.92111045 0.8888587 0.85037804
00000000: 0cf3 4d3f edac 743f 5dd2 9a3f ed2c 813f
00000010: 9d74 813f b3ca 803f 5acf 973f fa41 6f3f
00000020: 1916 853f c331 8a3f 8fe8 593f f64b 883f
00000030: db33 4a3f e5cd 6b3f 3e8c 633f 60b2 593f

bn1.bias f4 [16]
-0.1703354 -0.06833583 -0.14199993 -0.04938835 -0.13930379 -0.09641105 -0.11082167 -0.22229561
-0.16004167 -0.18567702 -0.25802192 -0.06928933 -0.14779054 -0.2322975 -0.16622749 -0.097001165
00000000: 676c 2ebe a8f3 8bbd 6e68 11be 704b 4abd
00000010: a7a5 0ebe 2873 c5bd 79f6 e2bd 76a1 63be
00000020: f7e1 23be 1e22 3ebe 731b 84be 90e7 8dbd
00000030: 6756 17be 65df 6dbe 8a37 2abe 8ca8 c6bd

bn1.running_mean f4 [16]
-1.2550465 -0.29739937 0.0081687085 -0.4113497 -0.15937315 -0.21761627 -0.25033468 -1.1702988
-0.15888369 -0.7492662 -0.31150147 -0.21398762 -0.0058866157 -0.5351818 -0.2713636 -0.27720597
00000000: 5da5 a0bf bb44 98be 0cd6 053c 6e9c d2be
00000010: b732 23be cdd6 5ebe de2b 80be 5acc 95bf
00000020: 68b2 22be e9cf 3fbf 1f7d 9fbe 921f 5bbe
00000030: 83e4 c0bb ad01 09bf 2bf0 8abe f1ed 8dbe

bn1.running_var f4 [16]
0.91137624 0.24140707 0.20515566 0.31463274 0.19646814 0.19007888 0.1587904 1.0513546
0.15894946 0.43470183 0.2603613 0.14104232 0.18077706 0.23075837 0.18335146 0.15873508
00000000: f44f 693f 6a33 773e 5314 523e 8b17 a13e
00000010: f22e 493e 0aa4 423e f399 223e ca92 863f
00000020: a6c3 223e 3d91 de3e 144e 853e 666d 103e
00000030: 9f1d 393e ec4b 6c3e 7cc0 3b3e 738b 223e

conv2.weight f4 [32, 16, 3, 3]
0.03736493 0.03132808 0.057767887 -0.035496373 0.052799355 0.05917024 -0.04357474 -0.0033965474
0.044808954 0.036761288 0.016910926 0.04060693 0.047500428 0.04236765 -0.09846405 0.09982429
-0.08444623 -0.039295323 0.14651315 0.23071787 0.067096144 0.1015341 0.09906735 0.0124072265
0.05676261 0.12225748 0.114668645 0.033271603 -0.05286166 0.007227754 -0.0150734205 0.035273958
0.10899537 0.07782756 0.097841285 -0.05347262 0.026862908 0.002907465 0.08083139 -0.011752329
-0.05982776 0.0106669525 -0.12800209 -0.10033575 -0.12261875 -0.10104672 0.011712026 0.0752715
0.07995025 0.031759523 0.09585745 -0.0046322998 0.06470819 -0.00489381 -0.11783995 -0.090950064
0.055170387 -0.13289648 -0.04621875 0.077279754 -0.13455895 -0.06766608 0.13147885 0.09961683
0.10079977 0.103041254 0.055802554 0.07074017 0.012739097 0.07839776 -0.0610864 -0.044554487
-0.014376683 0.046540402 -0.037381254 0.02924209 0.08519696 -0.0050153593 0.052372523 0.04652949
-0.028000621 0.014953021 0.062128775 -0.032044962 -0.01922695 0.0112887155 0.07620052 0.014458592
0.060493473 0.03267069 -0.07594575 0.07777057 0.13814676 0.026683709 0.02340355 0.10078835
-0.06338503 -0.009177652 0.014249253 0.08764771 0.07495338 0.08232805 0.06430327 0.12043904
-0.0869194 0.06543053 0.111923724 -0.05761629 -0.056178134 -0.017937262 0.04663077 0.07824331
0.016995154 -0.0024618332 0.06153497 0.03932676 0.001804337 0.027208565 0.11116247 0.11564657
0.061867923 0.09035934 0.07533565 -0.06715987 0.0024976518 -0.023123153 -0.032102093 -0.056460883
-0.0076248897 -0.03843433 -0.007904293 -0.11221526 0.0172174 0.013320724 -0.069407485 0.008060839
-0.083189555 -0.09433882 0.016399046 0.024304958 0.019442149 -0.0022938645 -0.0031712481 0.09724236
-0.005632902 -0.09022025 -0.033307105 -0.10407282 -0.12918723 0.028697846 -0.114585936 -0.03616197
0.025645338 -0.027643664 0.0145111075 0.08920021 0.009623808 0.06631865 0.041566145 0.16498168
0.08425697 0.15873152 -0.06852497 0.0071241967 0.06421867 -0.008289031 -0.009930972 -0.005102107
0.0035597763 0.010564762 0.05359723 -0.042968538 0.08555278 0.0041816495 -0.027244039 0.0700041
0.087111875 0.07827969 0.023794856 0.19461863 -0.08896939 -0.08637309 0.025274528 0.0712218
0.023836087 -0.04086009 0.04683469 0.10128393 0.11777697 -0.13987672 -0.08478607 -0.06964765
-0.02666559 0.048086382 0.07967128 0.040180795 0.09244019 0.1624949 -0.16162376 -0.07271249
-0.21181814 0.004615762 -0.07010319 -0.19358402 -0.03433273 -0.16740024 -0.19660147 -0.019109357
0.07949861 0.041849915 -0.025586985 -0.013737265 0.1569317 0.12894759 0.13059452 0.1231086
0.003181447 -0.083601564 -0.050703995 -0.052756146 -0.019984374 0.022972759 -0.100978464 -0.009767311
0.02228203 -0.11717433 -0.12008415 -0.027814006 -0.069081254 -0.05720724 -0.02189762 -0.07362201
-0.05990331 0.081225045 -0.120901674 0.04923177 -0.044067964 -0.0395192 0.03476945 0.0605656
-0.045599792 0.108972214 0.029838873 -0.12682517 -0.017806707 0.0071149585 -0.039292723 0.04375283
0.20119658 -0.026796822 0.17041458 0.19649096 -0.027972361 -0.10076899 -0.02165455 0.06611383
00000000: f80b 193d df51 003d 059e 6c3d a564 11bd
00000010: 2344 583d 7e5c 723d 6d7b 32bd 9c98 5ebb
00000020: 9889 373d 0193 163d c888 8a3c 7453 263d
00000030: cf8f 423d b389 2d3d 85a7 c9bd ad70 cc3d
00000040: 25f2 acbd 22f4 20bd 8b07 163e 4e41 6c3e
00000050: b469 893d 1cf1 cf3d d3e3 ca3d ae47 4b3c
00000060: e97f 683d 2162 fa3d 65d7 ea3d ce47 083d
00000070: 7885 58bd ccd6 ec3b 82f6 76bc 6d7b 103d
00000080: f738 df3d 0e64 9f3d 0361 c83d 1b06 5bbd
00000090: 9a0f dc3c 2b8b 3e3b ee8a a53d d78c 40bc
000000a0: f40d 75bd 71c4 2e3c fb12 03be d47c cdbd
000000b0: 8a1f fbbd 95f1 cebd cce3 3f3c f227 9a3d
000000c0: f5bc a33d 4616 023d e950 c43d 8cca 97bb
000000d0: ba85 843d 415c a0bb 1256 f1bd 0744 babd
000000e0: 58fa 613d 0416 08be df4f 3dbd d944 9e3d
000000f0: d2c9 09be 8494 8abd 64a2 063e e903 cc3d
00000100: 1c70 ce3d 4b07 d33d 3891 643d 39e0 903d
00000110: a5b7 503c 018f a03d bc35 7abd c47e 36bd
00000120: 2e8c 6bbc 26a1 3e3d 161d 19bd 1c8d ef3c
00000130: be7b ae3d e257 a4bb 9284 563d b595 3e3d
00000140: 8f61 e5bc 84fd 743c be7a 7e3d 9441 03bd
00000150: d681 9dbc 4ef4 383c 050f 9c3d bbe3 6c3c
00000160: 01c8 773d b4d1 053d 7289 9bbd 2d46 9f3d
00000170: 5876 0d3e cb97 da3c cdb8 bf3c 1f6a ce3d
00000180: 03d0 81bd dd5d 16bc b375 693c a580 b33d
00000190: 2881 993d 9c9b a83d 6fb1 833d bea8 f63d
000001a0: cc02 b2bd 7100 863d 4438 e53d 0fff 6bbd
000001b0: 0b1b 66bd 2af1 92bc e8ff 3e3d 073e a03d
000001c0: 6c39 8b3c b556 21bb 180c 7c3d 1915 213d
000001d0: 817f ec3a 7fe4 de3c 26a9 e33d 1cd8 ec3d
000001e0: 3869 7d3d 510e b93d 9449 9a3d 1d8b 89bd
000001f0: a5af 233b c46c bdbc 7c7d 03bd 8743 67bd
00000200: 36da f9bb 516d 1dbd 0281 01bc 1dd1 e5bd
00000210: 810b 8d3c 2a3f 5a3c 8325 8ebd 9c11 043c
00000220: 495f aabd b634 c1bd 4b57 863c 311b c73c
00000230: 2445 9f3c a954 16bb b7d4 4fbb 0127 c73d
00000240: 3594 b8bb 65c5 b8bd 086d 08bd 2124 d5bd
00000250: a849 04be bf17 eb3c 08ac eabd 931e 14bd
00000260: 2c16 d23c f774 e2bc ffbf 6d3c 9aae b63d
00000270: 2dad 1d3c 13d2 873d 4341 2a3d f5f0 283e
00000280: eb8e ac3d 848a 223e d256 8cbd 1872 e93b
00000290: 1485 833d b7ce 07bc 84b5 22bc 932f a7bb
000002a0: 234b 693b d317 2d3c c588 5b3d c7ff 2fbd
000002b0: 4c36 af3d 3806 893b e42e dfbc 4f5e 8f3d
000002c0: b667 b23d 1a51 a03d 6eed c23c 1b4a 473e
000002d0: 9535 b6bd 60e4 b0bd 870c cf3c bcdc 913d
000002e0: e643 c33c e95c 27bd bbd5 3f3d f36d cf3d
000002f0: 0d35 f13d d83b 0fbe 52a4 adbd 6da3 8ebd
00000300: cc71 dabc 3af6 443d b22a a33d 9e94 243d
00000310: 4851 bd3d 1065 263e b380 25be 49ea 94bd
00000320: dbe6 58be d13f 973b 4392 8fbd e43a 46be
00000330: 7aa0 0cbd f86a 2bbe e551 49be 3a8b 9cbc
00000340: 2bd0 a23d d16a 2b3d cc9b d1bc 4412 61bc
00000350: b4b2 203e d60a 043e 92ba 053e 5d20 fc3d
00000360: d37f 503b 4c37 abbd feae 4fbd d416 58bd
00000370: 45b6 a3bc 5e31 bc3c cccd cebd 1207 20bc
00000380: ce88 b63c 18f9 efbd aeee f5bd 33da e3bc
00000390: 797a 8dbd 2452 6abd a362 b3bc 23c7 96bd
000003a0: 2c5d 75bd 5159 a63d 4c9b f7bd 41a7 493d
000003b0: 9c80 34bd e2de 21bd 696a 0e3d a213 783d
000003c0: d9c6 3abd d32c df3d a770 f43c 75de 01be
000003d0: 5fdf 91bc 9924 e93b 68f1 20bd 2b36 333d
000003e0: 7a06 4e3e 0285 dbbc 2981 2e3e ed34 493e
000003f0: 4b26 e5bc f95f cebd e264 b1bc b066 873d

conv2.bias f4 [32]
-0.04813575 -0.05787861 -0.061041735 -0.0048480663 0.084478855 0.057203613 -0.0028907617 -0.017786046
0.0692574 -0.04693726 -0.028075404 -0.06553803 0.039505206 -0.02092861 0.07731313 -0.02104456
-0.024593603 -0.049772903 0.010729715 -0.009511631 -0.008093327 -0.07653856 0.057769746 -0.026938807
-0.08059189 -0.04511688 0.078341916 0.022803083 0.0055258824 0.06401828 0.0432716 -0.014369329
00000000: fe29 45bd 1f12 6dbd e606 7abd 87dc 9ebb
00000010: 4003 ad3d 564e 6a3d ef72 3dbb 0bb4 91bc
00000020: d3d6 8d3d 4941 40bd 64fe e5bc cd38 86bd
00000030: 36d0 213d 7a72 abbc 5956 9e3d a465 acbc
00000040: 8678 c9bc acde 4bbd b0cb 2f3c acd6 1bbc
00000050: e099 04bc 40c0 9cbd f89f 6c3d c6ae dcbc
00000060: 5c0d a5bd 7acc 38bd ba71 a03d 88cd ba3c
00000070: 7612 b53b 041c 833d 903d 313d 566d 6bbc

bn2.weight f4 [32]
0.9466806 1.0276945 1.0055728 1.0051483 0.89986396 1.1228919 1.0142618 0.9058645
1.036125 0.89896786 0.8476199 1.0945165 1.0486845 1.0479509 1.0213512 1.121381
1.0481561 1.0718427 0.9597867 0.89233613 0.94947565 1.0196487 0.9225514 0.9913785
1.052329 0.8452591 1.0262585 1.061294 1.0739572 0.9510428 1.0947677 0.9507303
00000000: a959 723f 7e8b 833f 9cb6 803f b3a8 803f
00000010: 7c5d 663f ecba 8f3f 55d3 813f bce6 673f
00000020: be9f 843f c222 663f 9efd 583f 1e19 8c3f
00000030: 4b3b 863f 4123 863f a3bb 823f 6a89 8f3f
00000040: fb29 863f 2432 893f 95b4 753f 2470 643f
00000050: d610 733f d983 823f 542c 6c3f fbca 7d3f
00000060: b7b2 863f e662 583f 705c 833f 7bd8 873f
00000070: 6e77 893f 8a77 733f 5921 8c3f 1063 733f

bn2.bias f4 [32]
-0.12983346 -0.21334617 -0.0037722555 -0.20526531 -0.11674562 0.14309497 -0.0914583 -0.1517448
0.046950568 -0.0999236 -0.10039011 -0.09822039 0.02341825 -0.29796493 -0.27856708 0.030101283
-0.20250626 -0.27778694 -0.09015716 -0.1589124 -0.08689208 0.093185514 -0.15923998 0.00016854609
0.1440406 -0.11081941 0.09349419 -0.17166863 0.16155307 -0.20121193 -0.043808818 -0.09865239
00000000: 10f3 04be 6b77 5abe f237 77bb 1231 52be
00000010: 5418 efbd 7d87 123e 7d4e bbbd fd62 1bbe
00000020: 3d4f 403d bfa4 ccbd 5499 cdbd c627 c9bd
00000030: a1d7 bf3c dc8e 98be 58a0 8ebe f796 f63c
00000040: cd5d 4fbe 173a 8ebe 51a4 b8bd efb9 22be
00000050: 7af4 b1bd 0cd8 be3d ce0f 23be bfbb 3039
00000060: 617f 133e 49f5 e2bd e279 bf3d e7c9 2fbe
00000070: 2b6e 253e 800a 4ebe e070 33bd 440a cabd

bn2.running_mean f4 [32]
0.8191356 -0.10050732 0.13397636 0.037077826 1.1980404 -0.14700806 -0.32769358 0.91007936
-1.9940658 0.91634667 0.85013896 -0.12850073 -1.348973 -0.33302087 -0.30618012 -1.4510286
0.16495694 0.26065013 1.0469747 1.0579379 -0.19077404 -1.9631016 1.0860623 -0.78718036
-1.7048635 0.14715761 1.5484794 -0.29348573 -2.3230152 0.6560123 -0.48888132 0.53572804
00000000: dfb2 513f c8d6 cdbd 1931 093e ebde 173d
00000010: 6359 993f 4889 16be 74c7 a7be f6fa 683f
00000020: 8c3d ffbf b295 6a3f b5a2 593f b295 03be
00000030: 26ab acbf b681 aabe a4c3 9cbe 4ebb b9bf
00000040: 79ea 283e ef73 853e 4403 863f 826a 873f
00000050: 455a 43be ea46 fbbf 1704 8b3f a784 49bf
00000060: f838 dabf 7cb0 163e 9334 c63f c343 96be
00000070: 48ac 14c0 6cf0 273f a74e fabe 7925 093f

bn2.running_var f4 [32]
4.8803334 2.7126389 3.128516 2.898159 5.5325465 3.177193 3.2925549 4.901807
16.838041 4.750612 4.427141 1.6470151 10.8161955 4.379614 4.338429 10.056798
3.7207973 3.398772 4.802453 5.8705835 3.463466 14.525922 5.0689197 2.0009592
7.5473566 3.5110366 8.480969 1.0861044 16.899405 3.6718888 4.4585123 3.2663486
00000000: b12b 9c40 e09b 2d40 9b39 4840 707b 3940
00000010: 9f0a b140 2157 4b40 38b9 5240 9adb 9c40
00000020: 4fb4 8641 0305 9840 24ab 8d40 64d1 d23f
00000030: 230f 2d41 cc25 8c40 69d4 8a40 a5e8 2041
00000040: 8b21 6e40 7b85 5940 b2ad 9940 d2db bb40
00000050: 6da9 5d40 2d6a 6841 9734 a240 b70f 0040
00000060: f283 f140 d3b4 6040 0db2 0741 7805 8b3f
00000070: fb31 8741 3a00 6b40 22ac 8e40 db0b 5140

conv3.weight f4 [64, 32, 3, 3]
0.058832627 0.030883217 0.03059245 -0.09849712 -0.05282489 -0.08929957 0.070662886 -0.008427662
0.009058175 -0.013645666 -0.086957864 -0.06664913 -0.09627291 -0.09151516 -0.03263905 0.040675275
0.028055442 -0.06342421 0.027849076 -0.027574044 0.07778496 0.014101116 0.007916289 -0.023203148
-0.028867753 0.06271262 0.01827095 -0.029602217 0.011942904 -0.048068278 -0.056676794 -0.0908461
-0.09208831 -0.017929055 0.041329134 -0.023261493 -0.03869046 0.006100781 0.07242373 -0.052382965
-0.061928824 0.047998626 0.0008988592 -0.0042031263 0.019038534 0.14318869 0.08422926 0.12883858
0.13174413 0.12003629 0.17933734 0.12342035 0.17986652 0.164728 0.01060707 0.14848635
0.008151532 0.04979851 0.057813965 0.023401117 0.07003645 0.12669866 0.112212144 -0.069711015
-0.061806235 -0.091679506 -0.1279407 -0.12876281 -0.14187945 0.10443412 0.026728263 0.016114512
-0.106842235 -0.11900696 0.0066005606 -0.11018693 -0.079228535 -0.11618121 -0.08082176 -0.10700486
-0.091814525 0.028145019 -0.059696686 0.0261171 0.018401155 -0.037217572 -0.049338996 0.04946681
0.010764758 0.052224915 0.031136397 0.009162694 -0.064229295 -0.049435683 -0.07184225 -0.043937683
0.022433937 0.022115221 0.10362171 0.02203967 0.0085497275 0.028839726 -0.014379387 0.028978493
0.005646282 0.101862945 0.034457628 0.10761111 -0.0088792965 -0.055656835 0.048899483 -0.01638357
-0.00017419389 -0.06750486 0.027738376 -0.05656285 0.037362333 -0.03933819 -0.048388727 -0.020633891
-0.16813557 -0.05365948 -0.11079696 -0.058438756 -0.07520008 -0.071724035 -0.03464692 -0.085520685
-0.14472346 -0.08908386 -0.072613716 -0.12442163 -0.024893876 0.002265495 -0.09129698 -0.09200089
-0.0013113744 0.0025312258 -0.07350081 -0.04425099 0.0037450732 -0.082283236 0.034216784 -0.013071176
-0.01755543 -0.036579773 -0.058833063 0.0036088156 0.0014430123 -0.08970136 0.08015806 0.06687571
0.039762583 -0.12263807 -0.054565743 -0.1587033 -0.13205782 -0.117322 -0.1530971 0.039415527
0.036456283 -0.0535528 -0.00269804 -0.12211569 -0.064462684 -0.009306172 -0.11593501 -0.039928567
0.025665758 0.04979322 0.017737592 0.007237231 0.0016131289 -0.077652656 -0.110804535 -0.037070088
-0.1181173 0.025540935 0.034171462 -0.00082804164 -0.047105562 -0.079620354 0.013240706 -0.0048409193
-0.058330365 -0.0112009235 0.045003593 -0.047613073 0.06104504 -0.11317351 -0.108776376 -0.041855402
-0.0142751355 -0.11332394 -0.027565742 -0.0020198964 -0.102933474 0.03153197 0.033371504 -0.038575593
-0.053926457 -0.06238561 -0.095468864 -0.13627784 0.062138595 0.02228549 0.048429895 -0.14393856
-0.10497354 -0.14253677 -0.16228148 -0.06551708 -0.1571275 -0.12348489 -0.090107 -0.1325877
-0.09507417 -0.08571622 -0.061920144 -0.15139873 -0.07869436 -0.088090785 -0.08346743 -0.17287011
-0.14264604 -0.011759989 -0.062114187 -0.04284107 -0.0341232 -0.009814938 -0.10952756 -0.0011605916
0.043603726 -0.025891308 0.028939806 -0.039837707 0.0144937225 -0.02947599 -0.054463856 -0.0037566859
0.044537954 -0.035741862 0.06758878 0.07246885 -0.02224181 0.071285695 -0.055328164 -0.05783777
0.009103535 0.021738961 -0.0073418003 0.14203677 -0.082468666 -0.077090584 -0.07185422 -0.11133082
00000000: 7bfa 703d cdfe fc3c 059d fa3c dcb8 c9bd
00000010: e95e 58bd b1e2 b6bd b4b7 903d 2d14 0abc
00000020: bd68 143c 1292 5fbc f716 b2bd 577f 88bd
00000030: bb2a c5bd 4d6c bbbd 86b0 05bd 1e9b 263d
00000040: 87d4 e53c 8de4 81bd bf23 e43c f6e2 e1bc
00000050: b94d 9f3d 5e08 673c 53b3 013c 8714 bebc
00000060: 117c ecbc 796f 803d f6ac 953c 5980 f2bc
00000070: 2cac 433c 3ee3 44bd ed25 68bd 850d babd
00000080: cc98 bcbd f4df 92bc bd48 293d e38e bebc
00000090: e379 1ebd 0fe9 c73b e452 943d 858f 56bd
000000a0: 14a9 7dbd 359a 443d 6ba1 6b3a 61ba 89bb
000000b0: b3f6 9b3c 0ea0 123e 6480 ac3d 43ee 033e
000000c0: efe7 063e 96d5 f53d 35a4 373e cfc3 fc3d
000000d0: ee2e 383e 75ae 283e 47c9 2d3c ce0c 183e
000000e0: 018e 053c 86f9 4b3d 56ce 6c3d b3b3 bf3c
000000f0: 456f 8f3d 4bbd 013e 7bcf e53d a6c4 8ebd
00000100: 8928 7dbd 77c2 bbbd e302 03be 66da 03be
00000110: d948 11be 8ee1 d53d 3bf5 da3c 9502 843c
00000120: 1ad0 dabd ecb9 f3bd 8449 d83b afa9 e1bd
00000130: 9242 a2bd 6af0 edbd e185 a5bd 5d25 dbbd
00000140: 4109 bcbd 6290 e63c 8384 74bd 87f3 d53c
00000150: 05be 963c 7471 18bd b017 4abd b69d 4a3d
00000160: ab5e 303c cbe9 553d c211 ff3c 201f 163c
00000170: a68a 83bd 127d 4abd 0822 93bd 00f8 33bd
00000180: 60c7 b73c fb2a b53c 9e37 d43d 8a8c b43c
00000190: 2814 0c3c 4a41 ec3c 8597 6bbc 4e64 ed3c
000001a0: 7204 b93b 859d d03d 7123 0d3d 3763 dc3d
000001b0: 787a 11bc 6cf8 63bd d34a 483d d636 86bc
000001c0: d1a7 36b9 fd3f 8abd 973b e33c 72ae 67bd
000001d0: 3f09 193d 1521 21bd 4233 46bd 6808 a9bc
000001e0: bb2b 2cbe 0bca 5bbd 84e9 e2bd 7a5d 6fbd
000001f0: 8002 9abd 0de4 92bd eee9 0dbd 7825 afbd
00000200: 6332 14be 9971 b6bd 80b6 94bd c4d0 febd
00000210: 3eee cbbc b378 143b e9f9 babd f66a bcbd
00000220: 6ce2 abba ece2 253b 9887 96bd 8740 35bd
00000230: e76f 753b 1d84 a8bd e626 0c3d 7c28 56bc
00000240: 68d0 8fbc acd4 15bd f0fa 70bd e181 6c3b
00000250: 7523 bd3a 59b5 b7bd e929 a43d 22f6 883d
00000260: 17de 223d ab29 fbbd 5480 5fbd 1e83 22be
00000270: 2a3a 07be 8446 f0bd 7cc5 1cbe 2d72 213d
00000280: 2f53 153d 2e5a 5bbd 9ad1 30bb ca17 fabd
00000290: 0305 84bd ea78 18bc 566f edbd 238c 23bd
000002a0: ff40 d23c faf3 4b3d 6d4e 913c 4b26 ed3b
000002b0: a06f d33a 5b08 9fbd 7ded e2bd ced6 17bd
000002c0: 7ce7 f1bd 393b d13c 60f7 0b3d ef10 59ba
000002d0: c3f1 40bd ff0f a3bd 8cef 583c 93a0 9ebb
000002e0: d2eb 6ebd 1484 37bc b055 383d ed05 43bd
000002f0: 5d0a 7a3d 83c7 e7bd 26c6 debd 9270 2bbd
00000300: 42e2 69bc 6216 e8bd 8dd1 e1bc 3d60 04bb
00000310: c9ce d2bd ab27 013d 8fb0 083d 7101 1ebd
00000320: fde1 5cbd 0e88 7fbd 2e85 c3bd 6b8c 0bbe
00000330: 0a85 7e3d 0f90 b63c 6d5e 463d a164 13be
00000340: 5efc d6bd 29f5 11be 1e2d 26be d22d 86bd
00000350: 08e6 20be a5e5 fcbd 058a b8bd 12c5 07be
00000360: 3fb6 c2bd fc8b afbd fa9f 7dbd 4508 1bbe
00000370: 822a a1bd f168 b4bd f9f0 aabd dd04 31be
00000380: ce11 12be f8ac 40bc 726b 7ebd 1e7a 2fbd
00000390: c5c4 0bbd d5ce 20bc fc4f e0bd fe1e 98ba
000003a0: d299 323d 021a d4bc 2c13 ed3c dd2c 23bd
000003b0: 1477 6d3c a277 f1bc 7e15 5fbd bb32 76bb
000003c0: 6e6d 363d 0f66 12bd fc6b 8a3d 8c6a 943d
000003d0: 7534 b6bc 3cfe 913d c99f 62bd 4ce7 6cbd
000003e0: fe26 153c e815 b23c 7c93 f0bb 1672 113e
000003f0: 55e5 a8bd abe1 9dbd 4e28 93bd 6a01 e4bd

conv3.bias f4 [64]
0.002913348 0.052997034 -0.0585355 0.031684294 -0.023062209 0.04596467 -0.0006521263 -0.021999387
-0.038095683 0.010749016 0.014752109 -0.017845042 0.019785285 -0.051418588 -0.035684787 -0.055961117
0.0065397085 -0.025352925 0.016049668 -0.050405283 0.014176521 0.03950383 -0.01951364 0.011075887
0.043733545 0.014673761 -0.0029169554 0.0052987067 -0.052127164 -0.040330406 -0.029918112 0.026035305
-0.051892195 -0.0042049545 -0.05307761 0.058730207 0.018996708 0.033532098 -0.05029291 -0.050602727
-0.028472502 0.05123865 -0.051449265 -0.0064692376 0.053989004 0.026852325 0.031519 -0.02152231
0.035553668 -0.08352896 -0.0075365757 0.027425725 0.03308389 0.043408014 -0.019570092 -0.05619404
-0.012843546 0.034252644 -0.045241367 0.028501092 -0.013136463 0.025026863 -0.05377169 0.017363457
00000000: deed 3e3b 6b13 593d ecc2 6fbd 64c7 013d
00000010: f5ec bcbc 7345 3c3d 75f3 2aba 0f38 b4bc
00000020: 380a 1cbd a41c 303c d4b2 713c c42f 92bc
00000030: c014 a23c 4c9c 52bd 362a 12bd 7c37 65bd
00000040: 0d4b d63b f0b0 cfbc 987a 833c c575 4ebd
00000050: a444 683c c5ce 213d 12db 9fbc a377 353c
00000060: f221 333d 376a 703c 642a 3fbb c6a0 ad3b
00000070: 4b83 55bd 7f31 25bd d416 f5bc fe47 d53c
00000080: e98c 54bd b7c9 89bb e867 59bd 168f 703d
00000090: fc9e 9b3c f458 093d f0ff 4dbd ce44 4fbd
000000a0: 2a3f e9bc 9edf 513d 77bc 52bd e6fb d3bb
000000b0: 9323 5d3d 68f9 db3c 111a 013d 8e4f b0bc
000000c0: b9a0 113d 3b11 abbd 61f5 f6bb eaab e03c
000000d0: f982 073d 9acc 313d 7551 a0bc b92b 66bd
000000e0: bd6d 52bc 804c 0c3d 034f 39bd 1f7b e93c
000000f0: 523a 57bc 2305 cd3c b43f 5cbd cf3d 8e3c

bn3.weight f4 [64]
0.8292226 0.97101676 0.8362068 0.90237284 0.850255 0.9666079 1.0144043 1.0341853
1.0368215 0.97614413 0.8657177 0.9669353 0.8913955 0.73583287 1.0157408 0.89068705
1.034073 0.9922436 0.9132329 0.9713744 1.0014557 1.0313314 1.0108683 0.8448293
0.9816837 0.8410529 0.8311391 0.95722795 0.90737325 0.98660815 1.0083379 0.9839467
0.8004979 0.8038842 1.0152091 0.93027496 0.89817923 0.89119184 0.8958438 1.0369047
0.9340654 1.0014037 0.90310204 0.99794 0.95761454 0.88749063 1.0164695 0.77565426
0.7711684 1.0339884 0.98597795 0.75925666 0.8629252 0.83070225 0.79809713 0.9345509
1.0269852 0.9826045 0.97627646 0.9196802 0.99218845 1.0372628 0.9313625 0.96643484
00000000: ef47 543f 8e94 783f a611 563f e801 673f
00000010: 50aa 593f 9e73 773f 00d8 813f 2f60 843f
00000020: 91b6 843f 95e4 793f ad9f 5d3f 1289 773f
00000030: 7f32 643f 8b5f 3c3f cb03 823f 1104 643f
00000040: 815c 843f ad03 7e3f a2c9 693f feab 783f
00000050: b32f 803f ab02 843f 2264 813f bc46 583f
00000060: 9f4f 7b3f 3e4f 573f 88c5 543f e40c 753f
00000070: 9d49 683f 5a92 7c3f 3711 813f eee3 7b3f
00000080: 6eed 4c3f 5bcb 4d3f 5ff2 813f 8026 6e3f
00000090: 13ef 653f 2625 643f 0556 653f 4bb9 843f
000000a0: e91e 6f3f ff2d 803f b231 673f ff78 7f3f
000000b0: 3a26 753f 9632 633f ac1b 823f 4791 463f
000000c0: 4b6b 453f bb59 843f 0d69 7c3f a55e 423f
000000d0: aae8 5c3f e7a8 543f 1850 4c3f ba3e 6f3f
000000e0: 4074 833f f88b 7b3f 41ed 793f 2970 6b3f
000000f0: 1000 7e3f 07c5 843f c66d 6e3f 4668 773f

bn3.bias f4 [64]
-0.10763137 -0.18721925 -0.07058115 -0.21855475 -0.04663301 -0.1908002 -0.19841443 -0.2040892
-0.20484546 -0.24404873 -0.20711687 -0.21052279 -0.20242214 -0.29913428 -0.20485845 -0.24594763
0.053039253 -0.20309031 -0.06612322 -0.20268281 -0.21554418 -0.15956837 -0.24952044 -0.06883206
-0.2241383 -0.2641199 -0.10305184 -0.030272398 -0.06283467 -0.20693393 -0.19742036 -0.20574513
-0.2712529 -0.22728096 -0.18783063 -0.21704715 -0.20679949 -0.23570158 -0.0754633 -0.21586117
-0.2002373 -0.21124297 -0.17998764 -0.19144379 0.004539709 -0.24368651 -0.20753315 -0.2556526
-0.26411477 0.08439146 -0.19013019 -0.22201498 -0.21137796 -0.26870164 -0.21013871 -0.20671
-0.1887865 -0.19896795 -0.20097741 -0.20420125 -0.21986577 -0.20395464 -0.21547823 -0.2045977
00000000: d66d dcbd 67b6 3fbe da8c 90bd d1cc 5fbe
00000010: 4102 3fbd 2161 43be 272d 4bbe c2fc 50be
00000020: 02c3 51be e9e7 79be 7216 54be 4993 57be
00000030: c047 4fbe 2128 99be 6ac6 51be b2d9 7bbe
00000040: b03f 593d e8f6 4fbe 9c6b 87bd 158c 4fbe
00000050: 9db7 5cbe e465 23be 4982 7fbe d3f7 8cbd
00000060: 8384 65be b93a 87be d80c d3bd d2fd f7bc
00000070: 77af 80bd 7de6 53be 9028 4abe daae 52be
00000080: a9e1 8abe 57bc 68be ac56 40be 9c41 5ebe
00000090: 3fc3 53be c15b 71be 818c 9abd b60a 5dbe
000000a0: 020b 4dbe 1450 58be ae4e 38be d709 44be
000000b0: d7c1 943b f588 79be 9283 54be e6e4 82be
000000c0: 0d3a 87be 6ed5 ac3d 7db1 42be e557 63be
000000d0: 7773 58be 4393 89be 9a2e 57be c9ab 53be
000000e0: 4051 41be 41be 4bbe 06cd 4dbe 221a 51be
000000f0: 7e24 61be 7cd9 50be 53a6 5cbe 0f82 51be

bn3.running_mean f4 [64]
-2.225176 1.8993888 -2.0976756 1.5926396 -3.19823 2.1675653 1.5194887 2.066916
1.7216164 1.2092924 1.6397051 1.8823471 1.5709418 0.708549 2.2879088 0.5088199
-4.21799 1.6669549 -0.6479582 1.658624 2.3231328 2.1612346 0.480124 -1.8270748
2.1544392 1.2964511 -1.8293484 -0.4118341 0.054688074 1.7904857 1.9440726 1.3620911
1.4242475 3.8854966 1.7876278 1.1054338 2.0133321 0.34878677 -0.96027726 2.2598786
1.745836 1.6937914 1.9790971 2.2182572 -2.9061353 1.049958 1.0211549 1.6890132
-0.7873915 -4.4361677 1.8676051 1.5989964 1.1385033 0.45178324 3.8149285 0.9777744
2.1607845 1.9718823 2.0142128 1.4875596 1.2390128 1.8124293 1.1906486 1.6836178
00000000: 4969 0ec0 2c1f f33f 5140 06c0 9ddb cb3f
00000010: cdaf 4cc0 64b9 0a40 9b7e c23f 5a48 0440
00000020: ed5d dc3f 18ca 9a3f dbe1 d13f c0f0 f03f
00000030: 9f14 c93f 7863 353f 196d 1240 0542 023f
00000040: c6f9 86c0 c75e d53f 97e0 25bf cb4d d43f
00000050: 35ae 1440 ab51 0a40 d0d2 f53e 96dd e9bf
00000060: 55e2 0940 1cf2 a53f 1728 eabf ebdb d2be
00000070: 9a00 603d a32e e53f 5fd7 f83f 0059 ae3f
00000080: be4d b63f faab 7840 fdd0 e43f db7e 8d3f
00000090: 6fda 0040 2e94 b23e bbd4 75bf daa1 1040
000000a0: 8e77 df3f 28ce d83f 0e53 fd3f edf7 0d40
000000b0: 1ffe 39c0 0665 863f 34b5 823f 9631 d83f
000000c0: 7d92 49bf 16f5 8dc0 af0d ef3f eaab cc3f
000000d0: 7aba 913f 2250 e73e ca27 7440 6c4f 7a3f
000000e0: 4b4a 0a40 a466 fc3f dde8 0040 5a68 be3f
000000f0: f997 9e3f affd e73f 2c67 983f ca80 d73f

bn3.running_var f4 [64]
3.755774 5.453805 10.543538 3.079554 9.720436 3.960903 7.272151 4.8388786
3.9928355 3.8934488 5.4117274 3.6335945 3.410461 3.8274863 4.5967402 7.7982497
7.9598937 4.106473 4.382003 3.8157504 5.0546594 5.0511107 4.9492664 13.180799
3.9000394 2.4355648 14.557525 1.8473943 4.2812896 3.8506274 3.9844847 3.5755057
3.359172 10.175214 4.2262526 7.397291 4.994876 4.7231617 3.6489394 4.8019485
3.072904 4.356034 5.7934136 5.429425 1.9607966 3.9302359 4.6805496 3.4311757
5.5863104 6.2302504 4.8665667 3.4440434 3.5650034 4.2740498 8.384688 3.3432739
4.165828 4.4691606 4.5831814 4.222226 4.7014837 4.081305 3.2290359 3.8825917
00000000: 9a5e 7040 9285 ae40 55b2 2841 6a17 4540
00000010: e886 1b41 6f7f 7d40 76b5 e840 18d8 9a40
00000020: 9e8a 7f40 442e 7940 df2c ad40 d08c 6840
00000030: fe44 5a40 89f5 7440 7f18 9340 438b f940
00000040: 73b7 fe40 3a68 8340 5e39 8c40 4135 7440
00000050: c5bf a140 b3a2 a140 6460 9e40 8de4 5241
00000060: 3f9a 7940 4be0 1b40 9feb 6841 6b77 ec3f
00000070: 5300 8940 ae70 7640 cc01 7f40 16d5 6440
00000080: adfc 5640 adcd 2241 763d 8740 9cb6 ec40
00000090: 06d6 9f40 2424 9740 3988 6940 90a9 9940
000000a0: 76aa 4440 a164 8b40 a563 b940 d9bd ad40
000000b0: 62fb fa3f fc88 7b40 10c7 9540 6298 5b40
000000c0: 0ec3 b240 365e c740 eaba 9b40 356b 5c40
000000d0: 0429 6440 04c5 8840 af27 0641 33f8 5540
000000e0: 774e 8540 5d03 8f40 6ca9 9240 7a1c 8740
000000f0: 8e72 9640 0d9a 8240 86a8 4e40 627c 7840

fc1.weight f4 [128, 1024]
-0.036913406 -0.0062668845 -0.026065212 -0.034003165 0.004813639 -0.024110043 -0.0017368171 -0.016193502
0.018489655 -0.0021592816 -0.022033812 0.012147909 0.0175123 -0.0065739155 0.01734646 0.0011421369
0.0025696936 -0.016844973 -0.017904684 0.005784281 -0.033176728 0.01659363 0.027240612 -0.02948845
0.00023785201 0.01487154 0.013041105 -0.014249148 0.017504256 0.0016091395 0.019502016 -0.0018789899
-0.022955995 -0.0002267867 0.0051728273 -0.030033756 -0.021912644 -0.030473802 -0.015979163 -0.0067541143
-0.022957865 -0.035579443 -0.02182857 0.017538356 0.0216426 -0.004129451 0.0052244267 0.0042618867
-0.016494727 0.020155964 -0.033148464 -0.010457794 0.022782186 -0.024469458 -0.018109595 -0.02601171
0.022263039 -0.008675562 -0.026123075 -0.01330424 -0.021247583 0.010674176 -0.009080151 0.022197794
0.0092512565 -0.032309737 -0.03339685 0.0013333041 0.024394846 0.0024750107 -0.033000134 -0.017961532
-0.020626076 -0.023453169 0.01754577 -0.016219448 0.021615436 -0.032173593 0.025060024 -0.016430292
-0.009891216 -0.01811143 -0.012863961 -0.03245463 -0.024307314 -0.03438086 -0.022365855 -0.012749195
0.006520058 -0.024352174 -0.03409933 0.015112821 -0.0074900533 -0.009191882 -0.015391841 -0.021942608
-0.035689883 -0.02051359 -0.024281694 -0.0005540593 0.00023988038 -0.034394983 0.009944766 0.009315097
0.03133845 0.001889133 -0.016329953 -0.012024423 -0.0069594975 0.010958712 0.019494997 -0.0052316096
0.020400813 0.01171806 0.014070203 -0.029122794 -0.0052578836 0.019972743 -0.01969819 -0.016672699
0.017578773 -0.0025486688 0.018974084 -0.01140177 0.023728598 0.01580974 0.005337886 0.005235487
0.0030932382 -0.009141741 -0.001187731 0.01072204 -0.032522693 0.012660131 0.0044848667 -0.011472779
0.0034268 0.008548701 -0.03380056 0.021309555 0.012271267 -0.027292337 0.020395609 -0.033189066
-0.035652902 0.016135925 -0.011696187 0.005364296 0.005841347 -0.023646532 0.021171361 0.0020143047
-0.021198587 0.00076865713 -0.012301789 -0.02319899 -0.010078565 -0.009099264 0.0052091302 -0.020093767
-0.030720074 -0.0073497775 -0.013697414 -0.005135798 -0.016273212 -0.02556222 0.01722034 -0.011378416
-0.0047480552 -0.013579676 -0.03218212 -0.016096935 -0.02829705 0.010195447 -0.004466883 -0.016127244
0.017411571 0.010109767 0.024839928 -0.0062029334 0.015112836 -0.009561202 -0.014739674 -0.036242716
-0.007804357 0.0066422094 0.011419609 -0.01536601 -0.0022850966 -0.026981143 0.024953835 0.00039263832
-0.01234219 0.02240657 -0.00937435 0.02192747 -0.03293771 -0.012393719 -0.004577735 -0.01603394
0.007785235 -0.02473834 -0.02165354 -0.0012685611 0.014582024 -0.005796855 -0.029378863 -0.015504686
0.0057939277 0.017072914 -0.036016457 0.0026784574 0.010000097 0.015757514 0.0047009895 0.008529606
-0.03620688 0.015490192 -0.018327229 -0.028501173 -0.024598565 -0.0041939155 -0.026853686 -0.0011130362
-0.0045563923 -0.010733915 0.01998256 -0.027734187 -0.005385856 -0.016759714 0.035282515 -0.03168514
0.014156182 0.013469453 0.015295662 -0.00283804 -0.018509816 -0.018146167 0.0027032215 0.0013393633
-0.033370137 0.019857736 0.012958119 -0.035499394 -0.017059566 -0.022013567 -0.03205601 0.0030126388
-0.0051499875 0.023764908 0.018677773 -0.009304726 0.00083119626 -0.021542093 -0.010234142 0.007736767
00000000: 8332 17bd 705a cdbb b686 d5bc e746 0bbd
00000010: bbbb 9d3b 6d82 c5bc e9a5 e3ba 3ca8 84bc
00000020: 9e77 973c bc82 0dbb 4180 b4bc 0608 473c
00000030: f475 8f3c 006a d7bb 2a1a 8e3c c1b3 953a
00000040: 4e68 283b 78fe 89bc d8ac 92bc 118a bd3b
00000050: 52e4 07bd 5def 873c b427 df3c c391 f1bc
00000060: ea67 7939 c2a7 733c 5caa 553c 4275 69bc
00000070: 1665 8f3c c3e9 d23a b1c2 9f3c 7048 f6ba
00000080: 360e bcbc 97cd 6db9 d280 a93b 5a09 f6bc
00000090: 2582 b3bc 32a4 f9bc bce6 82bc 9e51 ddbb
000000a0: 2212 bcbc c0bb 11bd d4d1 b2bc 99ac 8f3c
000000b0: d24b b13c 5850 87bb ab31 ab3b 4ca7 8b3b
000000c0: f31f 87bc 1f1e a53c afc6 07bd 2b57 2bbc
000000d0: b5a1 ba3c 2c74 c8bc 935a 94bc 8216 d5bc
000000e0: fa60 b63c f223 0ebc 0f00 d6bc 07fa 59bc
000000f0: 690f aebc bde2 2e3c eac4 14bc 26d8 b53c
00000100: 9592 173c 3757 04bd 23cb 08bd 43c2 ae3a
00000110: b3d7 c73c ca33 223b 262b 07bd 1024 93bc
00000120: 04f8 a8bc dc20 c0bc 26bc 8f3c a6de 84bc
00000130: db12 b13c 75c8 03bd ae4a cd3c d298 86bc
00000140: c40e 22bc 6c5e 94bc 5dc3 52bc 25ef 04bd
00000150: 2220 c7bc f2d2 0cbd 9938 b7bc 00e2 50bc
00000160: 36a6 d53b 367e c7bc bdab 0bbd c49b 773c
00000170: 1f6f f5bb 8c99 16bc 0f2e 7cbc fcc0 b3bc
00000180: 8e2f 12bd 1e0c a8bc 67ea c6bc 4a3e 11ba
00000190: 6688 7b39 c1e1 0cbd 5fef 223c 599e 183c
000001a0: bf5c 003d c99c f73a 65c6 85bc 1602 45bc
000001b0: 7f0c e4bb 2b8c 333c f9b3 9f3c ec6d abbb
000001c0: 9b1f a73c 1bfd 3f3c b586 663c ed92 eebc
000001d0: 534a acbb e19d a33c 195e a1bc 2f95 88bc
000001e0: 5c01 903c 9107 27bb 8a6f 9b3c 7dce 3abc
000001f0: 7a62 c23c 6e83 813c 6fe9 ae3b 738e ab3b
00000200: edb7 4a3b 3ec7 15bc a4ad 9bba 7fab 2f3c
00000210: 8436 05bd 706c 4f3c caf5 923b 53f8 3bbc
00000220: 2a94 603b da0f 0c3c 7572 0abd 6091 ae3c
00000230: 6d0d 493c 2e94 dfbc b114 a73c 42f1 07bd
00000240: c708 12bd 7d2f 843c 5da1 3fbc fac6 af3b
00000250: c568 bf3b 5fb6 c1bc 906f ad3c 6d02 043b
00000260: a9a8 adbc b57f 493a 718d 49bc cf0b bebc
00000270: 9120 25bc 1415 15bc 5ab1 aa3b af9b a4bc
00000280: aaa8 fbbc 67d6 f0bb 1e6b 60bc 324a a8bb
00000290: 664f 85bc dc67 d1bc ac11 8d3c 896c 3abc
000002a0: 9395 9bbb 4a7d 5ebc 66d1 03bd b8dd 83bc
000002b0: 37cf e7bc ce0a 273c ee5e 92bb 481d 84bc
000002c0: b6a2 8e3c 70a3 253c 1b7d cb3c fa41 cbbb
000002d0: d49b 773c 96a6 1cbc ac7e 71bc 3e73 14bd
000002e0: b1bb ffbb e4a6 d93b 5019 3b3c b8c1 7bbc
000002f0: 8fc1 15bb 8f07 ddbc fc6b cc3c 06db cd39
00000300: e636 4abc fc8d b73c e096 19bc 3da1 b33c
00000310: b1e9 06bd 060f 4bbc d300 96bb 9c59 83bc
00000320: 491b ff3b 0fa8 cabc c462 b1bc d945 a6ba
00000330: 71e9 6e3c 8bf3 bdbb f1ab f0bc 5e07 7ebc
00000340: fdda bd3b 7fdc 8b3c fe85 13bd 0f89 2f3b
00000350: 72d7 233c e715 813c c20a 9a3b c3bf 0b3c
00000360: aa4d 14bd 93ca 7d3c fc22 96bc 4b7b e9bc
00000370: ee82 c9bc 1d6d 89bb 43fc dbbc 4ce3 91ba
00000380: ca4d 95bb 4ddd 2fbc 77b2 a33c ce32 e3bc
00000390: d67b b0bb ab4b 89bc 6684 103d 47c8 01bd
000003a0: 55ef 673c fbae 5c3c a89a 7a3c 69fe 39bb
000003b0: e6a1 97bc 45a7 94bc 8828 313b 938d af3a
000003c0: 20af 08bd b1ac a23c 4a4e 543c d067 11bd
000003d0: 81c0 8bbc cc55 b4bc 2a4d 03bd b16f 453b
000003e0: 3ac1 a8bb a0ae c23c 2102 993c d972 18bc
000003f0: a3e4 593a 0b79 b0bc 1aad 27bc b584 fd3b

fc1.bias f4 [128]
-0.028516365 -0.029571269 -0.02412725 0.003096489 0.016032925 0.0001108394 -0.013414584 -0.042188678
-0.03154476 0.14176358 0.03838925 -0.076444834 -0.013836699 0.11513326 0.011721836 -0.08299958
0.052272286 0.024228293 -0.034366876 0.013551893 0.06661792 0.09530924 0.013193499 0.07004694
-0.063972905 -0.023151735 0.03792344 -0.008972718 -0.06539059 -0.016246634 0.043101832 -0.03803195
-0.00016145843 -0.01856928 -0.013525182 -0.012772729 -0.07159113 -0.015099825 0.061891116 -0.056274686
0.021114409 0.013664977 0.06746056 -0.070791945 -0.035085216 -0.014681532 0.00010248938 0.13200724
0.101038285 -0.01844464 -0.021870364 -0.006692959 -0.02403257 0.003616553 -0.019028658 -0.027399898
-0.013990515 -0.054979928 -0.07073806 -0.025822153 -0.061509125 0.024231896 -0.07648919 0.05016233
-0.013929585 -0.037059955 -0.0067315707 -0.027276209 -0.001420503 -0.019028436 0.039353047 -0.004775778
0.024703654 -0.040251046 -0.029321413 -0.013354743 -0.048285406 -0.024957277 0.0016724978 0.070428126
0.008052159 -0.017979803 -0.034111496 0.023834495 -0.08124587 -0.018959543 -0.024860919 -0.009364743
0.006230223 -0.020402031 -0.07796457 -0.01710062 0.09013793 -0.035237208 0.12133105 -0.045981433
-0.0035738302 -0.008417388 -0.038556162 -0.019836523 0.0013962402 0.0867105 0.039434087 -0.0576777
0.047872636 -0.029471297 -0.038802758 -0.035180714 0.084624246 -0.029139325 -0.09445672 0.007881988
-0.037920885 -0.01785326 -0.06932196 0.09421536 -0.0043828157 -0.0747054 -0.005623073 0.020758545
0.102538146 -0.03812242 0.019004654 0.0063910754 -0.060919072 -0.06968549 0.0059235333 -0.0181245
00000000: 279b e9bc 723f f2bc 83a6 c5bc 77ee 4a3b
00000010: 7b57 833c 7372 e838 d8c8 5bbc 09ce 2cbd
00000020: 1435 01bd 792a 113e 0c3e 1d3d 1c8f 9cbd
00000030: 52b3 62bc fdca eb3d f20c 403c affb a9bd
00000040: 771b 563d 6a7a c63c 48c4 0cbd c208 5e3c
00000050: fa6e 883d 7e31 c33d 8c29 583c c574 8f3d
00000060: 3a04 83bd b5a8 bdbc 9c55 1b3d 4f02 13bc
00000070: 80eb 85bd a917 85bc 8c8b 303d 64c7 1bbd
00000080: 2b4d 29b9 9a1e 98bc ba98 5dbc b544 51bc
00000090: 5f9e 92bd 4265 77bc 8a81 7d3d 4980 66bd
000000a0: 20f8 ac3c 11e3 5f3c c328 8a3d 5efb 90bd
000000b0: 84b5 0fbd cf8a 70bc 91ef d638 e82c 073e
000000c0: 29ed ce3d 3719 97bc 7a29 b3bc 9c50 dbbb
000000d0: f4df c4bc b103 6d3b fde1 9bbc c075 e0bc
000000e0: 7938 65bc a232 61bd 1edf 90bd fb88 d3bc
000000f0: fef0 7bbd f881 c63c 5da6 9cbd 0477 4d3d
00000100: ea38 64bc 2ecc 17bd 8294 dcbb 5b72 dfbc
00000110: 2c30 baba 86e1 9bbc a930 213d 217e 9cbb
00000120: 515f ca3c 48de 24bd 7633 f0bc dacd 5abc
00000130: ebc6 45bd 3473 ccbc b737 db3a 9f3c 903d
00000140: 34ed 033c 614a 93bc 7fb8 0bbd 8f40 c33c
00000150: 3c64 a6bd 0b51 9bbc 20a9 cbbc 946e 19bc
00000160: e626 cc3b 2922 a7bc e3ab 9fbd 9916 8cbc
00000170: 3c9a b83d e454 10bd 6a7c f83d 0757 3cbd
00000180: ec36 6abb 16e9 09bc 11ed 1dbd 3480 a2bc
00000190: 0c02 b73a 4695 b13d a385 213d 743f 6cbd
000001a0: 1916 443d ca6d f1bc a4ef 1ebd a719 10bd
000001b0: 7a4f ad3d 98b5 eebc 8672 c1bd 7423 013c
000001c0: ee52 1bbd 0041 92bc acf8 8dbd fcf3 c03d
000001d0: b99d 8fbb 25ff 98bd c141 b8bb d30d aa3c
000001e0: 85ff d13d 4126 1cbd a6af 9b3c 3a6c d13b
000001f0: 4786 79bd 44b7 8ebd 331a c23b d579 94bc

fc2.weight f4 [2, 128]
0.05615528 -0.040427256 0.043361016 -0.029099498 0.0341221 -0.0034163552 -0.003948956 -0.035581235
-0.07439637 0.014893393 0.046058428 0.014628966 0.050985802 0.103090234 0.033391632 -0.088831276
0.051518146 -0.047731277 0.023171818 0.06481075 0.11159415 0.10159395 -0.05696939 0.05074816
-0.048961855 0.012613472 0.03744639 0.018822068 0.009707924 0.028724255 0.042751204 -0.03585132
0.036852583 -0.06766808 0.0804822 0.0007770776 -0.07387715 0.049898643 0.07518828 -0.032223385
0.05876633 0.07251557 0.0044479114 0.015257261 0.039687015 -0.043216225 -0.012407011 0.015105776
0.099235564 0.04727152 -0.014253682 0.057739593 -0.0143531365 -0.048977017 0.0796236 0.0050685606
-0.06388771 -0.007366367 -0.07316515 0.034626953 0.019118886 0.002169797 -0.042181306 0.103528574
0.08157392 0.0104201315 -0.046189673 0.0071262214 0.059271783 -0.009642821 0.06355785 -0.029138476
0.078465424 -0.11612522 0.08037631 0.0705752 -0.022831062 0.02297025 0.048657887 0.111815
0.071296796 0.014266196 -0.012574515 -0.07874769 -0.07010595 0.03335728 0.0658582 -0.010508617
0.07556579 0.06720545 -0.02974724 -0.029411502 0.089800164 0.08153944 0.03805539 -0.06535481
-0.05686658 0.010156481 -0.09877449 -0.011175259 -0.089445226 0.06643854 0.058598604 -0.09467875
0.010878322 -0.0807326 -0.019376708 0.0052833017 0.13694465 0.015745567 -0.034489613 -0.028919583
-0.02209794 -0.04245588 -0.07714962 0.007645479 -0.018071288 -0.052171707 0.037920937 0.033980224
0.02211272 -0.033463616 0.0745827 -0.05760428 0.0018452912 0.06012834 0.060972735 -0.009147247
-0.001269089 0.09550806 0.053319536 -0.022965705 0.030221844 0.021917539 -0.009531337 0.00752847
0.035361435 -0.096066386 -0.06560233 0.027898433 0.059626352 -0.00022857622 0.036324874 0.03812829
-0.10952557 -0.0538022 -0.0023388476 0.06750807 -0.015238909 -0.090755045 0.07591149 -0.09062845
0.033303313 -0.019435037 -0.050301395 -0.043500256 0.08766761 0.030092403 -0.024743302 0.04525288
-0.021891035 -0.08148516 0.059885494 0.01214864 -0.05492799 0.06857427 -0.07612945 -0.020431109
-0.09425701 -0.071941406 -0.10882261 0.06810958 -0.004812406 0.0107757505 -0.06391541 -0.10218609
-0.042598866 0.04457484 -0.01877461 0.012525177 0.04676038 -0.07867503 -0.007337048 0.053741768
-0.01661379 0.09411659 0.06549383 0.023369644 0.0692019 -0.075903066 0.00867209 -0.105827615
0.058266234 0.068938434 -0.053980507 0.04574834 -0.029824253 0.0722455 -0.05401289 -0.05630793
0.0434695 0.0095668025 -0.07487956 0.07618453 0.028284168 0.029877212 -0.011609603 -0.03035426
0.055714414 -0.0018751302 -0.02864796 -0.077649914 0.026273156 -0.026059637 0.021906057 0.0659107
-0.017703438 -0.022715934 -0.042976435 0.015255436 0.011815426 -0.05732204 -0.16168363 0.0031015314
-0.0318929 0.01861431 0.04745501 -0.07869814 -0.003477112 -0.07080198 -0.030011399 -0.009526812
-0.09232391 -0.023144282 0.032242317 0.033529244 -0.07765224 -0.037338194 -0.002025495 -0.041349787
0.044533182 0.038638216 0.011130828 -0.08927567 -0.009102622 0.06351772 0.037349693 -0.027523374
-0.12560785 0.049721878 0.0016466033 0.0582481 0.071100965 0.09217393 -0.02008954 0.00022358363
00000000: 1403 663d 0d97 25bd 529b 313d 1262 eebc
00000010: 9dc3 0b3d eee4 5fbb 3e66 81bb a1bd 11bd
00000020: 205d 98bd 6b03 743c c3a7 3c3d 55ae 6f3c
00000030: 7dd6 503d f920 d33d aac5 083d 2ced b5bd
00000040: b104 533d df81 43bd d3d2 bd3c 80bb 843d
00000050: 798b e43d 7d10 d03d bc58 69bd 4ddd 4f3d
00000060: 3a8c 48bd bca8 4e3c 6361 193d bd30 9a3c
00000070: fc0d 1f3c 214f eb3c e31b 2f3d d5d8 12bd
00000080: bcf2 163d 9095 8abd dad3 a43d ccb4 4b3a
00000090: e74c 97bd 8562 4c3d 50fc 993d abfc 03bd
000000a0: f7b4 703d 0b83 943d c9bf 913b 97f9 793c
000000b0: da8e 223d 7f03 31bd c746 4bbc 377e 773c
000000c0: 043c cb3d c89f 413d 4788 69bc 5a80 6c3d
000000d0: 6b29 6bbc 209c 48bd b311 a33d 2b16 a63b
000000e0: 8fd7 82bd 9161 f1bb 9cd7 95bd fed4 0d3d
000000f0: 369f 9c3c 2733 0e3b 4ec6 2cbd ca06 d43d
00000100: 3a10 a73d 33b9 2a3c 6231 3dbd 1483 e93b
00000110: f8c6 723d ecfc 1dbc 9e2a 823d d0b3 eebc
00000120: 7bb2 a03d 0fd3 edbd 569c a43d bb89 903d
00000130: 3508 bbbc 1b2c bc3c 7e4d 473d 43ff e43d
00000140: 0e04 923d c3bc 693c 5705 4ebc 7846 a1bd
00000150: b593 8fbd a5a1 083d aae0 863d 562c 2cbc
00000160: 3dc2 9a3d 03a3 893d 7cb0 f3bc 64f0 f0bc
00000170: 26e9 b73d 26fe a63d f8df 1b3d bed8 85bd
00000180: eeec 68bd 5e67 263c 484a cabd 6f18 37bc
00000190: 0f2f b7bd ee10 883d 1705 703d efe6 c1bd
000001a0: fd3a 323c 2257 a5bd e7bb 9ebc 8c1f ad3b
000001b0: 383b 0c3e d9fc 803c fb44 0dbd c3e8 ecbc
000001c0: bd06 b5bc 38e6 2dbd 9f00 9ebd ed86 fa3b
000001d0: 3d0a 94bc 00b2 55bd fc52 1b3d d92e 0b3d
000001e0: bc25 b53c 2511 09bd d1be 983d 77f2 6bbd
000001f0: b3dd f13a 2249 763d 8cbe 793d 56de 15bc
00000200: 9057 a6ba bb99 c33d 9665 5a3d 9322 bcbc
00000210: cd93 f73c 698c b33c 5329 1cbc 62b1 f63b
00000220: 27d7 103d 74be c4bd 845a 86bd 418b e43c
00000230: c33a 743d f6ad 6fb9 64c9 143d 692c 1c3d
00000240: f14e e0bd b25f 5cbd 5a47 19bb ac41 8a3d
00000250: 9eac 79bc c8dd b9bd 7c77 9b3d 699b b9bd
00000260: 0e69 083d 3a36 9fbc d608 4ebd 532d 32bd
00000270: 138b b33d 5884 f63c 77b2 cabc 155b 393d
00000280: d454 b3bc b1e1 a6bd 7e4a 753d 170b 473c
00000290: 2cfc 60bd ab70 8c3d c2e9 9bbd 245f a7bc
000002a0: d209 c1bd 0456 93bd 63de debd 097d 8b3d
000002b0: 63b1 9dbb c68c 303c 15e6 82bd f146 d1bd
000002c0: 267c 2ebd 1c94 363d 36cd 99bc 6636 4d3c
000002d0: d087 3f3d 6020 a1bd 9f6b f0bb 5420 5c3d
000002e0: a519 88bc 33c0 c03d a121 863d b271 bf3c
000002f0: bab9 8d3d 1173 9bbd 6215 0e3c 26bc d8bd
00000300: 93a8 6e3d 982f 8d3d aa1a 5dbd 9d62 3b3d
00000310: fe51 f4bc 73f5 933d 9f3c 5dbd 25a3 66bd
00000320: 130d 323d 14be 1c3c 745a 99bd a306 9c3d
00000330: 33b4 e73c 0ec1 f43c 3436 3ebc 7fa9 f8bc
00000340: cc34 643d eec6 f5ba 20af eabc eb06 9fbd
00000350: cd3a d73c 057b d5bc 5574 b33c 30fc 863d
00000360: cd06 91bc c416 babc 0f08 30bd f0f1 793c
00000370: 7d95 413c 84ca 6abd 6590 25be 1043 4b3b
00000380: 21a2 02bd 0a7d 983c 2f60 423d 7e2c a1bd
00000390: 42e0 63bb a100 91bd 77da f5bc 5816 1cbc
000003a0: 5114 bdbd 1499 bdbc 8510 043d f655 093d
000003b0: 2308 9fbd efef 18bd 2bbe 04bb 655e 29bd
000003c0: 6d68 363d 1b43 1e3d 145e 363c 2ad6 b6bd
000003d0: 2a23 15bc 9415 823d fefb 183d b378 e1bc
000003e0: 589f 00be 2ba9 4b3d d7d2 d73a 8f95 6e3d
000003f0: 629d 913d afc5 bc3d d292 a4bc c671 6a39

fc2.bias f4 [2]
0.1663416 -0.11045066
00000000: 7455 2a3e f533 e2bd
