checkpoints/trained_gap_128x128_20251211_202020.pth (torch, 140348 bytes, 22 tensors)

conv1.weight f4 [16, 3, 3, 3]
0.10235521 0.19048524 0.026626723 -0.15786637 0.02895985 -0.12938185 -0.25941038 0.13571554
-0.13661557 0.01648414 0.12284973 0.008128302 -0.19413906 -0.0111337425 -0.095460474 -0.006239536
0.18051971 -0.18717688 -0.1211937 -0.13117819 0.12740563 0.032477494 0.13185154 0.13107862
-0.11008173 -0.007287499 -0.01340354 0.04621464 0.20179358 -0.05584855 0.054037374 0.104003154
-0.1448534 0.095996186 -0.24245393 0.11261112 0.023735354 -0.12989122 0.0059758904 0.1097024
-0.26574996 -0.3216343 -0.21030106 -0.26463225 -0.096668676 0.03552948 0.057655428 0.09001744
-0.0040948023 0.109306045 -0.06421949 0.14076613 -0.04990794 -0.070193596 0.16715306 -0.17482503
0.21001416 -0.15133941 0.014198955 -0.1418566 -0.03248919 0.1569212 -0.0974364 0.14104395
-0.17301752 0.17424533 0.06367187 -0.073907934 0.035804827 0.008127269 0.1736949 -0.02600476
0.1325992 -0.17803204 0.12229988 -0.110499434 -0.08638548 -0.17799473 -0.097224854 0.018341936
0.17839585 -0.1782117 0.07712048 0.107322656 -0.107592076 -0.054888103 0.07630525 -0.16850148
-0.0032414522 0.18280922 -0.2479749 0.08060535 0.118108496 -0.22743058 -0.029848678 0.21472579
-0.11646208 0.066758834 0.073676325 -0.12532179 -0.1201184 0.09280494 0.1340026 0.07722797
-0.016799064 0.16831799 -0.0908818 -0.0074884314 -0.031739414 0.1596345 -0.22971207 0.033153392
-0.022608481 -0.03425991 0.043180093 -0.16727762 -0.09441973 -0.06997033 0.10826577 -0.21580844
0.21883728 0.17740569 -0.13947447 0.16680141 -0.20170166 0.017357249 0.1870369 -0.19178662
-0.17794865 0.1639306 -0.06796008 0.06389244 0.17033902 0.12437769 -0.27506313 0.19243507
0.24276334 0.058528636 0.19355893 -0.029539434 0.1879179 0.2460871 -0.02308377 0.060363356
0.24138376 0.09116416 -0.013892535 0.117929496 0.083067276 -0.030608138 0.17242353 0.09349596
-0.029831048 -0.07823297 0.020461967 0.023346411 -0.087294415 -0.11123572 0.012711433 -0.31139988
0.018337414 0.016322708 0.28006503 0.13528556 -0.068247266 0.099281326 0.005654299 0.0018845777
0.103048235 0.016961284 0.2357318 -0.09848387 -0.10187483 0.17048988 0.08598557 0.17557651
-0.018355016 0.0037849732 0.2173225 -0.093961716 -0.11054037 0.021575777 -0.13913302 -0.067477144
-0.25529534 -0.0018130734 -0.08502101 -0.04078446 -0.015830971 0.0020348046 0.21739766 0.10763071
-0.02436668 -0.015966075 0.09860384 -0.05005103 0.051822536 -0.056333117 -0.26792547 0.0130708655
0.08366872 0.0299232 0.123887524 -0.31008577 -0.1304383 0.12381425 0.07532706 -0.15994278
0.00931463 0.050063863 0.20314318 0.2645652 0.07961575 -0.039105486 -0.013007973 0.18209389
-0.11703542 0.18821669 0.12632997 -0.09004777 0.21052608 0.3102201 0.119586386 0.043992173
0.28753883 -0.10441332 0.06543827 1.3305225e-05 -0.1342762 0.05905074 0.042476717 -0.15964743
-0.12203916 0.09388075 -0.21719672 -0.056412842 -0.050617807 0.07238363 0.10959576 0.010643591
-0.0021236576 0.019639352 -0.09742133 0.041875735 -0.18677273 -0.2087148 0.1115302 0.0633815
-0.11719908 0.0051724655 0.07161368 0.009128458 0.07941688 -0.21218526 -0.07183918 -0.013289229
00000000: 9c9f d13d 900e 433e 4920 da3c b9a7 21be
00000010: 353d ed3c ad7c 04be 70d1 84be 04f9 0a3e
00000020: f4e4 0bbe bf09 873c a498 fb3d 922c 053c
00000030: 64cc 46be 4d6a 36bc c880 c3bd 0675 ccbb
00000040: 29da 383e 4cab 3fbe 6734 f8bd 9353 06be
00000050: 9f76 023e 1f07 053d 1704 073e 7939 063e
00000060: 8872 e1bd f9cb eebb 859a 5bbc 904b 3d3d
00000070: faa2 4e3e 73c1 64bd 4b56 5d3d 9bff d43d
00000080: 7354 14be a699 c43d d845 78be a9a0 e63d
00000090: a570 c23c 3402 05be 67d1 c33b a7ab e03d
000000a0: 6110 88be 40ad a4be 2959 57be e17d 87be
000000b0: 3afa c5bd 5c87 113d 1928 6c3d 105b b83d
000000c0: b12d 86bb d9db df3d 8285 83bd ff24 103e
000000d0: 456c 4cbd a9c1 8fbd 2c2a 2b3e 5505 33be
000000e0: f40d 573e b8f8 1abe bca2 683c db42 11be
000000f0: 6313 05bd f3af 203e bc8c c7bd d36d 103e
00000100: 812b 31be 5e6d 323e 6666 823d 0b5d 97bd
00000110: 15a8 123d 3d28 053c 13dd 313e ef07 d5bc
00000120: 16c8 073e 084e 36be 5c78 fa3d 874d e2bd
00000130: dfea b0bd 4044 36be d31d c7bd d441 963c
00000140: 67ad 363e 217d 36be 58f1 9d3d fbcb db3d
00000150: 3c59 dcbd 59d2 60bd ed45 9c3d a78b 2cbe
00000160: 8b6e 54bb 5732 3b3e 22ed 7dbe 6b14 a53d
00000170: dee2 f13d 90e3 68be 3785 f4bc 14e1 5b3e
00000180: ac83 eebd dbb8 883d 9de3 963d 5b54 00be
00000190: a300 f6bd 8410 be3d fa37 093e b329 9e3d
000001a0: 319e 89bc 8d5b 2c3e 3d20 babd 8461 f5bb
000001b0: 3001 02bd 3a77 233e a439 6bbe dacb 073d
000001c0: 6c35 b9bc 1f54 0cbd 9cdd 303d d34a 2bbe
000001d0: 225f c1bd 9b4c 8fbd 72ba dd3d e3fc 5cbe
000001e0: e116 603e d6a9 353e 65d2 0ebe fdcd 2a3e
000001f0: e18a 4ebe ca30 8e3c 9a86 3f3e b663 44be
00000200: 2c38 36be 6cdd 273e a82e 8bbd 0ada 823d
00000210: 5a6d 2e3e bbb9 fe3d 13d5 8cbe b30d 453e
00000220: f496 783e b9bb 6f3d 5034 463e affc f1bc
00000230: 8d6d 403e 42fe 7b3e 2d1a bdbc 913f 773d
00000240: 4e2d 773e 46b4 ba3d 849d 63bc 0585 f13d
00000250: 2d1f aa3d ebbd fabc cb8f 303e cf7a bf3d
00000260: 3e60 f4bc 9b38 a0bd db9f a73c f940 bf3c
00000270: 6ac7 b2bd 8ecf e3bd 9d43 503c ce6f 9fbe
00000280: 5838 963c 33b7 853c af64 8f3e 4c88 0a3e
00000290: 39c5 8bbd 0254 cb3d b347 b93b ef03 f73a
000002a0: f40a d33d 64f2 8a3c ad63 713e e9b1 c9bd
000002b0: c0a3 d0bd e694 2e3e 3419 b03d 54ca 333e
000002c0: 425d 96bc 500d 783b ca89 5e3e 006f c0bd
000002d0: fd62 e2bd afbf b03c e378 0ebe 7531 8abd
000002e0: 12b6 82be a6a4 edba 7f1f aebd 9b0d 27bd
000002f0: f4af 81bc 5b5a 053b 7e9d 5e3e 7d6d dc3d
00000300: a29c c7bc 49cb 82bc cff0 c93d 4f02 4dbd
00000310: de43 543d 8ebd 66bd 872d 89be 2f27 563c
00000320: 825a ab3d 8021 f53c beb8 fd3d 90c3 9ebe
00000330: 9e91 05be 5392 fd3d 1345 9a3d 0ac8 23be
00000340: 649c 183c c40f 4d3d c404 503e 1775 873e
00000350: 950d a33d 132d 20bd 651f 55bc d276 3a3e
00000360: 44b0 efbd e0bb 403e a55c 013e f76a b8bd
00000370: 2694 573e 2bd5 9e3e b5e9 f43d 2331 343d
00000380: 4a38 933e a7d6 d5bd 8004 863d 8239 5f37
00000390: b37f 09be 30df 713d 11fc 2d3d 9e7a 23be
000003a0: abef f9bd 8d44 c03d d168 5ebe 2711 67bd
000003b0: 9e54 4fbd de3d 943d be73 e03d 7562 2e3c
000003c0: 102d 0bbb b5e2 a03c d684 c7bd e485 2b3d
000003d0: 5a41 3fbe 55b9 55be f269 e43d 29ce 813d
000003e0: 1206 f0bd c97d a93b 31aa 923d 878f 153c
000003f0: 51a5 a23d 1847 59be 6c20 93bd 11bb 59bc

conv1.bias f4 [16]
0.15668717 -0.09245426 0.13515885 0.15870616 0.010048689 0.021015061 0.020525934 0.037430525
-0.040636744 -0.085000806 -0.22875783 -0.1074216 -0.068655044 -0.17688943 -0.1472786 -0.031275004
00000000: 9a72 203e a958 bdbd 1567 0a3e de83 223e
00000010: 42a3 243c c727 ac3c 0126 a83c c050 193d
00000020: b772 26bd e714 aebd 7e3f 6abe dbff dbbd
00000030: 049b 8cbd 8122 35be 34d0 16be 381a 00bd

bn1.weight f4 [16]
0.99112815 0.951172 1.0083598 1.0850592 1.1564687 0.8033169 0.8663753 0.618476
0.592398 1.1221197 1.0696622 1.1433355 1.0289369 0.97818524 0.9312074 1.2067811
00000000: 93ba 7d3f 0280 733f ef11 813f 38e3 8a3f
00000010: 2b07 943f 2da6 4d3f c6ca 5d3f 7154 1e3f
00000020: 65a7 173f 9ea1 8f3f b1ea 883f d158 923f
00000030: 34b4 833f 596a 7a3f 9c63 6e3f ce77 9a3f

bn1.bias f4 [16]
-0.09613078 -0.14790577 -0.26631925 -0.14004287 -0.19016562 0.03880603 -0.06091274 -0.18542682
-0.17708527 -0.1534357 -0.027061647 -0.035675768 -0.24470308 -0.20568225 -0.1088441 -0.1447017
00000000: 37e0 c4bd 9c74 17be ff5a 88be 6667 0fbe
00000010: c7ba 42be 12f3 1e3d a37f 79bd 87e0 3dbe
00000020: d755 35be 401e 1dbe 63b0 ddbc c120 12bd
00000030: 7293 7abe 5e9e 52be a8e9 debd af2c 14be

bn1.running_mean f4 [16]
-0.12701848 -0.67797565 0.17267899 0.176261 -0.18053132 1.0354147 0.22816248 0.58244497
0.35046932 -0.248065 -0.28992805 -0.4431406 -0.1875895 -0.3557624 -1.3114597 -0.1218792
00000000: 2211 02be d08f 2dbf c3d2 303e c37d 343e
00000010: 34dd 38be 7888 843f 6da3 693e 1d1b 153f
00000020: b770 b33e c004 7ebe 7371 94be 53e3 e2be
00000030: 7617 40be 7d26 b6be e9dd a7bf cd9b f9bd

bn1.running_var f4 [16]
0.11678154 0.36731607 0.029754546 0.120250694 0.18646684 1.0383152 0.10487965 0.26199752
0.29961634 0.115367174 0.11120695 0.19224463 0.1029462 0.21947645 1.2981157 0.1399433
00000000: 292b ef3d da10 bc3e cebf f33c ff45 f63d
00000010: 2af1 3e3e 83e7 843f 24cb d63d 8a24 863e
00000020: 5067 993e a045 ec3d 78c0 e33d c7db 443e
00000030: 75d5 d23d 6fbe 603e a828 a63f 4c4d 0f3e

conv2.weight f4 [32, 16, 3, 3]
0.19967417 0.074657165 0.082037754 0.11977964 -0.052087083 0.08060563 0.073886506 0.0015215836
-0.01310117 0.077246256 -0.032163326 -0.037257433 0.0048311534 0.016179759 -0.004187634 0.058668833
-0.01061051 -0.016880585 0.086147755 0.088962644 0.16332577 0.019455975 -0.06443817 -0.120807536
0.16832475 0.049703646 0.13073575 -0.050629802 -0.15076756 -0.033078223 -0.10012574 -0.15722103
-0.07518376 -0.008210356 -0.04397265 0.047766935 0.11886702 -0.021207046 0.11421968 0.032687735
-0.16589503 -0.00917783 0.04922136 -0.078484915 -0.00026503578 -0.1207989 -0.088902734 -0.0016026755
7.260089e-05 0.0150129115 -0.14903624 -0.02782054 -0.11507344 -0.12858208 -0.10257983 -0.08838364
-0.050574645 -0.12660761 -0.039965227 -0.030523548 -0.10331819 -0.009993448 -0.032733757 0.062398605
-0.07465299 -0.044174716 -0.026858302 -0.043296736 -0.107514985 -0.0152461985 -0.019050067 -0.062016927
0.022157539 -0.021842802 0.04505706 0.030321367 -0.08633523 -0.046521123 0.02111631 -0.008595717
-0.03419435 0.0983946 -0.00054842315 0.092691176 0.03988536 -0.14226577 -0.14180213 0.06613544
0.03939934 0.030953152 0.09116703 0.06892155 0.030959597 -0.10529306 -0.18942206 -0.12286342
0.07449381 -0.025897156 0.071376316 0.056442708 -0.066930935 0.008136194 0.017241687 -0.105478704
-0.082845375 0.0678514 -0.06411795 -0.045482926 0.09372849 -0.101952896 0.03333407 -0.045682214
-0.013492588 -0.021957438 0.12007917 -0.029087419 0.096073866 0.16845088 -0.0043460056 0.058653127
0.10944787 0.03336641 -0.028651904 -0.015545486 -0.0057031997 -0.008284749 -0.0016275469 -0.049792994
-0.008665594 -0.00028529257 0.035992045 0.03981267 -0.083460726 0.05318523 -0.035786457 0.051618636
0.11540342 0.030370144 -0.120174445 -0.071724705 -0.1114034 0.14303575 0.060774576 0.01020294
-0.11364902 -0.1457349 0.006450195 -0.035253108 -0.13746351 0.0066372603 0.058667973 -0.01356818
-0.014232844 0.03586816 -0.048613235 -0.051193684 0.0005069879 -0.11686032 -0.123237915 0.099517904
0.01434359 0.04933627 -0.07962109 -0.06712319 0.0446892 -0.11658959 -0.15848772 -0.15729631
-0.07360394 -0.039494354 -0.088603646 0.12046654 -0.0054628714 0.115359485 0.06683254 0.024744606
-0.07752579 0.017480189 0.13925783 0.17109786 0.055528313 -0.041710075 -0.023239499 -0.03901038
-0.19319026 -0.059413925 0.091280326 -0.10266846 0.018415287 0.022938952 -0.08284353 -0.090644136
0.062773354 -0.054122392 -0.022218943 0.032363772 0.040901355 -0.014102382 -0.12389913 0.047913358
-0.006470433 -0.09851543 -0.09518021 -0.05729028 -0.016429016 -0.022789609 -0.03940471 0.009248086
-0.0645108 0.04057491 -0.070060976 -0.10540815 0.057015818 -0.031218553 0.043882795 -0.07948241
0.030732675 0.018768668 0.052026425 -0.115338 -0.087556675 -0.057244264 -0.08088319 -0.10576156
0.032517474 0.03893951 -0.05957174 0.08493767 -0.0583002 -0.14456399 -0.110659 0.08713726
-0.059770416 0.0877419 0.11000959 -0.010013043 0.026408782 0.12107369 0.144052 0.07711439
0.04092029 0.12765144 0.058891367 -0.056109767 0.038639497 0.009855512 -0.042240232 -0.08326538
-0.15672845 0.04152433 0.02515449 -0.069919065 0.04385838 -0.07165752 -0.0136499 -0.11572974
00000000: 6377 4c3e dbe5 983d 6903 a83d 074f f53d
00000010: 4459 55bd 9114 a53d cf51 973d e06f c73a
00000020: 4aa6 56bc 4933 9e3d b1bd 03bd 409b 18bd
00000030: a74e 9e3b 6a8b 843c 6c38 89bb bb4e 703d
00000040: b4d7 2dbc 2749 8abc 3c6e b03d 0c32 b63d
00000050: df3e 273e 2362 9f3c 29f8 83bd f169 f7bd
00000060: 535d 2c3e 0d96 4b3d 98df 053e 3261 4fbd
00000070: d062 1abe 087d 07bd b90e cdbd 8dfe 20be
00000080: f1f9 99bd bb84 06bc aa1c 34bd 43a7 433d
00000090: 8d70 f33d 66ba adbc 02ec e93d 93e3 053d
000000a0: 63e0 29be 9c5e 16bc 569c 493d b3bc a0bd
000000b0: 80f4 8ab9 6a65 f7bd a312 b6bd de10 d2ba
000000c0: 4e41 9838 b7f8 753c f59c 18be e7e7 e3bc
000000d0: a0ab ebbd 05ab 03be 6015 d2bd 7b02 b5bd
000000e0: 5c27 4fbd 6da5 01be 94b2 23bd 850c fabc
000000f0: 7d98 d3bd 8fbb 23bc d513 06bd ae95 7f3d
00000100: abe3 98bd 8cf0 34bd f105 dcbc eb57 31bd
00000110: d130 dcbd 31cb 79bc e30e 9cbc 7605 7ebd
00000120: ba83 b53c adef b2bc c08d 383d 8464 f83c
00000130: 86d0 b0bd ef8c 3ebd 1dfc ac3c 0dd5 0cbc
00000140: 600f 0cbd 1c83 c93d 0ec4 0fba dfd4 bd3d
00000150: d55e 233d 1eae 11be 9434 11be 0472 873d
00000160: 3461 213d 7791 fd3c c8b5 ba3d be26 8d3d
00000170: fb9e fd3c e3a3 d7bd dbf7 41be d19f fbbd
00000180: 3690 983d 4626 d4bc bf2d 923d 7830 673d
00000190: 1613 89bd ac4d 053c 703e 8d3c 3805 d8bd
000001a0: d6aa a9bd adf5 8a3d 4650 83bd 4e4c 3abd
000001b0: b9f4 bf3d aecc d0bd 4e89 083d 461d 3bbd
000001c0: 0410 5dbc 16e0 b3bc 11ec f53d bd48 eebc
000001d0: 60c2 c43d 637e 2c3e f068 8ebb 433e 703d
000001e0: 3426 e03d 37ab 083d 66b7 eabc 7eb2 7ebc
000001f0: e8e1 babb c2bc 07bc 6953 d5ba bdf3 4bbd
00000200: 23fa 0dbc 5293 95b9 656c 133d 9c12 233d
00000210: 75ed aabd c1d8 593d d294 12bd 106e 533d
00000220: a158 ec3d cfca f83c 051e f6bd 67e4 92bd
00000230: 7727 e4bd f777 123e c3ee 783d 3b2a 273c
00000240: d1c0 e8bd 883b 15be 285c d33b 9065 10bd
00000250: 3cc3 0cbe 607d d93b d44d 703d 124d 5ebc
00000260: e030 69bc 7eea 123d ac1e 47bd 78b0 51bd
00000270: 62e7 043a 7754 efbd 2964 fcbd 0bd0 cb3d
00000280: 6001 6b3c d414 4a3d 6210 a3bd e277 89bd
00000290: 060c 373d 86c6 eebd 9b4a 22be 4912 21be
000002a0: aabd 96bd d5c4 21bd d475 b5bd 29b7 f63d
000002b0: e301 b3bb 9841 ec3d 80df 883d 33b5 ca3c
000002c0: d7c5 9ebd 9d32 8f3c 9b99 0e3e 4734 2f3e
000002d0: a871 633d 2fd8 2abd c360 bebc 59c9 1fbd
000002e0: abd3 45be 045c 73bd 2ef1 ba3d d743 d2bd
000002f0: a8db 963c 78ea bb3c dea9 a9bd a2a3 b9bd
00000300: 518f 803d 71af 5dbd 8004 b6bc e08f 043d
00000310: 2e88 273d ad0d 67bc d4be fdbd cc40 443d
00000320: ed05 d4bb 75c2 c9bd d8ed c2bd 36a9 6abd
00000330: 2596 86bc 46b1 babc d566 21bd 4985 173c
00000340: 3d1e 84bd e031 263d 217c 8fbd 3ae0 d7bd
00000350: 6b89 693d 0dbe ffbc 72be 333d acc7 a2bd
00000360: 17c3 fb3c c0c0 993c a919 553d 5436 ecbd
00000370: ea50 b3bd f678 6abd 16a6 a5bd 8499 d8bd
00000380: 0b31 053d 097f 1f3d 7f01 74bd cdf3 ad3d
00000390: 31cc 6ebd 9508 14be 30a1 e2bd 0575 b23d
000003a0: d3d1 74bd 06b2 b33d b54c e13d bf0d 24bc
000003b0: 3b57 d83c 7cf5 f73d 5e82 133e 26ee 9d3d
000003c0: 099c 273d 0fb7 023e 1338 713d 5bd3 65bd
000003d0: 7344 1e3d 0379 213c 1804 2dbd 0a87 aabd
000003e0: 6c7d 20be 6a15 2a3d ca10 ce3c ba31 8fbd
000003f0: d8a4 333d 2ec1 92bd d5a3 5fbc b703 edbd

conv2.bias f4 [32]
-0.011396491 -0.0523495 -0.013258922 0.04372028 0.06036966 -0.01916611 -0.042919032 0.021971295
0.06260392 -0.0770746 -0.056498475 0.06518267 -0.05727374 0.04201456 0.08235583 -0.03404851
0.0908508 0.016839316 -0.065854765 -0.007241195 -0.012364259 -0.036783867 0.0121936435 0.0016483777
-0.0768035 -0.032715652 -0.06857874 0.016308304 -0.07071876 0.0072292075 0.06462536 -0.02213949
00000000: 59b8 3abc 6e6c 56bd f33b 59bc 0914 333d
00000010: 2d46 773d 3f02 9dbc decb 2fbd 25fd b33c
00000020: 7c36 803d 4ad9 9dbd f26a 67bd 7e7e 853d
00000030: df97 6abd 7617 2c3d 2caa a83d 7376 0bbd
00000040: fc0f ba3d 9bf2 893c ddde 86bd 8c47 edbb
00000050: 7693 4abc aeaa 16bd d9c7 473c 610e d83a
00000060: 274b 9dbd d900 06bd 0373 8cbd fe98 853c
00000070: ffd4 90bd fde2 ec3b 4d5a 843d e05d b5bc

bn2.weight f4 [32]
0.99329454 0.6661506 0.8723369 0.9942341 0.89835423 0.93421215 1.0509424 0.9964071
0.96226853 0.9747537 0.9464828 0.9415859 1.0386839 0.9104633 0.9545599 0.9707847
0.9406749 0.9140887 0.96190864 1.0118983 0.99635464 0.72082627 0.86616784 0.9744755
0.89254117 1.0594946 0.9500721 1.0084901 1.044921 0.97632 0.94677764 1.0338707
00000000: 8d48 7e3f d988 2a3f 7951 5f3f 2086 7e3f
00000010: 8bfa 653f 8728 6f3f 4885 863f 8914 7f3f
00000020: 3b57 763f 7589 793f b24c 723f c60b 713f
00000030: 98f3 843f 1f14 693f 0a5e 743f 5985 783f
00000040: 12d0 703f b801 6a3f a53f 763f e285 813f
00000050: 1911 7f3f 1288 383f 2dbd 5d3f 3a77 793f
00000060: 947d 643f 859d 873f ed37 733f 3416 813f
00000070: f9bf 853f 1cf0 793f 0560 723f e055 843f

bn2.bias f4 [32]
-0.10567549 -0.11809174 -0.29588822 -0.23554991 -0.0011628622 -0.25299674 -0.53907925 -0.14662585
0.04728425 -0.20065363 0.24056049 -0.12129813 -0.18898888 0.0072743846 -0.16005535 -0.20861512
-0.1928638 -0.046554964 -0.28232867 -0.2040391 -0.33005407 -0.23789395 -0.31533968 -0.11079471
-0.21050915 -0.50071675 -0.18690956 -0.16155891 -0.095307834 -0.17178081 -0.1676293 -0.04023586
00000000: 646c d8bd 15da f1bd a97e 97be ff33 71be
00000010: 2e6b 98ba ca88 81be 1901 0abf 1625 16be
00000020: 21ad 413d 2578 4dbe 7d55 763e 276b f8bd
00000030: 4d86 41be f65d ee3b 8de5 23be 349f 55be
00000040: 177e 45be 6bb0 3ebd 628d 90be a0ef 50be
00000050: d9fc a8be 799a 73be 3474 a1be 56e8 e2bd
00000060: b68f 57be f92e 00bf 3865 3fbe b36f 25be
00000070: c130 c3bd 4fe7 2fbe 04a7 2bbe 5bce 24bd

bn2.running_mean f4 [32]
-0.3074445 -0.8115558 -0.50267404 0.7749369 -2.2587018 0.36832637 0.9527485 0.3108971
-2.3637166 0.48430932 -1.7191733 -0.46654424 -0.4245092 -1.6305374 0.6481157 0.35155728
0.7457308 -0.47297394 0.32572222 0.42991892 -0.5032009 -1.1987255 0.19881338 -0.8879132
0.91639495 0.8105999 0.96732867 0.83250904 -0.68375975 1.4571623 1.043024 -1.4678557
00000000: 5e69 9dbe 1fc2 4fbf 3faf 00bf 4462 463f
00000010: 928e 10c0 4695 bc3e 53e7 733f e82d 9f3e
00000020: 2247 17c0 64f7 f73e df0d dcbf e3de eebe
00000030: 4559 d9be 73b5 d0bf e9ea 253f 51ff b33e
00000040: 37e8 3e3f a429 f2be 10c5 a63e 551e dc3e
00000050: c6d1 00bf d66f 99bf bc95 4b3e 484e 63bf
00000060: dc98 6a3f 7a83 4f3f daa2 773f 501f 553f
00000070: e10a 2fbf 4b84 ba3f cf81 853f b2e2 bbbf

bn2.running_var f4 [32]
1.5675482 3.3005846 3.3199828 4.2314563 13.572292 3.1607099 2.7746682 1.7380451
14.470801 1.8547316 7.685183 1.8677554 4.068898 6.3681664 2.4365427 3.7886443
2.0568252 1.9085698 3.8317657 2.586646 4.0593233 4.1791735 3.0677803 5.550362
4.3417616 2.5966735 4.2091007 3.989646 1.3684717 6.635373 4.0888495 10.318068
00000000: 6ba5 c83f c73c 5340 997a 5440 1768 8740
00000010: 1c28 5941 1249 4a40 2a94 3140 4378 de3f
00000020: 6788 6741 d867 ed3f 05ed f540 9c12 ef3f
00000030: 6a34 8240 05c8 cb40 51f0 1b40 2679 7240
00000040: 06a3 0340 044c f43f a63b 7540 9c8b 2540
00000050: fae5 8140 cabb 8540 8356 4440 919c b140
00000060: b6ef 8a40 e62f 2640 f4b0 8640 5c56 7f40
00000070: 152a af3f fa54 d440 dbd7 8240 ce16 2541

conv3.weight f4 [64, 32, 3, 3]
-0.10185247 -0.10033705 0.0025620824 -0.049953137 -0.100034714 -0.05334825 -0.034060866 -0.066504866
0.0039019932 0.036626924 -0.038749687 0.037830897 -0.044600587 -0.029715635 0.044993524 -0.012109815
-0.036159303 0.082551956 0.083195314 0.04394308 0.03655358 -0.016294792 -0.019162476 0.02684243
-0.09155925 -8.6033906e-05 0.10315019 0.02648727 0.04084108 0.009805286 0.037130803 0.029267183
0.026973443 0.15102108 0.116517745 0.09254151 -0.05083003 0.0153698055 0.032740504 0.023020422
0.0032638556 0.007019492 0.039417043 0.004397895 -0.002417015 0.101841025 0.0018848161 -0.003066967
0.115035705 0.020202324 0.046478312 0.045609273 0.027735546 0.055728864 -0.1612365 -0.1653349
-0.122104034 -0.13917892 -0.08381426 -0.11945276 -0.09835247 -0.091937594 -0.053650852 -0.09746034
-0.016175292 -0.037964962 -0.0992251 -0.013388262 -0.048449185 -0.05917265 -0.03186291 -0.0077029164
0.052847873 0.031002665 0.01366911 -0.018094335 -0.056097865 0.08856958 0.052883763 0.008438592
0.118973345 -0.08744664 -0.082520194 0.027142605 -0.08372886 -0.096922845 -0.029773153 -0.09298245
-0.08428418 -0.021692157 -0.046154987 -0.045576286 -0.047292322 -0.050433278 -0.071586885 -0.029530574
-0.022674305 -0.028576005 -0.051696613 -0.07824173 -0.005420982 0.04057745 -0.043373853 -0.042982142
0.06155335 0.077124014 0.009838283 0.07913161 0.01705292 0.033744194 0.06931431 0.10754502
0.072684325 0.06731954 0.11674459 0.0741815 0.11824292 0.027002262 -0.021334281 -0.02098514
-0.063675605 -0.028970122 -0.045213036 0.019140933 -0.026383985 0.010338682 0.0052755675 -0.018258033
-0.041919027 -0.062400527 -0.057129797 -0.06922955 -0.038815577 -0.033531975 0.008405175 0.12479757
0.082296684 0.034449324 0.007653707 -0.01395275 -0.0024454384 0.068089545 -0.035116956 -0.0205951
0.07686616 -0.014999383 0.05016135 -0.033159956 0.03168951 -0.027535185 0.08443976 0.08823149
0.083802626 -0.027092205 0.023849282 0.05601061 -0.059588436 -0.0080403555 -0.023483574 0.0807477
-0.026745724 0.04704048 0.11650459 0.09193768 0.14068106 0.030769467 -0.028099531 0.017353676
-0.022819376 0.016932378 -0.028544927 0.15304492 0.09521378 0.089895956 0.1020367 -0.007289933
-0.03499011 0.090718776 -0.011856038 -0.016172837 0.06984669 0.16197011 0.091054074 0.11866985
0.13013312 0.14733717 0.064982675 0.0057941983 0.07544256 -0.028860873 0.024974905 0.049169015
-0.05089039 -0.06065651 -0.029036844 -0.04866674 0.047438193 0.05280621 0.039347947 0.008426519
0.110234626 -0.042240992 0.011092638 0.08810075 -0.044557873 -0.0048428443 0.05491752 0.0614601
0.030693732 0.06296239 0.013945571 0.04372203 0.057634953 0.027520522 -0.004553009 -0.00023857565
0.045302365 -0.003002968 0.057640098 0.022447128 -0.036375634 0.0031280993 0.04291469 0.029852947
0.08448996 -0.10230577 -0.09019003 -0.110700995 -0.14243256 -0.14922045 -0.07635941 -0.1612261
-0.15902975 -0.14152716 0.020220755 -0.022801002 0.06941557 0.036555793 -0.002897338 0.07346669
0.09772773 0.036578782 0.08847519 0.11312627 0.041432485 0.034719337 0.04602881 0.05339658
-0.045485917 0.08309775 0.10664129 0.05055267 -0.025750076 -0.02298532 -0.0337579 -0.07406149
00000000: 0798 d0bd 837d cdbd 9ce8 273b a99b 4cbd
00000010: 00df ccbd b283 5abd 6883 0bbd b433 88bd
00000020: 95b8 7f3b 1d06 163d feb7 1ebd 92f4 1a3d
00000030: 1baf 36bd 346e f3bc 214b 383d 3f68 46bc
00000040: c71b 14bd 0011 a93d 4e62 aa3d a9fd 333d
00000050: 35b9 153d a87c 85bc a0fa 9cbc a8e4 db3c
00000060: 6b83 bbbd 1a6d b4b8 6840 d33d d5fb d83c
00000070: fa48 273d 5aa6 203c 7816 183d bbc1 ef3c
00000080: 69f7 dc3c 45a5 1a3e dba0 ee3d 6786 bd3d
00000090: 2633 50bd a3d1 7b3c e81a 063d 5395 bc3c
000000a0: 69e6 553b c403 e63b c473 213d 381c 903b
000000b0: c866 1ebb 0792 d03d ef0b f73a 2bff 48bb
000000c0: d797 eb3d 587f a53c 0b60 3e3d cad0 3a3d
000000d0: a835 e33c f343 643d 2e1b 25be 8d4d 29be
000000e0: ae11 fabd eb84 0ebe d0a6 abbd a6a3 f4bd
000000f0: 056d c9bd c749 bcbd ffc0 5bbd 4999 c7bd
00000100: 0c82 84bc 2681 1bbd 8736 cbbd 715a 5bbc
00000110: a772 46bd 055f 72bd af82 02bd bf68 fcbb
00000120: 0377 583d 4df9 fd3c 67f4 5f3c 923a 94bc
00000130: e0c6 65bd f863 b53d a59c 583d 0542 0a3c
00000140: 4ca8 f33d 3917 b3bd 5900 a9bd 2b5a de3c
00000150: 097a abbd 7c7f c6bd d4e6 f3bc 956d bebd
00000160: 2f9d acbd c0b3 b1bc 030d 3dbd 33ae 3abd
00000170: 98b5 41bd 2093 4ebd 259c 92bd 1aea f1bc
00000180: 77bf b9bc 3a18 eabc d4bf 53bd 333d a0bd
00000190: 7ea2 b1bb 8a34 263d c8a8 31bd 0b0e 30bd
000001a0: 5e1f 7c3d 32f3 9d3d c030 213c c10f a23d
000001b0: 91b2 8b3c 5a37 0a3d a9f4 8d3d 9040 dc3d
000001c0: 85db 943d d4de 893d ca17 ef3d 78ec 973d
000001d0: 5829 f23d d933 dd3c 3bc5 aebc 07e9 abbc
000001e0: 5b68 82bd c052 edbc 4e31 39bd 72cd 9c3c
000001f0: 3a23 d8bc 9363 293c abde ac3b df91 95bc
00000200: 49b3 2bbd b297 7fbd ef00 6abd 39c8 8dbd
00000210: 15fd 1ebd d358 09bd dcb5 093c de95 ff3d
00000220: 2a8b a83d bc1a 0d3d f3cb fa3b 139a 64bc
00000230: a643 20bb 8872 8b3d ccd6 0fbd 0eb7 a8bc
00000240: 016c 9d3d f9bf 75bc fd75 4d3d bcd2 07bd
00000250: dccc 013d 7891 e1bc c1ee ac3d b6b2 b43d
00000260: b6a0 ab3d 79f0 ddbc 925f c33c 626b 653d
00000270: 0113 74bd b2bb 03bc a060 c0bc 0d5f a53d
00000280: d919 dbbc 85ad 403d f599 ee3d d349 bc3d
00000290: b20e 103e 4010 fc3c fd30 e6bc 4c29 8e3c
000002a0: b3ef babc c5b5 8a3c 0dd7 e9bc cfb7 1c3e
000002b0: 71ff c23d 5f1b b83d 9ef8 d03d 64e0 eebb
000002c0: ca51 0fbd c4ca b93d d43f 42bc e67c 84bc
000002d0: c80b 8f3d 7edb 253e 8f7a ba3d 2e09 f33d
000002e0: 9e41 053e 8edf 163e a315 853d 42dd bd3b
000002f0: a181 9a3d a36d ecbc 2c98 cc3c 7365 493d
00000300: 7172 50bd f672 78bd adde edbc c756 47bd
00000310: 8d4e 423d 534b 583d 502b 213d 620f 0a3c
00000320: b1c2 e13d e404 2dbd e5bd 353c 2b6e b43d
00000330: 5182 36bd b9b0 9ebb 32f1 603d 96bd 7b3d
00000340: 6c71 fb3c 6df2 803d f77b 643c df15 333d
00000350: a112 6c3d b872 e13c 6831 95bb 2a2a 7ab9
00000360: f98e 393d 71cd 44bb 0618 6c3d 0ae3 b73c
00000370: 9efe 14bd cc00 4d3b 50c7 2f3d 2b8e f43c
00000380: 1209 ad3d b085 d1bd 8db5 b8bd 34b7 e2bd
00000390: d7d9 11be 3fcd 18be 5362 9cbd 7418 25be
000003a0: b2d8 22be 7fec 10be ffa5 a53c 2bc9 babc
000003b0: c029 8e3d 87bb 153d 44e1 3dbb b475 963d
000003c0: 7a25 c83d a2d3 153d 7b32 b53d bfae e73d
000003d0: 1cb5 293d dd35 0e3d b588 3c3d 5fb6 5a3d
000003e0: 714f 3abd 272f aa3d c066 da3d 5110 4f3d
000003f0: d3f1 d2bc b64b bcbc b945 0abd 8dad 97bd

conv3.bias f4 [64]
-0.006350017 0.020039536 0.053340252 -0.053135812 -0.052749068 -0.022899127 -0.06360232 -0.03311226
0.05972287 0.0053580566 -0.002386735 -0.05598333 0.03194693 0.061725635 -0.020767584 -0.038306363
0.0032478177 -0.017206242 -0.043877017 -0.002345044 0.045525916 0.024811352 0.030419348 -0.023702469
-0.022488981 -0.009900981 0.03327302 0.01433208 -0.03954656 0.0253291 -0.009207558 0.03217408
0.0019486246 -0.01962746 0.039031133 0.0027060895 0.017500315 0.028788745 0.045891248 0.0024570986
0.051675957 -0.019274957 0.021540146 0.060967848 -0.020951256 0.018115418 -0.04454113 0.028344119
0.061072536 -0.016184742 0.056523345 0.035263862 0.04088475 -0.03026343 -0.031674895 0.012702179
-0.009162974 0.041456144 0.060723796 0.05019634 -0.04837111 -0.0067937053 -0.027273586 -0.0057817176
00000000: ce13 d0bb f429 a43c 4f7b 5a3d f0a4 59bd
00000010: 680f 58bd f396 bbbc ef41 82bd b9a0 07bd
00000020: f89f 743d a392 af3b c56a 1cbb c74e 65bd
00000030: c9da 023d 05d4 7c3d c820 aabc 22e7 1cbd
00000040: 57d9 543b 1bf4 8cbc 63b8 33bd 4faf 19bb
00000050: 6279 3a3d 2d41 cb3c ff31 f93c ae2b c2bc
00000060: d03a b8bc b937 22bc 4a49 083d 1ad1 6a3c
00000070: 93fb 21bd f97e cf3c 4cdb 16bc f8c8 033d
00000080: fe68 ff3a c4c9 a0bc 1cdf 1f3d a658 313b
00000090: d25c 8f3c 60d6 eb3c 76f8 3b3d 4607 213b
000000a0: 2baa 533d 84e6 9dbc f674 b03c 6cb9 793d
000000b0: f8a1 abbc c966 943c c370 36bd ed31 e83c
000000c0: 3227 7a3d dd95 84bc 0685 673d d770 103d
000000d0: c576 273d 03eb f7bc 89bd 01bd cd1c 503c
000000e0: 4c20 16bc ebcd 293d 84b9 783d ad9a 4d3d
000000f0: c920 46bd bb9d debb db6c dfbc 9074 bdbb

bn3.weight f4 [64]
1.0948833 0.99779385 0.9119099 1.007506 1.1420879 0.9944357 0.9434223 1.069298
0.99629635 0.96328413 0.9694357 0.9510648 1.0875344 1.1285121 1.0992895 0.97339654
1.073029 1.1075003 1.1151458 1.1073203 1.054156 1.1035053 0.9005372 1.1588444
0.9479803 0.93787575 0.97391295 0.9585885 0.87895745 0.9038159 1.0124621 1.1269966
1.0309771 0.9353942 0.8903971 1.1197045 0.9516643 0.98551786 1.0870789 1.1510185
0.999299 0.90053624 0.97703844 1.1077541 1.0909854 0.97740126 1.1035511 1.1171092
1.0973182 0.84641004 1.1231694 1.0054231 1.1284953 1.0733196 0.9988211 1.0069486
1.0144396 1.1211188 0.9347798 0.9804759 0.9308987 0.98383814 1.08135 0.9425645
00000000: 2325 8c3f 6b6f 7f3f ed72 693f f5f5 803f
00000010: f02f 923f 5793 7e3f 2084 713f c2de 883f
00000020: 470d 7f3f ca99 763f f02c 783f fc78 733f
00000030: 5434 8b3f 1673 903f 85b5 8c3f 8430 793f
00000040: 0459 893f 92c2 8d3f 19bd 8e3f acbc 8d3f
00000050: 95ee 863f a93f 8d3f 9b89 663f 0355 943f
00000060: d6ae 723f a018 703f 5c52 793f 0e66 753f
00000070: 5b03 613f 7b60 673f 5c98 813f 6d41 903f
00000080: 0ff7 833f ff75 6f3f 10f1 633f 7a52 8f3f
00000090: 46a0 733f e64a 7c3f 6725 8b3f 9354 933f
000000a0: 0fd2 7f3f 8b89 663f 311f 7a3f e3ca 8d3f
000000b0: 69a5 8b3f f836 7a3f 2a41 8d3f 6ffd 8e3f
000000c0: ec74 8c3f 54ae 583f 04c4 8f3f b4b1 803f
000000d0: 8972 903f 8962 893f bdb2 7f3f b1e3 803f
000000e0: 28d9 813f d280 8f3f bb4d 6f3f 7800 7b3f
000000f0: 614f 6e3f d1dc 7b3f ad69 8a3f e84b 713f

bn3.bias f4 [64]
-0.3250106 0.04862819 -0.020933392 -0.16418481 -0.32787773 0.014573372 0.0064041973 -0.17157213
0.04218336 0.03733507 -0.023700904 -0.013887857 -0.34391424 -0.35318336 -0.317193 0.032094683
-0.18146937 -0.3170776 -0.3398942 -0.22316402 -0.2631899 -0.33073 -0.1728936 -0.3718023
-0.023237595 -0.14483017 0.016764676 0.0395436 -0.0874253 -0.13803494 -0.14776464 -0.34654352
-0.29999292 -0.13431562 -0.04082514 -0.3666313 0.01127258 -0.13293092 -0.34654126 -0.33289334
0.04190864 -0.045150463 -0.15889682 -0.32059816 -0.17087963 -0.11413023 -0.047100887 -0.35049322
-0.3416408 -0.08593686 -0.36838502 -0.15361844 -0.34378526 -0.23149921 0.03938513 -0.2557049
-0.10047705 -0.36144894 -0.015559555 0.010117697 -0.089286536 0.05922286 -0.21020828 -0.04375359
00000000: ca67 a6be 5a2e 473d 817c abbc 1020 28be
00000010: 97df a7be 27c5 6e3c 4dda d13b 9bb0 2fbe
00000020: 75c8 2c3d a9ec 183d 6628 c2bc e589 63bc
00000030: 8715 b0be 73d4 b4be 1f67 a2be b775 033d
00000040: 1bd3 39be ff57 a2be 9d06 aebe 1c85 64be
00000050: d4c0 86be 7155 a9be 050b 31be df5c bebe
00000060: c55c bebc 5c4e 14be 1356 893c 78f8 213d
00000070: 090c b3bd 0859 0dbe 9d4f 17be 276e b1be
00000080: ac98 99be 098a 09be 4338 27bd 19b7 bbbe
00000090: a1b0 383c 0b1f 08be db6d b1be ff70 aabe
000000a0: 65a8 2b3d b1ef 38bd d9b5 22be 7125 a4be
000000b0: 12fb 2ebe 1cbd e9bd dcec 40bd d973 b3be
000000c0: 8beb aebe aaff afbd f69c bcbe 274e 1dbe
000000d0: 9f04 b0be 210e 6dbe 4d52 213d c1eb 82be
000000e0: e9c6 cdbd d60f b9be 81ed 7ebc b2c4 253c
000000f0: dcdb b6bd ab93 723d d740 57be f736 33bd

bn3.running_mean f4 [64]
-0.08889948 -1.4364192 -1.071606 3.436291 -0.2041719 -1.2661295 -1.5226747 1.2719994
-1.6513296 -2.5788467 -1.3037854 -1.2805595 0.07753594 0.038826432 -0.2710294 -2.8601158
1.7069802 0.040448334 -0.19222547 -0.4946514 0.20674992 -0.10366155 -2.4066727 -0.15302896
-0.33123785 3.3216 -1.0336993 -2.615448 1.521371 0.39705914 1.2938343 -0.13056107
0.27152961 3.6877098 0.4647323 -0.022816803 -1.415814 -1.6794267 0.028927306 -0.09255799
-1.0416365 -1.7961751 2.1949697 -0.020748124 1.0156078 3.9560912 -2.0290763 0.00603526
-0.22279458 -0.33946547 -0.18097341 3.4388468 -0.20675282 0.9977213 -1.4690906 1.1457001
-2.302623 0.004470688 -1.4032445 -0.41396037 -0.29347602 -2.7694502 1.388946 0.869879
00000000: ee10 b6bd 96dc b7bf 632a 89bf 31ec 5b40
00000010: 7012 51be 8810 a2bf 01e7 c2bf e0d0 a23f
00000020: c55e d3bf d30b 25c0 71e2 a6bf 60e9 a3bf
00000030: 2acb 9e3d 7708 1f3d 5ec4 8abe 230c 37c0
00000040: 547e da3f 27ad 253d c1d6 44be f342 fdbe
00000050: 40b6 533e 824c d4bd ed06 1ac0 a0b3 1cbe
00000060: 0298 a9be 1895 5440 4250 84bf 8063 27c0
00000070: 49bc c23f 564b cb3e 5d9c a53f cdb1 05be
00000080: ee05 8b3e 7003 6c40 64f1 ed3e 4eea babc
00000090: 6539 b5bf 74f7 d6bf f5f8 ec3c 0b8f bdbd
000000a0: 5854 85bf 11e9 e5bf 627a 0c40 f8f7 a9bc
000000b0: 70ff 813f 9930 7d40 63dc 01c0 6ec3 c53b
000000c0: 4324 64be 6bce adbe 1851 39be 1116 5c40
000000d0: 03b7 53be aa6a 7f3f 290b bcbf 4da6 923f
000000e0: 2d5e 13c0 d97e 923b 849d b3bf 9df2 d3be
000000f0: 7d42 96be ac3e 31c0 fcc8 b13f 64b0 5e3f

bn3.running_var f4 [64]
2.3911736 2.1603034 4.9333014 8.474735 2.5225575 6.2142205 5.239467 5.1231694
6.6718364 10.786337 6.5337615 2.4379385 2.6546175 2.440657 2.8252532 11.714137
5.583726 2.2624676 2.4187424 2.5504477 2.1163394 2.2444959 11.637832 2.694359
4.1466556 12.0186615 3.9297085 13.155057 7.015011 13.733944 4.7640243 2.6167245
2.3065765 9.513916 2.2831078 2.5830455 2.3087602 11.2818575 2.5249252 2.3747346
2.6306298 5.1204042 5.4549456 2.5744646 3.407223 12.595509 2.8390691 2.315498
3.0717268 1.7241421 2.7953134 8.367169 2.7169335 2.9805403 4.92058 2.3162386
13.119773 2.9499013 3.2990203 2.837286 13.191396 13.786732 4.7177715 3.0699136
00000000: fd08 1940 6942 0a40 9bdd 9d40 8498 0741
00000010: 9571 2140 e5da c640 b7a9 a740 01f1 a340
00000020: af7f d540 d694 2c41 9314 d140 2f07 1c40
00000030: 41e5 2940 b933 1c40 f3d0 3440 1b6d 3b41
00000040: e2ad b240 45cc 1040 adcc 1a40 893a 2340
00000050: 1b72 0740 d2a5 0f40 8f34 3a41 6170 2c40
00000060: 67b1 8440 704c 4041 5880 7b40 1d7b 5241
00000070: f87a e040 3cbe 5b41 e372 9840 6a78 2740
00000080: f39e 1340 0039 1841 701e 1240 9e50 2540
00000090: bac2 1340 7d82 3441 6098 2140 a7fb 1740
000000a0: 3d5c 2840 5ada a340 ea8e ae40 07c4 2440
000000b0: f10f 5a40 3487 4941 4fb3 3540 1f31 1440
000000c0: 2c97 4440 b0b0 dc3f 6ae6 3240 eddf 0541
000000d0: 3de2 2d40 2cc1 3e40 6475 9d40 413d 1440
000000e0: 97ea 5141 2fcb 3c40 2623 5340 1896 3540
000000f0: f50f 5341 7496 5c41 fcf7 9640 7779 4440

fc1.weight f4 [128, 64]
-0.08588119 0.008013264 -0.019943997 -0.16177723 0.04206718 -0.08051846 -0.11207224 -0.11600958
0.10425978 -0.11165793 0.065642156 -0.07781066 0.011156058 -0.07992756 -0.041681994 -0.07766159
0.04000513 0.007069988 -0.033102866 -0.06399788 -0.14854701 -0.12019855 -0.049574662 -0.026838196
-0.08137624 -0.14212964 0.0025255706 -0.10595503 -0.054935474 0.030645741 -0.018916044 -0.023530392
0.010803957 0.044589765 -0.08438079 0.054302555 0.077874675 -0.09419562 -0.051471077 -0.118990004
-0.05081938 -0.026121637 -0.09399933 -0.15279782 -0.1623646 0.033137973 -0.11625607 -0.13738093
0.0024627338 0.065549 -0.102007724 -0.14742874 -0.05109995 -0.01834491 0.0762759 -0.11693154
0.07944242 0.1024356 -0.08284188 0.07597573 0.023259006 0.012159047 -0.16884276 -0.004888308
-0.18498197 0.16210876 0.09220166 0.10798465 -0.16610515 0.08492267 0.11496332 -0.14301232
0.055490773 0.15069255 0.08870052 -0.05235825 -0.24031639 -0.050187334 -0.07997107 0.06608901
0.024376692 -0.10968034 -0.19436565 -0.22261852 -0.20848058 -0.18973756 -0.00053767965 -0.04786939
0.13861533 -0.049687672 0.17665803 0.019179655 0.08515591 -0.06327285 -0.04267743 -0.052781846
-0.014666757 0.006593017 0.09061648 -0.221913 0.019105243 -0.024769945 -0.015454828 -0.064353555
0.0752549 0.13385198 -0.09497632 -0.1353328 -0.081823535 0.098393455 0.076338954 -0.025163861
-0.018736206 -0.000808206 -0.14718717 -0.022180166 -0.12808369 -0.12022625 0.14851798 -0.09871741
-0.02760782 -0.2333611 0.15386514 0.12670918 -0.1044262 0.080251895 0.0011673208 -0.052626207
0.14669909 -0.003968533 -0.040216025 -0.10013458 0.17831111 0.06663076 0.029206296 0.15244797
-0.15572663 -0.04163587 0.027480189 -0.08688049 0.15299194 0.13243853 0.026006058 0.08042749
0.18544248 0.17218204 0.090773314 -0.017841842 0.17650862 0.13837244 0.15623397 0.20650162
0.04450282 -0.08681278 -0.0043099155 -0.096540526 0.10747861 0.06670183 0.1656594 0.07712401
0.11837422 0.0784126 0.06598488 0.18987648 -0.06309273 0.029627336 0.2020295 0.1518692
-0.120180644 -0.03244939 0.1757502 0.15166411 0.18565865 0.08017526 -0.17802434 0.1644561
0.18472008 -0.11770139 0.19391993 0.008651109 0.09870707 0.18512441 0.007978591 0.11184971
0.19760928 0.099905156 -0.011296173 0.050088003 0.10979758 -0.075274535 0.008905648 0.120005265
-0.1705452 -0.13046044 0.02872231 0.002954986 -0.07957395 0.1667278 0.11869774 -0.054122277
0.12224877 0.10144885 0.112228446 0.021497486 -0.10310341 -0.086045355 -0.16705443 0.18609893
0.02181359 -0.20369923 -0.04740623 -0.21911974 -0.013357183 -0.04495027 -0.06711907 -0.33608556
-0.060488928 0.11210164 0.12372901 0.07274423 -0.041732136 -0.02995477 -0.037924726 -0.26951483
-0.16104163 0.16080774 0.069739774 -0.22477716 0.09009696 -0.012143685 -0.26602566 -0.23240337
0.14810641 0.080815986 -0.015552614 -0.18138428 -0.048990067 -0.025882585 -0.058888346 -0.26840764
-0.18784818 -0.03660563 -0.26298282 -0.01664752 -0.25577193 0.018825287 0.021499665 -0.036983144
0.039057504 -0.057022613 0.041495804 0.13018194 -0.07939209 0.03437038 -0.060183115 0.08603395
00000000: 7ae2 afbd 114a 033c 9861 a3bc eea8 25be
00000010: a34e 2c3d dde6 a4bd 2186 e5bd 6e96 edbd
00000020: 2786 d53d eaac e4bd 656f 863d 325b 9fbd
00000030: e6c7 363c 10b1 a3bd bdba 2abd 0a0d 9fbd
00000040: 6bdc 233d 5cab e73b df96 07bd 5211 83bd
00000050: b51c 18be a82a f6bd cd0e 4bbd c7db dbbc
00000060: 96a8 a6bd 6f8a 11be 0b84 253b f3fe d8bd
00000070: 0504 61bd c70c fb3c d2f5 9abc cfc2 c0bc
00000080: 1403 313c c2a3 363d d6cf acbd 5b6c 5e3d
00000090: c27c 9f3d a2e9 c0bd 56d3 52bd 08b1 f3bd
000000a0: fb27 50bd 0bfd d5bc b982 c0bd 0877 1cbe
000000b0: e842 26be afbb 073d aa17 eebd 96ad 0cbe
000000c0: d165 213b 8e3e 863d 6de9 d0bd 8ff7 16be
000000d0: 2e4e 51bd 1148 96bc 8a36 9c3d ce79 efbd
000000e0: b5b2 a23d c1c9 d13d 01a9 a9bd 2a99 9b3d
000000f0: ac89 be3c bd36 473c 1ee5 2cbe 192e a0bb
00000100: ea6b 3dbe d7ff 253e 39d4 bc3d 0e27 dd3d
00000110: 7817 2abe f0eb ad3d e471 eb3d d271 12be
00000120: 4b4a 633d 264f 1a3e 9ea8 b53d 9b75 56bd
00000130: 8015 76be 3c91 4dbd dfc7 a3bd ad59 873d
00000140: a1b1 c73c 16a0 e0bd ca07 47be 1cf6 63be
00000150: ef7b 55be 904a 42be 12f3 0cba b212 44bd
00000160: 2df1 0d3e 4d85 4bbd d8e5 343e a71e 9d3c
00000170: 3966 ae3d 3295 81bd 87ce 2ebd c731 58bd
00000180: d64c 70bc 3c0a d83b 2295 b93d 293d 63be
00000190: 9982 9c3c 57ea cabc 3f36 7dbc cccb 83bd
000001a0: 3e1f 9a3d 7e10 093e f282 c2bd ae94 0abe
000001b0: 1993 a7bd 8282 c93d 9957 9c3d 7124 cebc
000001c0: ac7c 99bc c9dd 53ba 3cb8 16be 2eb3 b5bc
000001d0: 5f28 03be 2e39 f6bd 1915 183e 5a2c cabd
000001e0: cc29 e2bc 36f6 6ebe d38e 1d3e 0dc0 013e
000001f0: 67dd d5bd 1b5b a43d c900 993a 948e 57bd
00000200: 4938 163e 780a 82bb 8fb9 24bd 5c13 cdbd
00000210: 3097 363e b575 883d 0b42 ef3c 521b 1c3e
00000220: cd76 1fbe 608a 2abd 221e e13c 66ee b1bd
00000230: eba9 1c3e f79d 073e a80a d53c 2bb7 a43d
00000240: a2e4 3d3e 7d50 303e 5ce7 b93d 0e29 92bc
00000250: adbe 343e 81b1 0d3e ccfb 1f3e 2975 533e
00000260: 9748 363d e6ca b1bd 313a 8dbb 0ab7 c5bd
00000270: bf1d dc3d f89a 883d 9ea2 293e 31f3 9d3d
00000280: 2f6e f23d c996 a03d 1523 873d fb6e 423e
00000290: c336 81bd 07b5 f23c d2e0 4e3e 9983 1b3e
000002a0: 4521 f6bd a7e9 04bd dcf7 333e d64d 1b3e
000002b0: 4d1d 3e3e ed32 a43d 034c 36be 2e67 283e
000002c0: 4327 3d3e 6d0d f1bd f292 463e 62bd 0d3c
000002d0: ef26 ca3d 4191 3d3e a3b8 023c 7611 e53d
000002e0: 165a 4a3e 139b cc3d 9513 39bc 1429 4d3d
000002f0: 8edd e03d 8929 9abd ffe8 113c 52c5 f53d
00000300: 67a3 2ebe 6c97 05be 0d4b eb3c 70a8 413b
00000310: abf7 a2bd b1ba 2a3e cd17 f33d 52af 5dbd
00000320: 905d fa3d 6ac4 cf3d 07d8 e53d 7f1b b03c
00000330: e127 d3bd 8c38 b0bd 5110 2bbe b890 3e3e
00000340: 6ab2 b23c 8896 50be 092d 42bd ed60 60be
00000350: 16d8 5abc c61d 38bd b975 89bd 6813 acbe
00000360: 3dc3 77bd 8b95 e53d a365 fd3d edfa 943d
00000370: 51ef 2abd b563 f5bc f556 1bbd d9fd 89be
00000380: 19e8 24be c9aa 243e bad3 8e3d fc2b 66be
00000390: c184 b83d 4ef6 46bc 8434 88be 26fb 6dbe
000003a0: 35a9 173e da82 a53d 64d0 7ebc cdbc 39be
000003b0: cfa9 48bd b707 d4bc e834 71bd ba6c 89be
000003c0: 465b 40be c9ef 15bd afa5 86be 6160 88bc
000003d0: 8af4 82be 7d37 9a3c 1120 b03c a37b 17bd
000003e0: c3fa 1f3d 8b90 69bd 81f7 293d 6a4e 053e
000003f0: 5298 a2bd f5c7 0c3d 9282 76bd 9132 b03d

fc1.bias f4 [128]
-0.15990065 -0.009421902 -0.1491826 0.061704 0.047733065 0.056070607 -0.008569843 0.16212101
-0.05741885 0.20055097 0.15646873 0.24508613 0.0054411716 0.0071318815 -0.14744116 -0.09319444
0.13156374 -0.08728633 0.00074598193 -0.12153295 0.15248866 -0.058723435 -0.057008304 0.14120613
-0.048936605 -0.115258716 0.12858194 0.0654015 -0.051543325 -0.0029157326 0.14283456 -0.049752817
-0.11884034 0.030077204 -0.15194525 0.16243944 0.20855889 -0.058675345 0.070078745 0.17331314
0.2084154 0.04346697 -0.059279572 0.11799272 -0.02075486 -0.10751482 -0.08205189 -0.027200889
0.036191944 0.11554749 0.091521144 -0.079185896 0.06069487 0.14087032 0.13143405 -0.031954728
-0.072143435 0.19528058 -0.06684592 0.05131894 0.045869492 0.057374436 0.015765153 0.035270188
-0.054738253 -0.010297236 -0.036998603 0.06274532 0.052726574 -0.11067603 -0.093182296 0.05413564
0.08334776 0.05732691 -0.14829038 -0.0797044 0.068128176 -0.0065635676 0.12532991 -0.0073198485
0.20026265 -0.08426479 0.16046695 0.035250362 0.062073704 -0.028987782 -0.13901575 0.08210991
0.13665476 -0.13838059 -0.037307054 -0.010524516 0.15939213 0.2047766 0.09075274 0.00024019285
0.1476032 0.03065767 0.16695772 -0.022427434 -0.08315825 0.14521235 -0.012326601 -0.045279004
-0.098125145 -0.08767291 -0.032394838 0.037068605 -0.09362901 0.0033718345 0.1307221 0.15640034
-0.023400838 0.056191932 0.17834882 0.10230685 0.15907562 0.06451697 0.03558336 0.11176879
-0.14279543 -0.115947306 0.022471955 -0.11554027 0.18631434 0.040953875 -0.0776012 -0.07408447
00000000: ffbc 23be 525e 1abc 53c3 18be 55bd 7c3d
00000010: bf83 433d 4baa 653d 8768 0cbc 0d03 263e
00000020: 0730 6bbd 3c5d 4d3e 5739 203e dcf7 7a3e
00000030: db4b b23b 8fb2 e93b d1fa 16be badc bebd
00000040: a5b8 063e 2dc3 b2bd 008e 433a 44e6 f8bd
00000050: fd25 1c3e fc87 70bd 8a81 69bd 5798 103e
00000060: c071 48bd c30c ecbd fcaa 033e 39f1 853d
00000070: 181f 53bd e015 3fbb 3943 123e 9cc9 4bbd
00000080: 9062 f3bd 7864 f63c 8997 1bbe 8656 263e
00000090: 7690 553e 8f55 70bd 7285 8f3d 0079 313e
000000a0: d96a 553e 6c0a 323d 23cf 72bd 2ba6 f13d
000000b0: 1906 aabc bb30 dcbd d20a a8bd 66d4 debc
000000c0: 013e 143d 2aa4 ec3d 706f bb3d 372c a2bd
000000d0: 2f9b 783d 4f40 103e a696 063e f6e2 02bd
000000e0: f0bf 93bd a2f7 473e 84e6 88bd cf33 523d
000000f0: a6e1 3b3d 7501 6b3d ec25 813c 7977 103d
00000100: 3835 60bd bdb5 28bc d98b 17bd 9e80 803d
00000110: d2f7 573d 1daa e2bd 5cd6 bebd 55bd 5d3d
00000120: 3bb2 aa3d 9fcf 6a3d 6fd9 17be 0f3c a3bd
00000130: c986 8b3d 3213 d7bb 7c56 003e 57db efbb
00000140: a711 4d3e 0593 acbd 7351 243e af62 103d
00000150: ff40 7e3d c977 edbc 255a 0ebe 3e29 a83d
00000160: 3aef 0b3e a4b3 0dbe 48cf 18bd 056f 2cbc
00000170: b137 233e f5b0 513e 93dc b93d 47dc 7b39
00000180: 4b25 173e cb25 fb3c f7f6 2a3e bdb9 b7bc
00000190: df4e aabd 8cb2 143e 83f5 49bc 7a76 39bd
000001a0: d6f5 c8bd db8d b3bd 73b0 04bd 40d5 173d
000001b0: 91c0 bfbd fff9 5c3b 04dc 053e 6927 203e
000001c0: 1db3 bfbc 8329 663d 13a1 363e 4186 d13d
000001d0: b8e4 223e 7921 843d dbbf 113d 09e7 e43d
000001e0: f738 12be c875 edbd 1b17 b83c 61a0 ecbd
000001f0: 30c9 3e3e 40bf 273d 61ed 9ebd 99b9 97bd

fc2.weight f4 [2, 128]
0.022139283 0.10604916 -0.116786696 0.19336867 -0.17327838 0.22400598 -0.081930816 0.09266835
-0.060647182 0.09832011 0.15850694 0.15063299 0.16467838 0.18476747 -0.17162031 0.06380755
0.15516248 0.027426712 0.033687487 0.023360185 0.22860914 -0.051962703 0.07654836 0.27272344
-0.059100922 0.057784535 0.1675394 -0.10174506 -0.016990904 0.038021844 0.15259162 -0.12783828
-0.13730264 -0.13608898 -0.06810658 0.14967816 0.08158351 0.13085529 0.17288922 0.15311728
0.15849222 -0.1539032 0.18597224 0.18663278 0.19563359 0.062334564 -0.13999331 0.010073019
-0.029735504 0.17094733 0.24097194 -0.044861 0.10217338 0.078207634 0.20866807 -0.042168867
0.041657064 0.08975489 -0.15278463 -0.061838537 -0.1532394 0.22200467 0.18269043 0.20270309
-0.009807707 -0.13362932 0.04565883 0.17690423 -0.14970157 -0.04391977 -0.0044472655 -0.12533772
-0.19490975 -0.023630217 -0.048959754 -0.17449224 0.18396969 0.109201215 0.14809522 -0.12516414
0.17112337 0.0346667 0.17859302 0.008355931 0.20161253 0.10477252 -0.037781596 0.12740459
0.09918945 -0.14880456 -0.04238685 -0.006813391 0.18615052 0.32550758 0.041814655 -0.10648211
0.19973451 0.13577947 0.23786622 -0.04492768 -0.084379084 -0.037406255 -0.18739077 0.015431307
-0.07861777 -0.033991363 0.08303299 0.23500799 0.010676599 -0.100727044 0.16931291 0.14313656
-0.09273239 -0.093642935 0.17604601 0.25502586 0.16935042 -0.14439139 0.16808692 0.1460409
-0.066658564 -0.1514214 -0.025440201 -0.16663319 0.22202237 0.2212484 0.13612078 -0.071911514
0.008545529 -0.1745492 0.15798847 -0.23309599 0.075967826 -0.23177065 0.16245992 -0.17503816
-0.03832389 -0.21551314 -0.14455263 -0.16683842 -0.16818488 -0.19704604 0.15024358 -0.18959771
-0.20268184 0.05524566 -0.08516407 0.08119612 -0.21604273 0.18708622 0.06739069 -0.17110646
0.051475655 -0.07408916 -0.075847626 0.123764575 0.06233391 -0.17411645 -0.24422762 0.122846074
0.18223639 0.13305594 0.12911476 -0.17852655 -0.048768636 -0.18964393 -0.14218749 -0.08973082
-0.10706139 0.13065568 -0.19268769 -0.13231339 -0.16682328 0.053057134 0.05079244 -0.12417385
0.09056026 -0.10865425 -0.119870305 0.118007414 -0.22757354 -0.13026711 -0.12517469 0.0038879835
0.025548622 -0.26080185 0.14348863 0.17149274 0.106139645 -0.14775194 -0.17016509 -0.24688746
-0.06935076 0.19825917 -0.002680839 -0.14371882 0.13239217 0.1230736 0.02645003 0.13703692
0.19168961 0.00966715 0.11418479 0.07245221 -0.09221598 -0.067095235 -0.17411911 0.11534364
-0.27498716 0.03578115 -0.17797913 0.026072932 -0.11808946 -0.17063622 -0.03232589 -0.1618798
-0.07675564 0.15231618 0.004495876 0.032072313 -0.04375812 -0.27106827 -0.026882153 0.047307093
-0.08369937 -0.19297759 -0.21453816 0.07547209 0.080513224 -0.114338174 0.08420051 0.04586122
0.17018007 0.13303237 -0.09640319 -0.17010376 0.009064862 0.027192555 -0.18375285 -0.13124862
0.117921546 0.1875546 -0.1333658 -0.24867375 -0.20624974 0.16511886 -0.20237501 -0.13932079
0.1500318 0.16026938 0.040343154 0.13713807 -0.17003858 -0.17722243 -0.061206784 -0.084211186
00000000: 715d b53c 4d30 d93d dd2d efbd 7002 463e
00000010: e36f 31be d361 653e 58cb a7bd e7c8 bd3d
00000020: 2e69 78bd 0e5c c93d a54f 223e 893f 1a3e
00000030: 73a1 283e af33 3d3e 3cbd 2fbe 88ad 823d
00000040: eae2 1e3e fcad e03c e4fb 093d dc5d bf3c
00000050: 8418 6a3e d8d6 54bd 63c5 9c3d 68a2 8b3e
00000060: cf13 72bd 7aaf 6c3d 738f 2b3e b75f d0bd
00000070: 8230 8bbc cbbc 1b3d fa40 1c3e 0ae8 02be
00000080: 1099 0cbe e95a 0bbe 767b 8bbd 3b45 193e
00000090: 4115 a73d eefe 053e df09 313e c7ca 1c3e
000000a0: c94b 223e cd98 1dbe 826f 3e3e aa1c 3f3e
000000b0: 2c54 483e 8752 7f3d 685a 0fbe 4e09 253c
000000c0: df97 f3bc d10c 2f3e 59c1 763e 2bc0 37bd
000000d0: 4740 d13d 532b a03d 15ad 553e 43b9 2cbd
000000e0: 99a0 2a3d 69d1 b73d 9373 1cbe 684a 7dbd
000000f0: caea 1cbe 3155 633e 3313 3b3e 6691 4f3e
00000100: 81b0 20bc 20d6 08be c104 3b3d 6226 353e
00000110: 5e4b 19be 37e5 33bd 5eba 91bb 8858 00be
00000120: 6c96 47be 2894 c1bc 068a 48bd 18ae 32be
00000130: 8d62 3c3e e3a4 df3d 46a6 173e 072b 00be
00000140: f73a 2f3e abfe 0d3d 17e1 363e 51e7 083c
00000150: 8473 4e3e fa92 d63d e0c0 1abd 5976 023e
00000160: d723 cb3d 3960 18be d59d 2dbd de42 dfbb
00000170: 3e9e 3e3e eea8 a63e d845 2b3d 4b13 dabd
00000180: 3487 4c3e c609 0b3e 3493 733e 1606 38bd
00000190: f1ce acbd 4d37 19bd 5ee3 3fbe 98d3 7c3c
000001a0: 5a02 a1bd 873a 0bbd 330d aa3d efa5 703e
000001b0: e7ec 2e3c fb49 cebd 5d60 2d3e 6492 123e
000001c0: 7bea bdbd dec7 bfbd 6845 343e c092 823e
000001d0: 326a 2d3e 56db 13be fa1e 2c3e bf8b 153e
000001e0: 4984 88bd 360e 1bbe f867 d0bc e4a1 2abe
000001f0: d559 633e f18e 623e 3f63 0b3e 5846 93bd
00000200: 8c02 0c3c 07bd 32be bbc7 213e b7b0 6ebe
00000210: 0595 9b3d 4955 6dbe e55b 263e 343d 33be
00000220: 83f9 1cbd 7aaf 5cbe 9b05 14be b1d7 2abe
00000230: a838 2cbe 70c6 49be 74d9 193e e725 42be
00000240: d48b 4fbe 4649 623d 806a aebd 274a a63d
00000250: 4e3a 5dbe 8893 3f3e 2104 8a3d 8836 2fbe
00000260: 23d8 523d 0fbc 97bd 0056 9bbd 4878 fd3d
00000270: d851 7f3d 954b 32be ce16 7abe b996 fb3d
00000280: 2d9c 3a3e d13f 083e a936 043e aacf 36be
00000290: 9fc1 47bd 0532 42be 9999 11be cbc4 b7bd
000002a0: 0143 dbbd 9aca 053e ec4f 45be 297d 07be
000002b0: b9d3 2abe 7052 593d bc0b 503d dc4e febd
000002c0: a877 b93d 1f86 debd 907e f5bd dfad f13d
000002d0: 0a09 69be be64 05be cb2d 00be 8acd 7e3b
000002e0: 584b d13c d287 85be afee 123e cb9b 2f3e
000002f0: be5f d93d 494c 17be c23f 2ebe 11d0 7cbe
00000300: c507 8ebd 7404 4b3e 04b1 2fbb 072b 13be
00000310: d091 073e 030e fc3d bcad d83c 6853 0c3e
00000320: 484a 443e f762 1e3c b7d9 e93d d361 943d
00000330: bbdb bcbd 3a69 89bd 484c 32be 4939 ec3d
00000340: 1ecb 8cbe 418f 123d 2940 36be e796 d53c
00000350: e3d8 f1bd 43bb 2ebe 2768 04bd d1c3 25be
00000360: 1032 9dbd c6f8 1b3e 2452 933b 425e 033d
00000370: b73b 33bd 76c9 8abe f637 dcbc 15c5 413d
00000380: 936a abbd eb9b 45be e4af 5bbe 1c91 9a3d
00000390: 1ee4 a43d 222a eabd 5171 ac3d fad8 3b3d
000003a0: af43 2e3e a339 083e 096f c5bd ae2f 2ebe
000003b0: c984 143c ecc2 de3c b529 3cbe 0a66 06be
000003c0: da80 f13d 500e 403e 0b91 08be 55a4 7ebe
000003d0: 2233 53be eb14 293e 653b 4fbe 1caa 0ebe
000003e0: f0a1 193e a81d 243e dd3e 253d ec6d 0c3e
000003f0: 981e 2ebe cc79 35be f7b3 7abd ea76 acbd

fc2.bias f4 [2]
0.00018950725 -0.06487763
00000000: 77b6 4639 90de 84bd
