checkpoints/trained_gap_32x32_20251211_202713.pth (torch, 140286 bytes, 22 tensors)

conv1.weight f4 [16, 3, 3, 3]
0	0xbdf309c7	-0.11867099
1	0x3d8dd0cf	0.06924593
2	0xbdf72ee4	-0.120694906
3	0x3e0626c6	0.13100728
4	0xbd8031ae	-0.06259476
5	0xbd70d308	-0.058795005
6	0x3e20d021	0.15704395
7	0x3dfbd3cc	0.122962564
8	0xbd4907e4	-0.04907979
9	0xbe30ac80	-0.17253304
10	0x3b51a9c8	0.0031992067
11	0x3de455a6	0.11149149
12	0xbd504198	-0.050843805
13	0xbe32cb6b	-0.1746041
14	0xbdcba4e5	-0.099435605
15	0x3e2f4044	0.17114359
16	0x3e17e0d5	0.1483186
17	0x3dea5433	0.11441841
18	0x3d4c0204	0.04980661
19	0xbe1c727d	-0.15278049
20	0x3e204106	0.15649804
21	0x3e284205	0.16431434
22	0xbcae01bf	-0.021241067
23	0x3c531e84	0.012885693
24	0xbd2e477f	-0.042548653
25	0xbe26c3a1	-0.16285564
26	0xbe075fb9	-0.13220109
27	0xbdf71b70	-0.1206578
28	0x3db8b0c1	0.09018088
29	0xbd935711	-0.07194341
30	0x3c815a32	0.015790079
31	0x3dd4ed85	0.10396866
32	0xbd3de2d3	-0.046358895
33	0x3cc78b02	0.024358276
34	0xbda32766	-0.07966499
35	0x3a25a466	0.0006318748
36	0xbe45dc82	-0.19322398
37	0x3d874c50	0.06606352
38	0x3e0e78f1	0.13913323
39	0xbdb17d0d	-0.0866643
40	0x3e20fca2	0.15721372
41	0x3b01a4b9	0.001978202
42	0xbe18827c	-0.14893526
43	0xbc7cc9d7	-0.015428982
44	0x3e135e25	0.14391382
45	0x3d1d4d2b	0.03840367
46	0xbd055f4d	-0.03256159
47	0x3e30470f	0.17214607
48	0xbd4ddd94	-0.05026014
49	0xbdb5264c	-0.08845195
50	0x3e5a518f	0.21320175
51	0x3e1e0b9d	0.15434118
52	0xbcfbb805	-0.030727396
53	0x3dca022d	0.09863696
54	0xbe2c0e63	-0.16802363
55	0x3d901325	0.070349015
56	0x3d8a92d5	0.06766287
57	0x3e08241e	0.13295028
58	0x3c9f8b5c	0.019475631
59	0xbd765d21	-0.06014741
60	0xbddabe7f	-0.106808655
61	0xbd28e24f	-0.04123145
62	0x3d4e7956	0.050408684
63	0x3dd5417a	0.10412879
64	0xbe0bfe04	-0.13671118
65	0x3d8db145	0.06918577
66	0xbe42099e	-0.18948981
67	0x3e6ec883	0.23318677
68	0xbdac7da0	-0.084223986
69	0xbd580950	-0.052743256
70	0xbc3e5891	-0.011617796
71	0x3dbbeb81	0.09175778
72	0x3d4ec105	0.050477047
73	0x3e16ff17	0.14745747
74	0xbe328824	-0.17434746
75	0x3e3f6442	0.18690589
76	0xba4c927e	-0.00078038115
77	0x3e1e86e3	0.15481143
78	0xbe698aee	-0.22806904
79	0x3e051c3b	0.1299905
80	0xbe54870e	-0.20754644
81	0x3da497ec	0.08036789
82	0x3d62a131	0.055329505
83	0x3d062b63	0.03275622
84	0xbe17037f	-0.14747427
85	0x3e08863b	0.13332455
86	0x3d8b189e	0.06791805
87	0x3e367f90	0.17822099
88	0x3dd394e0	0.1033113
89	0xbdf18112	-0.11792196
90	0x3d8481fb	0.06470104
91	0x3d94b7a1	0.07261587
92	0xbda1d1bb	-0.07901331
93	0xbe28a1da	-0.16467991
94	0xbe14f584	-0.14546782
95	0x3e1840ed	0.14868517
96	0x3e06908f	0.13141082
97	0xbda06f4f	-0.078337304
98	0xbd9a8bb7	-0.0754618
99	0x3d72acab	0.0592467
100	0x3d530bae	0.05152481
101	0x3cd8ff3f	0.026488898
102	0xbdb734dc	-0.08945629
103	0xbe1dde53	-0.15416841
104	0xbe3b6a36	-0.18302235
105	0x3ceee404	0.02916146
106	0x3d9103c9	0.070808
107	0x3e26a868	0.1627518
108	0xbaaddf3b	-0.001326538
109	0x3c9e3504	0.01931239
110	0xbd17790e	-0.03698068
111	0x3d56e679	0.05246589
112	0xbde02714	-0.109449536
113	0x3e167de2	0.14696458
114	0xbdb92572	-0.09040345
115	0x3d3f6ca9	0.046734486
116	0x3dccd1ae	0.10000931
117	0xbdf19fdb	-0.11798068
118	0xbe626ee5	-0.22112615
119	0x3cc458ab	0.023968061
120	0xbcb3e650	-0.021960407
121	0xbbcf000d	-0.0063171447
122	0xbde21e89	-0.1104098
123	0x3e497274	0.19672567
124	0x3d25babc	0.040461287
125	0x3dd07b2d	0.10179744
126	0xbe1a9c00	-0.15098572
127	0xbe2d64b6	-0.1693295
128	0x3d84de6b	0.06487735
129	0xbe6386de	-0.22219416
130	0x3d0ac798	0.033881754
131	0xbe3bf14c	-0.18353766
132	0x3d22e6e4	0.039770976
133	0x3e467d58	0.19383752
134	0x3e32a440	0.17445469
135	0x3d89dc04	0.06731418
136	0x3e368ebb	0.17827885
137	0x3e3e679e	0.18594214
138	0x3dbee0d4	0.09320226
139	0xbe1262e1	-0.14295532
140	0xbe2b8d7e	-0.16753194
141	0xbd93b020	-0.072113276
142	0xbe07e5fc	-0.13271326
143	0x3e33ac56	0.1754621
144	0x3e0dcf3f	0.1384859
145	0xbdbef241	-0.0932355
146	0x3e2cceeb	0.16875808
147	0xbe1f1c0c	-0.15538043
148	0x3e4c5748	0.1995517
149	0xbd55719f	-0.05211031
150	0xbe274aca	-0.16337124
151	0x3d40183b	0.046898108
152	0x3dbbbab3	0.091664694
153	0x3d67bc85	0.05657627
154	0xbe3ac31d	-0.18238492
155	0x3e316d32	0.17326811
156	0xbb8c75b8	-0.004286494
157	0xbc41d120	-0.011829644
158	0xbdb57765	-0.08860663
159	0xbd21ad27	-0.03947177
160	0xbe34e885	-0.17666824
161	0xbd70389a	-0.05864773
162	0x3e4deddb	0.20110266
163	0x3d3c636d	0.045993257
164	0xbcacdca3	-0.021101302
165	0xbd8259b7	-0.06364768
166	0xbdc11ebd	-0.09429691
167	0x3e5aec0c	0.21379107
168	0x3d1c84a1	0.038212422
169	0x3e76e6f5	0.2411154
170	0xbcb17561	-0.021662416
171	0x3d0ab65f	0.03386533
172	0x3d01a1f8	0.031648606
173	0xbe15ea7b	-0.14640228
174	0xbe1e0a4d	-0.15433617
175	0xbd9494ae	-0.07254921
176	0x3daf8535	0.08570329
177	0x3dcb768c	0.099347204
178	0x3bde5637	0.00678518
179	0x3d67ee50	0.056623757
180	0x3e157648	0.14595902
181	0xbe251651	-0.16121794
182	0xbded1960	-0.115771055
183	0xbe4494cb	-0.19197385
184	0xbe0d69a7	-0.13809834
185	0xbd9e55c6	-0.07731204
186	0xbda98450	-0.0827719
187	0xbdb79956	-0.089647934
188	0x3d1df619	0.038564775
189	0x3d4fd020	0.050735593
190	0xbe38a5d5	-0.1803201
191	0xbd823888	-0.06358439
192	0x3d12c111	0.035828654
193	0x3cfe9c50	0.031080395
194	0xbe2db13b	-0.1696214
195	0x3e2a6fd9	0.16644229
196	0x3ddc2809	0.107498236
197	0xbd8cfb72	-0.06883897
198	0xbd3e0e3c	-0.046400294
199	0xbd7c53d6	-0.06160339
200	0x3dca8695	0.09888951
201	0xbd8f2109	-0.06988723
202	0x3cd7e088	0.026352182
203	0xbc22251b	-0.009896542
204	0xbe0c44a7	-0.13698064
205	0x3e17d143	0.14825921
206	0xbe22bf18	-0.15893209
207	0x3cc1a0db	0.023636272
208	0x3e021dd9	0.12706698
209	0x3e36edfa	0.17864218
210	0x3a91be10	0.0011119265
211	0x3daca1ec	0.08429322
212	0xbe424056	-0.18969855
213	0x3d8b0698	0.06788367
214	0x3e43ccf5	0.19121154
215	0xbe315610	-0.17317986
216	0xbe02029e	-0.12696311
217	0x3dd45388	0.10367495
218	0xbd970bf1	-0.073753245
219	0xbc8543a3	-0.016267603
220	0xbda6ed8e	-0.08150779
221	0x3d19ebd6	0.037578426
222	0xbb0a7f46	-0.002113299
223	0xbe5bfe63	-0.2148376
224	0x3e0008bf	0.12503336
225	0xbd338457	-0.04382738
226	0x3da5cc38	0.08095592
227	0x3e3a26bb	0.18178837
228	0x3d32caa0	0.04365027
229	0x3e374a9e	0.17899558
230	0x3d5822f3	0.052767705
231	0x3d53e436	0.05173131
232	0xbdaea38d	-0.085272886
233	0x3de8d3e0	0.11368537
234	0x3e233dec	0.1594159
235	0x3cfd7030	0.030937284
236	0x3de8cc0d	0.113670446
237	0xbe6295aa	-0.22127405
238	0xbd3fc21e	-0.046815984
239	0xbb84f47c	-0.004057465
240	0xbc754990	-0.014971152
241	0xbe03d1dc	-0.12873024
242	0xbda83331	-0.08212889
243	0x3bd4e422	0.006496922
244	0x3e2cfe5a	0.16893902
245	0xbc811c12	-0.015760455
246	0x3d8ffd8b	0.07030781
247	0x3db5c62d	0.0887569
248	0xbdde70b5	-0.10861341
249	0x3da24d65	0.07924918
250	0xbe28095b	-0.16409819
251	0x3da4a919	0.08040065
252	0x3d6a306a	0.057175077
253	0x3d6ef584	0.05833961
254	0xbc9d10d3	-0.019173061
255	0x3e19e456	0.1502851

conv1.bias f4 [16]
0	0x3dd54130	0.10412824
1	0xbcb3edc1	-0.021963956
2	0xbc32058e	-0.010865582
3	0xbd334498	-0.043766588
4	0x3c7ae243	0.015312734
5	0xbcbe2ae2	-0.023213807
6	0xbd897543	-0.06711819
7	0x3d16f427	0.036853936
8	0x3e00f1f9	0.12592305
9	0xbda90d79	-0.08254523
10	0xbe1d2d6d	-0.1534936
11	0xbcda165e	-0.026621994
12	0x3da681ee	0.08130251
13	0xbdb16d82	-0.08663465
14	0x3e1f31f1	0.15546395
15	0xbe13bcaa	-0.14427438

bn1.weight f4 [16]
0	0x3f8c7f91	1.097643
1	0x3f66a410	0.9009409
2	0x3f65ebe1	0.8981305
3	0x3f76ba27	0.96377796
4	0x3f75caa7	0.9601235
5	0x3f84d375	1.0377032
6	0x3f803b6b	1.0018133
7	0x3f8b0899	1.0861999
8	0x3f7d0899	0.98841244
9	0x3f8d8a3a	1.1057808
10	0x3f9597d2	1.1686957
11	0x3f8f5c6d	1.1200081
12	0x3f7027e8	0.9381089
13	0x3f7dcbed	0.9913929
14	0x3f774be0	0.9660015
15	0x3f762252	0.9614612

bn1.bias f4 [16]
0	0xbc32dd52	-0.010917025
1	0xbbb2e81d	-0.005459799
2	0xbd9f5a29	-0.077808686
3	0xbd4c1d57	-0.04983267
4	0xbc3c2645	-0.011483734
5	0x3d95babd	0.07311008
6	0xbc284bf8	-0.010272019
7	0xbe0b010f	-0.13574623
8	0x3bfcc9f6	0.0077145053
9	0xbd12d886	-0.035851024
10	0xbd630a51	-0.05542976
11	0xbd79fe3c	-0.061033472
12	0xba1e3c26	-0.00060361845
13	0xbd44673a	-0.047950007
14	0x3bf4caa0	0.007470444
15	0xbd8ca1b5	-0.06866781

bn1.running_mean f4 [16]
0	0x3db3ad9f	0.0877335
1	0x3ecc31b1	0.39881662
2	0x3d210c59	0.039318416
3	0x3dff1083	0.12454321
4	0xbe631d5f	-0.22179173
5	0xbd9af9a8	-0.075671494
6	0xbea8516d	-0.32874623
7	0x3d8b3856	0.067978546
8	0x3e6017a5	0.2188402
9	0xbdde9381	-0.10867978
10	0xbe0dd184	-0.13849455
11	0xbc54b192	-0.012981789
12	0x3ef606a4	0.4805194
13	0x3c7a2917	0.015268586
14	0x3f182ce7	0.59443516
15	0xbec467b5	-0.38360372

bn1.running_var f4 [16]
0	0x3d712d8a	0.05888132
1	0x3e2271bc	0.15863699
2	0x3d6f2533	0.058385085
3	0x3d8753e0	0.06607795
4	0x3e746094	0.23864967
5	0x3e0d273c	0.13784498
6	0x3db454f6	0.088052675
7	0x3daeb448	0.0853048
8	0x3db06344	0.086126834
9	0x3dd31381	0.103064544
10	0x3e358d2f	0.17729639
11	0x3d9699f5	0.07353584
12	0x3e315408	0.17317212
13	0x3d206d72	0.039166875
14	0x3e83cb12	0.25740868
15	0x3e3ec7e2	0.18630937

conv2.weight f4 [32, 16, 3, 3]
0	0x3dc2b2e1	0.09506775
1	0xbcfdb5e9	-0.03097053
2	0x3c47cbb6	0.012194565
3	0x3d3ef902	0.04662419
4	0xbc10e6fe	-0.008844135
5	0x3e4932b3	0.19648246
6	0xbdcc8cab	-0.09987768
7	0xbd1f1624	-0.038839474
8	0x3cc3fd5f	0.023924528
9	0x3c90c5b3	0.017672395
10	0xbc339099	-0.010959768
11	0x3c79b537	0.015240959
12	0xbd3397b7	-0.04384586
13	0x3daa94f6	0.08329193
14	0xbd73b6cd	-0.059500504
15	0xbd551b14	-0.052027777
16	0xbd152978	-0.0364165
17	0x3c32c382	0.0109108705
18	0xbca9f640	-0.020747304
19	0xbc975d11	-0.018476995
20	0xbda13453	-0.07871308
21	0xbc9e3166	-0.019310664
22	0x3d3b46cb	0.04572181
23	0xbc0a4026	-0.008438146
24	0xbd6e53b4	-0.058185294
25	0x3ca161a1	0.019699873
26	0x3c164cc6	0.009173578
27	0x3cae812c	0.021301828
28	0xbd7163f7	-0.058933225
29	0x3ccaed7b	0.024771443
30	0xbd4957c7	-0.049155977
31	0x3d51f5fc	0.05125998
32	0x3d7af474	0.061268285
33	0xbc248c45	-0.0100432085
34	0xb898038d	-7.248586e-05
35	0xbd9eb579	-0.07749457
36	0xbd0e88f7	-0.03479859
37	0xbd2a8d94	-0.041638926
38	0xbd591ab2	-0.053003974
39	0x3d0a6a9b	0.033793073
40	0xbcc59aa9	-0.0241216
41	0x3da34da8	0.07973796
42	0xbaa3ee30	-0.0012506898
43	0x3a25c455	0.0006323506
44	0xbbf46317	-0.0074581015
45	0xbd43fee7	-0.047850516
46	0xbd8dc15d	-0.06921647
47	0xbd50438a	-0.05084566
48	0x3db4650b	0.08808335
49	0x3d8591ba	0.06521936
50	0x3d132be4	0.03593053
51	0x3dd26972	0.10274018
52	0x3d7d5b9a	0.061854936
53	0xbd57119f	-0.05250704
54	0xbde607c4	-0.1123195
55	0x3d2cb060	0.04216039
56	0xbd374fd7	-0.044753876
57	0x3bc4167a	0.0059841247
58	0x3d0aa981	0.033853058
59	0xbd3525ca	-0.04422549
60	0xbd9e99ac	-0.07744154
61	0xbdf68a53	-0.12038102
62	0xbd3a0d59	-0.045422886
63	0x3d6ae8ef	0.05735105
64	0x3da43add	0.0801904
65	0x3d6d0ede	0.057875507
66	0xbc828bd4	-0.015935816
67	0x3e0e9a80	0.13926125
68	0x3c7e054a	0.015504191
69	0xbdc4d970	-0.096117854
70	0x3c0e0352	0.008667784
71	0x3be4decd	0.0069845677
72	0xbd2094d7	-0.039204445
73	0xbe06d760	-0.13168097
74	0xbd259fcf	-0.04043561
75	0x3d6a2c0e	0.05717092
76	0xbda61d9c	-0.08111116
77	0xbcedc12b	-0.029022774
78	0x3d8dbd08	0.069208205
79	0x3d841c6e	0.06450735
80	0xbd092839	-0.033485625
81	0xbd9b7db8	-0.07592338
82	0xbb902439	-0.0043988493
83	0x3d0e0bdc	0.03467928
84	0x3d8b1470	0.067910075
85	0xbbe5f087	-0.0070171985
86	0x3e1678e6	0.14694557
87	0xbd332e77	-0.043745484
88	0x3d4588e8	0.048226267
89	0x3da034e3	0.07822587
90	0xbca85a72	-0.02055094
91	0xbc5af4a5	-0.013363992
92	0x3d828bdb	0.063743316
93	0x3e2c2d29	0.16814102
94	0x3e04ff91	0.12988116
95	0xbcfc075a	-0.030765224
96	0x3d425f03	0.04745389
97	0x3dd27c9d	0.10277674
98	0xbc002ee6	-0.007823681
99	0x3d64475b	0.055732112
100	0x3db2daba	0.08733125
101	0x3d955b2b	0.072927795
102	0xbc12de7a	-0.008964175
103	0xbc14e77e	-0.009088395
104	0x3d5231d4	0.05131705
105	0xbd83dfc4	-0.06439164
106	0xbcab16c0	-0.020884871
107	0xbd309a34	-0.04311581
108	0x3bfe1abc	0.007754652
109	0x3c88f0be	0.016716357
110	0xbd7fcc61	-0.06245077
111	0x3c87514e	0.016518261
112	0xbd104ebb	-0.035231333
113	0xbd816610	-0.06318295
114	0x3cd8d60e	0.026469257
115	0xbc15142d	-0.009099049
116	0x3cc0a71a	0.02351718
117	0x3dbb5591	0.0914718
118	0x3d8656fd	0.065595604
119	0x3bed8a7b	0.007249174
120	0xbc3bfa46	-0.011473244
121	0x3cfa69ed	0.030568087
122	0x3dcac154	0.09900156
123	0xbd315176	-0.043290578
124	0xbd87dd8d	-0.06634054
125	0x3c926710	0.01787141
126	0xbcca91e8	-0.024727777
127	0xbd9adeea	-0.07562049
128	0xbc30e90e	-0.010797752
129	0x3dc0736e	0.093970165
130	0x3d3eacdd	0.046551574
131	0xbc691cb8	-0.0142280385
132	0x3dab5158	0.083651245
133	0x3db410e8	0.08792287
134	0x3cd1ecf7	0.025625689
135	0xbcf06357	-0.029344244
136	0xbd14d1bd	-0.036332835
137	0xbd12ca89	-0.035837684
138	0x3dcfc910	0.101457715
139	0x3d0d6b1b	0.03452597
140	0x3caa9662	0.020823661
141	0xbd8e7f4d	-0.069578744
142	0xbdb8a4cf	-0.0901581
143	0xbd0f0a0b	-0.034921687
144	0x3c9700f4	0.018433072
145	0x3c5e557e	0.013570188
146	0x3d35a420	0.044345975
147	0xbc90f0bc	-0.017692916
148	0xbd827994	-0.063708454
149	0x3d7a0f31	0.061049644
150	0xbc49855a	-0.01229986
151	0xbd3388df	-0.043831702
152	0xbcb5bddc	-0.022185259
153	0x3d65b0f0	0.056076944
154	0x3c09f91f	0.0084212115
155	0x3d70c365	0.058780093
156	0xbd14562d	-0.036214996
157	0xbd60e95e	-0.054910056
158	0xbc3dad81	-0.011577011
159	0x3d6e6841	0.058204893
160	0xbd512b0a	-0.051066436
161	0x3d2afd29	0.04174534
162	0x3c990ff4	0.018684365
163	0xbcf53f27	-0.02993734
164	0xbd81a5d6	-0.06330459
165	0x3d0bd570	0.034139097
166	0xbd5343ef	-0.05157846
167	0xbd846643	-0.064648174
168	0x3c96be5b	0.018401315
169	0xbdbe318d	-0.09286795
170	0x3d00f533	0.03148384
171	0x3d0a51cf	0.033769425
172	0x3d89f268	0.067356884
173	0xbd58f145	-0.052964468
174	0xbdb7be25	-0.08971814
175	0xbd1a687f	-0.03769731
176	0xbdb5183d	-0.08842514
177	0xbd32ac34	-0.043621257
178	0xbdc385f9	-0.09547038
179	0x3c615e82	0.013755443
180	0xbde5e118	-0.11224574
181	0xbcebebf2	-0.02879903
182	0xbbc27478	-0.0059342943
183	0xbcba60ea	-0.02275129
184	0xbd8cc61b	-0.06873723
185	0xbc3fda75	-0.011709799
186	0x3cafd4dd	0.021463806
187	0xbe00f418	-0.12593114
188	0xbdaf57ff	-0.08561706
189	0xbd92a799	-0.07160873
190	0xbdcc12ce	-0.09964524
191	0x3dac4c4f	0.08412992
192	0xbbdfd1d5	-0.006830434
193	0xbd1f86e2	-0.038946994
194	0x3ca3c609	0.019991891
195	0xbda8e850	-0.08247435
196	0x3c4d21d7	0.012520275
197	0x3db9aa6b	0.09065708
198	0xbcf3cf26	-0.029761862
199	0xbcaed4ce	-0.021341708
200	0xbd2f9c8f	-0.042873915
201	0x3b24eea6	0.002516666
202	0x3b5e1b16	0.0033890656
203	0xbd20e31f	-0.0392791
204	0xbdbb606c	-0.091492504
205	0xbe052e84	-0.13006026
206	0xbd901e01	-0.07036973
207	0xbd2e2545	-0.04251601
208	0x3e209447	0.15681563
209	0x3d519428	0.051166683
210	0xbe1b6199	-0.1517395
211	0x3de27e69	0.11059267
212	0x3d873670	0.0660218
213	0xbdc9bce6	-0.09850483
214	0x3dc8ccff	0.09804725
215	0x3d9e11ab	0.07718214
216	0xbcdf98bd	-0.027294511
217	0x3d872235	0.06598321
218	0xbc8d542e	-0.017252054
219	0xbc6bdbdb	-0.014395679
220	0xbdc35022	-0.095367685
221	0x3ddfd01c	0.109283656
222	0xbd8732dd	-0.06601498
223	0x3bfecdfe	0.007776021
224	0xbd8101dd	-0.062991835
225	0xbbc34baf	-0.00595995
226	0xbd53923f	-0.051653143
227	0x3c3578f4	0.011076201
228	0x3d5c2c69	0.05375329
229	0xbd003537	-0.03130075
230	0xbcf01850	-0.029308468
231	0xbd75958a	-0.059957065
232	0x3d428e83	0.04749919
233	0xbcb47a79	-0.022031056
234	0xbdb7a0ec	-0.0896624
235	0x3cff59f9	0.031170832
236	0x3e3931fa	0.18085471
237	0x3c4f1600	0.012639523
238	0xbd9da3a3	-0.07697227
239	0x3d576804	0.05258943
240	0xbe0301bf	-0.12793635
241	0xbd67522a	-0.056474842
242	0xbc061640	-0.008184016
243	0xbd5f7a04	-0.054559723
244	0x3ac4cfcd	0.0015015543
245	0x3df017e6	0.11723308
246	0xbd823b8e	-0.063590154
247	0xbd799044	-0.060928598
248	0x3e1ae21e	0.1512532
249	0xbd9cab9d	-0.0764992
250	0x3d875f47	0.066099696
251	0x3e6043e0	0.21900892
252	0xbd3b0dc5	-0.04566743
253	0xbd50264d	-0.050817776
254	0xbcd6f204	-0.026238449
255	0x3d6cef36	0.057845317

conv2.bias f4 [32]
0	0x3cc72028	0.024307325
1	0x3d6d3002	0.057907112
2	0xbd6facdb	-0.058514457
3	0xbd9abe3a	-0.07555814
4	0x3d190f8d	0.037368346
5	0xb9cbe1aa	-0.0003888731
6	0xbce1c1e2	-0.02755827
7	0x3da7b308	0.081884444
8	0xbc62fb53	-0.013853866
9	0xb8e1b09b	-0.000107617314
10	0x3be8af61	0.007100985
11	0xbcf64eeb	-0.030066928
12	0x3d9632e8	0.07333928
13	0x3c7b4e85	0.015338545
14	0x3ce880a4	0.028381653
15	0x3ce5b612	0.02804092
16	0xbc8f6d8d	-0.017508293
17	0x3d67dd32	0.056607433
18	0x3d9a03f3	0.075202845
19	0x3d73ed62	0.059552558
20	0x3cce16ea	0.02515741
21	0x3cc2dd82	0.023787264
22	0xbcb943a4	-0.022615261
23	0xbd0e2628	-0.034704357
24	0x3bff592e	0.0077926135
25	0xbbdb4cff	-0.0066925283
26	0x3d20e6e3	0.03928269
27	0x3da824ed	0.08210168
28	0xbd9e5c16	-0.07732408
29	0x3d760f6e	0.06007331
30	0x3d774568	0.060368925
31	0x3c51cdbe	0.0128054

bn2.weight f4 [32]
0	0x3f86338c	1.0484481
1	0x3f81dab8	1.0144873
2	0x3f89835d	1.0743214
3	0x3f814ccc	1.0101562
4	0x3f7783fd	0.96685773
5	0x3f6a5c2c	0.91546893
6	0x3f8e1f3e	1.1103284
7	0x3f85837d	1.0430752
8	0x3f7ebddd	0.9950846
9	0x3f7f47dd	0.9971903
10	0x3f543d02	0.8290559
11	0x3f7cb98e	0.98720634
12	0x3f71ee02	0.94503796
13	0x3f7fadd7	0.99874634
14	0x3f807aab	1.0037435
15	0x3f73e1f9	0.9526668
16	0x3f743051	0.95386225
17	0x3f80645b	1.0030626
18	0x3f8533eb	1.0406469
19	0x3f82aa36	1.0208194
20	0x3f707e99	0.9394317
21	0x3f827ad7	1.0193738
22	0x3f7f1e45	0.9965556
23	0x3f8de197	1.108447
24	0x3f6e75b0	0.93148327
25	0x3f71db31	0.94475085
26	0x3f81ff3b	1.0156015
27	0x3f81fd7d	1.0155483
28	0x3f7b75f7	0.98226875
29	0x3f6a58a7	0.9154152
30	0x3f70ea6d	0.94107705
31	0x3f819692	1.0124075

bn2.bias f4 [32]
0	0x3be9e880	0.007138312
1	0xbdaa070c	-0.08302125
2	0xbd3fd7c5	-0.046836633
3	0xbdaedb8e	-0.085379705
4	0xbdeeaa61	-0.11653591
5	0xbd7484a7	-0.05969682
6	0xbd86a76d	-0.06574903
7	0xbdeb7b84	-0.11498168
8	0xbd5bdc2a	-0.05367676
9	0xbcfe5db7	-0.031050546
10	0xbdded1ee	-0.10879885
11	0xbdbaab34	-0.09114686
12	0x3d95d892	0.07316698
13	0xbd87628b	-0.066105925
14	0xbdc7a1fd	-0.09747694
15	0xbd9b32e5	-0.07578067
16	0xbe0057fb	-0.12533562
17	0xbd483fde	-0.048889033
18	0xbdc044e6	-0.09388141
19	0xbdbdeaef	-0.09273326
20	0xbdb62d48	-0.088953555
21	0xbd519d4c	-0.0511754
22	0xbde26c41	-0.11055804
23	0xbe327555	-0.17427571
24	0xbd933405	-0.07187656
25	0x3ce1b449	0.027551787
26	0xbd39be3c	-0.045347437
27	0xbde5433a	-0.11194463
28	0xbd069495	-0.032856543
29	0x3c56d769	0.013112881
30	0xbd99b5a7	-0.075053506
31	0xbd811484	-0.06302741

bn2.running_mean f4 [32]
0	0x3f11ce33	0.5695526
1	0xbf0036ee	-0.50083816
2	0xc00a5ed6	-2.1620383
3	0xbcfa6bda	-0.030569006
4	0xbe3031b2	-0.17206457
5	0xbd21d667	-0.03951111
6	0x3cac81ce	0.02105799
7	0xbe30a283	-0.17249493
8	0x3f110bbf	0.5665855
9	0xbee1823d	-0.44044676
10	0x3f8509a3	1.0393566
11	0xbf5d1827	-0.8636498
12	0x3dafcbc8	0.0858379
13	0x3f3fcc3d	0.7492102
14	0x3e9f4dfa	0.3111418
15	0xbf959963	-1.1687435
16	0xbe4d35ea	-0.20040098
17	0xbf671070	-0.90259457
18	0x3b918b1f	0.0044416334
19	0xbf9688f2	-1.1760542
20	0x3e92a6d3	0.28642902
21	0xbe394f60	-0.18096685
22	0x3e9b06b2	0.30278546
23	0x3d4aebd5	0.049541313
24	0x3eb509ad	0.35358945
25	0xbec86900	-0.3914261
26	0x3d12010f	0.03564554
27	0x3f092ac7	0.535809
28	0xbf5f0c57	-0.87128204
29	0xbe3c36d7	-0.18380295
30	0x3d58b24f	0.052904423
31	0xbf67ba72	-0.9051887

bn2.running_var f4 [32]
0	0x3f420e73	0.758033
1	0x3f68b59b	0.9090211
2	0x4096fbc7	4.7182345
3	0x3f0eb25a	0.5574089
4	0x3f178e63	0.5920164
5	0x3e99fd76	0.30076188
6	0x3f845de5	1.0341154
7	0x3ee7a07e	0.45239633
8	0x3f521a6e	0.8207158
9	0x3f260237	0.6484713
10	0x3f61db65	0.88225394
11	0x3fa000d6	1.2500255
12	0x3ebdd8c1	0.37079433
13	0x3f44b8a1	0.7684422
14	0x3f6afdef	0.9179372
15	0x3f961ddf	1.1727866
16	0x3f670556	0.90242517
17	0x3f9fb5c0	1.2477341
18	0x3f9c0b33	1.2190918
19	0x3fb2c912	1.3967612
20	0x3f514321	0.81743056
21	0x3eef46ee	0.46733803
22	0x3f16a054	0.5883839
23	0x3f5a122f	0.85183996
24	0x3ef639e6	0.48091048
25	0x3f57f906	0.84364355
26	0x3efe39db	0.49653515
27	0x3f2d1901	0.6761628
28	0x3f51cae8	0.81950235
29	0x3e826e83	0.2547494
30	0x3efb9d7e	0.49143595
31	0x40274184	2.6133738

conv3.weight f4 [64, 32, 3, 3]
0	0xbc9784e0	-0.018495977
1	0xbe1691c8	-0.14704049
2	0xbe0e91cb	-0.13922803
3	0xbdc94bc1	-0.09828902
4	0xbd1db63e	-0.038503878
5	0xbd47baa4	-0.04876198
6	0xbd067c12	-0.032833166
7	0x3d255514	0.04036434
8	0xbd00f2a3	-0.031481396
9	0x3d09268d	0.03348403
10	0xbcf709cc	-0.030156039
11	0xbe0a804f	-0.13525508
12	0x3c2d9536	0.010594657
13	0x3c854253	0.016266977
14	0x39abce4b	0.00032769362
15	0x3bf258a6	0.0073958216
16	0x3c94d103	0.01816607
17	0xbd56a202	-0.052400596
18	0x3cb2245d	0.021745855
19	0x38fa7a96	0.000119437624
20	0x3d981715	0.074262775
21	0x3cede57c	0.02904009
22	0xbc64e864	-0.013971422
23	0x3d27769a	0.04088459
24	0x3d3acf57	0.04560789
25	0x3df18d4f	0.117945306
26	0x3d9d97ba	0.07694955
27	0x3c1029e5	0.008799051
28	0x3dae8a5d	0.085224845
29	0x3d45e015	0.048309404
30	0xbd2a7dd0	-0.04162389
31	0xbcbb34cf	-0.02285233
32	0x3d15609c	0.036469087
33	0xbcc15495	-0.023599902
34	0xbbb16f98	-0.0054149143
35	0x3d3a9378	0.045550793
36	0x3d2ef3b2	0.042712875
37	0x3ba203e3	0.004944311
38	0x3cf93cd9	0.030424522
39	0x3d1269f5	0.03574558
40	0xbd5e6e02	-0.05430413
41	0xbd1440fa	-0.03619478
42	0xbcae2b7a	-0.021260966
43	0x3c43c445	0.01194865
44	0x3c90036b	0.017579755
45	0x3cd10966	0.025517177
46	0x3da20cb9	0.07912583
47	0x3dcb0a7f	0.09914111
48	0xbb3e73b2	-0.002906066
49	0xbcf2af23	-0.029624527
50	0x3b228c22	0.0024802764
51	0xbb896f19	-0.004194152
52	0xbc01573b	-0.0078943325
53	0x3bf4b77f	0.0074681635
54	0xbd10e3ca	-0.035373487
55	0xbd8342f1	-0.064092524
56	0xbd1f1c23	-0.038845193
57	0xbceb7b31	-0.028745266
58	0xbcf697ff	-0.030101774
59	0xbbfa98ca	-0.0076476084
60	0x3c1be1f1	0.009514318
61	0xbd8f35d0	-0.06992686
62	0xbc0a3a71	-0.008436785
63	0xbd55e2c8	-0.05221823
64	0x3bd6cc85	0.0065551423
65	0x3d7157cd	0.058921624
66	0x3de8864f	0.11353742
67	0x3b5816ac	0.0032972498
68	0xbd8d012d	-0.0688499
69	0x3d07f3f5	0.03319164
70	0xbd6222db	-0.055209022
71	0xbda59764	-0.08085516
72	0x3ceffd2d	0.029295528
73	0x3d37590b	0.044762652
74	0x3dae7d31	0.08519972
75	0xbbb7c633	-0.005608344
76	0x3baf9c8f	0.0053592394
77	0x3d0ed564	0.034871474
78	0x3d6707f7	0.05640408
79	0xbcfa5878	-0.030559763
80	0x3d6e19bf	0.058130022
81	0xbc3747f2	-0.011186587
82	0xbcc10ced	-0.023565734
83	0x3db7873c	0.08961341
84	0xbd2dd65c	-0.042440757
85	0xbd7e5b62	-0.06209887
86	0x3d011f5b	0.031524044
87	0xbc885681	-0.01664281
88	0x3be8fc11	0.007110127
89	0x3c5df82b	0.013547937
90	0x3c4de39c	0.012566473
91	0xbd5d447b	-0.054020386
92	0x3c51ea01	0.012812139
93	0x3d6cd015	0.05781563
94	0xbd953b6c	-0.072867244
95	0xbc2e5145	-0.010639493
96	0x3d0776e5	0.03307237
97	0xbc489d9e	-0.01224461
98	0xbd419900	-0.047265053
99	0x3da66090	0.081238866
100	0xbc2e2ca1	-0.010630758
101	0x3db776bf	0.08958196
102	0x3b0ebafe	0.0021778936
103	0xbbefa99a	-0.0073139193
104	0x3b769a40	0.0037628561
105	0xbccffdf4	-0.025389649
106	0x3c0a0e51	0.008426265
107	0xbcc294bc	-0.023752563
108	0xbba4bc48	-0.0050273277
109	0x3d4a910e	0.04945474
110	0x3dff6dde	0.124721274
111	0xbca7645c	-0.020433597
112	0xbca3a857	-0.019977732
113	0xbb9d7ab9	-0.0048058894
114	0xbcfa4311	-0.030549558
115	0xbba225e0	-0.0049483627
116	0x3cbd1141	0.023079516
117	0xbb320991	-0.0027166347
118	0xbc3cfc71	-0.011534796
119	0x3ca6b2fc	0.020349018
120	0x3a3b407a	0.00071430916
121	0xbc54c5f1	-0.012986646
122	0xbd83a02e	-0.06427036
123	0x3c40444d	0.011735034
124	0xbcfc2ff0	-0.030784577
125	0x3bba2200	0.0056803226
126	0x3ca2852b	0.01983889
127	0x3da04ce6	0.07827167
128	0x3e2608d8	0.16214311
129	0xbc72305c	-0.014782038
130	0xbca584a8	-0.020204857
131	0x3dfd0348	0.123541415
132	0xbc9fe652	-0.019519005
133	0x3cc7a4b9	0.024370538
134	0x3d1ea105	0.03872778
135	0x3d0ddacb	0.034632485
136	0xbc9c6b79	-0.019094216
137	0xbd215af1	-0.03939337
138	0x3d0f0d59	0.03492484
139	0xbbf0ad76	-0.007344897
140	0x3c909a6a	0.017651755
141	0x3926d197	0.00015909072
142	0xbbf9b874	-0.0076208655
143	0x3c314730	0.010820195
144	0x3d7bca01	0.061471943
145	0xbcf139b6	-0.029446464
146	0xbc76ca49	-0.015062877
147	0x3d05336c	0.032519743
148	0x3c11af16	0.008891841
149	0x3ca31b58	0.0199105
150	0xbd1e4c2a	-0.038646854
151	0xbd374045	-0.044739027
152	0x3ca5791e	0.020199355
153	0xbc554b64	-0.013018463
154	0xbd99ffc6	-0.07519488
155	0xbc822cd5	-0.015890518
156	0xbd970a99	-0.07375068
157	0x3ca3a1a3	0.019974535
158	0x3c415169	0.011799195
159	0xbcdac3d5	-0.026704708
160	0xbc73a71a	-0.014871383
161	0xbc2ac9ba	-0.010424072
162	0x3dc5c727	0.09657126
163	0x3df98d35	0.12185136
164	0x3e01ff45	0.12695034
165	0x3d321769	0.043479357
166	0x3c80c2c0	0.015717864
167	0xbc12cc65	-0.008959864
168	0xbd5b5f62	-0.05355776
169	0xbc93e2a7	-0.018052412
170	0x3baf2aab	0.0053456626
171	0xb964ecd9	-0.00021832007
172	0xbdcb73ab	-0.09934171
173	0xbcda81cc	-0.02667322
174	0xbb968709	-0.004593734
175	0xbd12e269	-0.035860453
176	0xbc83238e	-0.016008165
177	0x3dc778a1	0.09739805
178	0x3df650fa	0.12027164
179	0x3d02e185	0.031953353
180	0xbc469492	-0.012120383
181	0xbbff4542	-0.0077902386
182	0x3da89b23	0.08232715
183	0xbcb9ca69	-0.022679524
184	0x3d171e47	0.03689411
185	0x3b175ae8	0.0023094956
186	0x3b96dfaf	0.004604302
187	0x3d04a73a	0.032386042
188	0x3c270847	0.010194845
189	0x3b5f0173	0.0034027963
190	0x3d8883a8	0.066657364
191	0xbcf9781f	-0.030452786
192	0xbd207d62	-0.039182074
193	0xbc456aba	-0.012049371
194	0x3db16d58	0.08663434
195	0xbdb7f052	-0.08981384
196	0xbd8fa3b4	-0.07013646
197	0xbd052ad8	-0.032511562
198	0xbd2e6525	-0.042576928
199	0xbd23becf	-0.03997689
200	0x3dd4cce7	0.103906445
201	0xbd20d11d	-0.039261926
202	0xbcc7283b	-0.024311176
203	0x3cd21322	0.025643889
204	0xbb14ef76	-0.0022725738
205	0xbc7c34e6	-0.015393471
206	0x3d9c04b5	0.07618085
207	0x3dfb0ba0	0.12258077
208	0x3d73eeae	0.059553795
209	0xbbd54c63	-0.00650935
210	0x3d894e98	0.06704444
211	0x3d93435b	0.071905814
212	0x3de7f135	0.113253035
213	0x3d321ba6	0.0434834
214	0x3d18c2dd	0.03729521
215	0x3d902a90	0.07039368
216	0x3cb30c9b	0.021856597
217	0xbd4e1897	-0.05031642
218	0x3cb875a3	0.022517031
219	0xbd727da6	-0.05920186
220	0x3c250e02	0.0100741405
221	0x3c57a472	0.013161765
222	0xbcabaedb	-0.020957401
223	0xbbf02bed	-0.007329455
224	0x3c214dad	0.0098451795
225	0xbd15d6db	-0.036581855
226	0x3cafd231	0.021462532
227	0xbc9a5df6	-0.018843632
228	0xbc74ec4b	-0.014948915
229	0x3d3a560c	0.045492217
230	0xbd7ec405	-0.062198658
231	0x3d1898f9	0.03725526
232	0x3c92bbaf	0.01791176
233	0xbcca3fd8	-0.024688646
234	0x3dab0315	0.08350197
235	0x3d5a13b9	0.053241465
236	0x3dde97ce	0.10868798
237	0x3d340c18	0.043956846
238	0x3ccadeac	0.024764381
239	0x3d85bda0	0.06530309
240	0xbce8a14d	-0.028397227
241	0xbd6b4d03	-0.05744649
242	0xbd344de5	-0.0440196
243	0xbb280822	-0.0025639613
244	0x3bb0f3e8	0.0054001696
245	0x3d320ec2	0.043471105
246	0x3d30be99	0.043150518
247	0xbd1af023	-0.03782667
248	0xbbd3a3b7	-0.0064587253
249	0x3d468e38	0.048475474
250	0x3c7c2d2a	0.015391627
251	0xbd1375a0	-0.036000848
252	0x3c752ef2	0.014964806
253	0xbc65ae0d	-0.014018548
254	0xbd93ee53	-0.07223191
255	0x3cb56fcd	0.022148037

conv3.bias f4 [64]
0	0xbd34a710	-0.044104636
1	0x3d4ae5ee	0.049535684
2	0xbbe43a88	-0.0069649853
3	0x3b4c8f87	0.0031213479
4	0x3d6d4841	0.057930235
5	0x3b2d4905	0.0026441228
6	0xbc6d1172	-0.014469491
7	0x3c54981d	0.01297572
8	0xbcd81bcf	-0.026380448
9	0x3d75bb22	0.059992917
10	0x3aba9848	0.0014236057
11	0xbd1f1705	-0.038840313
12	0xbbf649b3	-0.00751611
13	0x3d1ac183	0.037782203
14	0xbb5d143f	-0.0033733991
15	0x3d6b1a1c	0.057397947
16	0xbc7d28aa	-0.01545159
17	0x3bee69c9	0.007275794
18	0x3d051520	0.03249085
19	0xbbb8ffaf	-0.0056457142
20	0x3d04b97a	0.032403447
21	0xbc690a9a	-0.014223719
22	0xbd1150cf	-0.035477456
23	0x3d6ac412	0.057315893
24	0xbca871f0	-0.020562142
25	0xbca954ec	-0.020670377
26	0x3cf8d928	0.030376986
27	0xbbe00021	-0.006835953
28	0x3d696a6e	0.056986265
29	0xbc8c8a42	-0.01715577
30	0x3cb9a54c	0.022661828
31	0x3cfe5c73	0.031049943
32	0x3c8022c4	0.015641578
33	0xbc09677c	-0.008386489
34	0x3c75eeb8	0.015010528
35	0x3c378a1b	0.0112023605
36	0xbd3180d6	-0.04333576
37	0x3d214d06	0.039380096
38	0x3c808885	0.015690098
39	0x3d07de65	0.033171076
40	0xbcfe5327	-0.03104551
41	0x3cdd771c	0.027034335
42	0xbb530ac3	-0.003220246
43	0xbca51df1	-0.020155879
44	0x3d3038a5	0.04302277
45	0x3cc1b00e	0.02364352
46	0xbcb5008b	-0.022094985
47	0xbc623c69	-0.013808348
48	0xbd14f7a0	-0.036368966
49	0xbd233b46	-0.03985145
50	0x3c9c0f8d	0.019050384
51	0xbd5efc35	-0.054439742
52	0xbbe52b02	-0.0069936523
53	0xbd0529cd	-0.032510567
54	0xbd5e66ea	-0.054297365
55	0x3cc6019e	0.024170693
56	0xbd2798a1	-0.040917043
57	0xbcc8fcdc	-0.024534635
58	0xbd374047	-0.044739034
59	0x3d1e6924	0.03867449
60	0x3c90f8f7	0.01769684
61	0x3aa22a73	0.001237227
62	0x3d0db6ad	0.03459804
63	0xbd16758f	-0.036733206

bn3.weight f4 [64]
0	0x3f8d9231	1.1060239
1	0x3f8f3fa8	1.1191301
2	0x3f822d47	1.0170068
3	0x3f7dcdb8	0.99142027
4	0x3f8ba68e	1.0910203
5	0x3f8b97bc	1.0905681
6	0x3f7d8cc1	0.990429
7	0x3f7c9e54	0.9867909
8	0x3f8c1f84	1.0947118
9	0x3f911f16	1.1337612
10	0x3f803e15	1.0018946
11	0x3f8ae103	1.0849918
12	0x3f8d7273	1.1050552
13	0x3f78c7d3	0.9717991
14	0x3f7b7358	0.98222876
15	0x3f7c03d0	0.9844332
16	0x3f889470	1.06703
17	0x3f7a237b	0.9771039
18	0x3f90798b	1.1287092
19	0x3f9217b9	1.141349
20	0x3f8e9974	1.114058
21	0x3f78b61e	0.9715289
22	0x3f7ff36b	0.999808
23	0x3f891254	1.0708718
24	0x3f769a3d	0.963291
25	0x3f8d40e2	1.1035426
26	0x3f8b1de8	1.0868502
27	0x3f8e82c5	1.1133658
28	0x3f8dd8e2	1.1081812
29	0x3f801b64	1.0008359
30	0x3f90b1b7	1.1304234
31	0x3f8633da	1.0484574
32	0x3f8b38ed	1.0876747
33	0x3f8a91ce	1.0825746
34	0x3f800046	1.0000083
35	0x3f7e0976	0.99233186
36	0x3f8092cd	1.00448
37	0x3f7c1ad8	0.9847846
38	0x3f87c67f	1.0607451
39	0x3f8078c8	1.003686
40	0x3f902a91	1.126299
41	0x3f805933	1.0027221
42	0x3f7a01bc	0.97658896
43	0x3f7bf6ab	0.9842326
44	0x3f928cab	1.1449178
45	0x3f8220c0	1.0166245
46	0x3f7e602c	0.99365497
47	0x3f8f37da	1.118892
48	0x3f756ba6	0.95867383
49	0x3f8c6db8	1.0970984
50	0x3f811ff4	1.0087876
51	0x3f78130b	0.9690406
52	0x3f7c7c47	0.9862713
53	0x3f8cecda	1.1009781
54	0x3f9209e4	1.1409268
55	0x3f8dbbb5	1.1072909
56	0x3f7077b3	0.93932647
57	0x3f779b5a	0.9672142
58	0x3f7f2144	0.99660134
59	0x3f908be0	1.1292686
60	0x3f7babd6	0.98309076
61	0x3f7e50d2	0.9934207
62	0x3f740447	0.95319027
63	0x3f7e8a76	0.99430025

bn3.bias f4 [64]
0	0xbd24ab2b	-0.0402023
1	0xbd309226	-0.043108128
2	0x3c4c1ad2	0.012457566
3	0x3ac6a18c	0.0015154346
4	0xbd4b358b	-0.04961161
5	0xbd613780	-0.05498457
6	0xbb6b8520	-0.0035937503
7	0xba2ea022	-0.0006661435
8	0xbd006441	-0.03134561
9	0xbd2f11b5	-0.042741496
10	0x3c413854	0.011793215
11	0xbc9a13ba	-0.018808234
12	0xbd8f9e02	-0.070125595
13	0xbce9e356	-0.028550785
14	0xbaed682d	-0.0018112712
15	0xbc73b2ae	-0.0148741435
16	0xbce0c313	-0.027436769
17	0xbcceb0bd	-0.02523076
18	0xbd81c0fa	-0.063356355
19	0xbd48070a	-0.048834838
20	0xbd2d6ec8	-0.042341977
21	0xbbf49bb1	-0.007464849
22	0xbd695615	-0.05696686
23	0xbd493ab8	-0.049128264
24	0xbd32bbe6	-0.043636225
25	0xbd2bafb1	-0.0419156
26	0xbd8b5059	-0.068024345
27	0xbd1ed4fb	-0.038777333
28	0xbd2e0168	-0.04248181
29	0x3c8201bb	0.015869966
30	0xbd63b019	-0.05558786
31	0xbceac98c	-0.028660558
32	0xbd6f48d7	-0.058419075
33	0xbc759d67	-0.014991141
34	0x3af47537	0.0018650655
35	0xbc60ab31	-0.01371269
36	0x3c4f26f7	0.012643567
37	0xbd3741c1	-0.044740442
38	0xbd6a26ae	-0.057165794
39	0x3c5f010a	0.013611088
40	0xbd59e447	-0.053196218
41	0x3abf1fd4	0.0014581629
42	0xbc72073b	-0.014772232
43	0xbb47c79a	-0.0030483962
44	0xbd5d5dd9	-0.05404458
45	0x3be86bd9	0.0070929346
46	0xbb0264f4	-0.0019896599
47	0xbd7e622d	-0.062105346
48	0xbd256cf7	-0.04038712
49	0xbd140016	-0.036132894
50	0x3c8809e6	0.016606282
51	0xbd8aadc1	-0.06771422
52	0x3ad49bea	0.0016220782
53	0xbd271a0a	-0.040796317
54	0xbcf210e6	-0.029549073
55	0xbd08d3e5	-0.033405203
56	0xbd8f6fba	-0.07003732
57	0xbc80e4fd	-0.01573419
58	0x3b82ea3a	0.003995207
59	0xbd2c3aee	-0.042048387
60	0xbc6baaeb	-0.014384012
61	0xbbf591a1	-0.007494167
62	0xbce66a99	-0.028127002
63	0xbad1e663	-0.0016014095

bn3.running_mean f4 [64]
0	0x3f0eded4	0.5580876
1	0x3f7384d3	0.9512455
2	0xbebb0537	-0.36527416
3	0xbf98b7d3	-1.1931099
4	0x3f66dd0f	0.9018106
5	0x3f39c393	0.7256405
6	0xbf9be481	-1.2179109
7	0xbf736416	-0.95074594
8	0x3f16f683	0.589699
9	0x3f2d39ac	0.67666125
10	0xbff76047	-1.9326257
11	0x3efd385a	0.49457055
12	0x3f1fe35a	0.62456286
13	0x3feb9c74	1.8407121
14	0x3dfb8bae	0.12282501
15	0xbfdd28b0	-1.7278042
16	0x3f495cef	0.7865743
17	0xbd84412b	-0.06457742
18	0x3f3ca026	0.7368187
19	0x3f0de69b	0.5543
20	0x3f531e6a	0.82468283
21	0xc017db41	-2.3727572
22	0x3f00be1e	0.50290096
23	0x3f52ff3e	0.8242072
24	0xbf9eb3f8	-1.2398672
25	0x3f0bfcfa	0.54682887
26	0x3f30080c	0.6876228
27	0x3ec880ad	0.39160672
28	0x3f484c8f	0.7824182
29	0xbfc7b17a	-1.5601037
30	0x3f4ca95e	0.79945934
31	0x3f79330f	0.97343534
32	0x3f28db93	0.65960044
33	0x3f531ce5	0.82465965
34	0xbfb64cae	-1.4242151
35	0x3f33763f	0.70102304
36	0xbfcf9102	-1.6216128
37	0xbf872ed7	-1.0561169
38	0x3f3ae352	0.73003113
39	0xbf99f551	-1.202799
40	0x3f1dfd14	0.6171429
41	0xbfc5240d	-1.5401627
42	0x3df7676b	0.12080272
43	0xbf84424d	-1.0332733
44	0x3f558c1a	0.83416903
45	0x3ea27aae	0.31734222
46	0xbeb82a21	-0.35969642
47	0x3f2fd9e1	0.6869183
48	0x3eeadabb	0.45870003
49	0x3f270586	0.65242803
50	0xbf99b2a8	-1.2007647
51	0x3ee87cd7	0.45407745
52	0xbd4d98b4	-0.050194457
53	0x3f3ed7df	0.74548143
54	0x3f14a5f4	0.58065724
55	0x3f52d738	0.8235965
56	0x3f2e40cf	0.6806764
57	0xbfff44ac	-1.9942832
58	0x3df531bf	0.11972379
59	0x3f4b78ae	0.7948102
60	0x3fa0c916	1.2561367
61	0xbfa323a7	-1.2745255
62	0xbf70df4b	-0.9409072
63	0x3ebf046e	0.37308067

bn3.running_var f4 [64]
0	0x3fc480ad	1.5351769
1	0x3fcd4c05	1.6038824
2	0x3fcae7f1	1.5852033
3	0x3fc41f59	1.5322067
4	0x3fcf422f	1.6192073
5	0x3fc4c29b	1.5371889
6	0x40029869	2.0405524
7	0x3f8c24b1	1.0948697
8	0x3fa6570a	1.2995312
9	0x3fc9308e	1.5717943
10	0x3f64e162	0.89406407
11	0x3faf6150	1.3701572
12	0x3fa5bd61	1.2948419
13	0x4037e1a1	2.8731463
14	0x3fe6b5a6	1.8024185
15	0x4023513a	2.5518327
16	0x3fcef89e	1.6169622
17	0x3ff890a9	1.9419147
18	0x3fed4618	1.8537016
19	0x3fa92411	1.3214132
20	0x3fa6a4f8	1.3019094
21	0x40102e39	2.2528212
22	0x3f8bc143	1.0918354
23	0x3fcfa227	1.622136
24	0x400d14a3	2.2043846
25	0x3fa7894d	1.3088776
26	0x3fab1daf	1.3368434
27	0x3fa32ae9	1.274747
28	0x3fbdac93	1.481829
29	0x40224964	2.5357294
30	0x3fcd719d	1.6050297
31	0x3fe163bc	1.7608562
32	0x3fc2d6d9	1.5221816
33	0x3fc75da9	1.5575458
34	0x403cf4ed	2.952449
35	0x3fcbd480	1.5924225
36	0x4020ca35	2.5123417
37	0x400ddd1c	2.2166204
38	0x3fb4708a	1.4096844
39	0x401ff76f	2.4994771
40	0x3fbbcf09	1.4672557
41	0x4041b0c4	3.026414
42	0x4002d2df	2.0441206
43	0x3f60bc2f	0.87787145
44	0x3fccd41f	1.6002234
45	0x3ffea1a1	1.9893075
46	0x3fcaecfe	1.5853574
47	0x3fc39fce	1.5283144
48	0x3f8d594e	1.1042879
49	0x3fa2556b	1.2682317
50	0x401c07ad	2.4379685
51	0x3fb23ae6	1.3924224
52	0x3fe1eff8	1.7651358
53	0x3fd848e8	1.6897249
54	0x3fd83886	1.689225
55	0x3fb7728f	1.4331836
56	0x3f5234bd	0.8211172
57	0x401ef4e1	2.4836962
58	0x3fe42ee3	1.7826809
59	0x3fe898c4	1.817162
60	0x3fce8dcc	1.6137023
61	0x40380b8a	2.8757043
62	0x400e8d2b	2.2273662
63	0x3f9f58a1	1.2448922

fc1.weight f4 [128, 64]
0	0xbd46014d	-0.048341084
1	0x3d7da2c5	0.061922807
2	0xbd8c9065	-0.068634786
3	0x3cfab33f	0.03060305
4	0x3c373eeb	0.011184434
5	0x3d5187b0	0.051154792
6	0xbd4b6d58	-0.049664825
7	0x3d0c0628	0.03418556
8	0x3d63f558	0.0556539
9	0x3dda7408	0.106666625
10	0xbda314c0	-0.07962942
11	0xbcfd042f	-0.030885784
12	0x3df62a4f	0.120197885
13	0xbb4c69b1	-0.0031190927
14	0x3dadbbad	0.08483062
15	0xbd4f020b	-0.050539058
16	0xbd2fa59c	-0.042882547
17	0x3d68c47b	0.056828003
18	0xbd275d97	-0.04086074
19	0xbd0c9a28	-0.034326702
20	0xbd09e75a	-0.0336679
21	0xbe016e9c	-0.1263985
22	0x3bfed254	0.007776538
23	0x3e28219d	0.16419072
24	0x3d9f35c9	0.077739306
25	0x3e2b90c5	0.16754444
26	0x3e199f74	0.15002233
27	0x3d0ecc93	0.034863066
28	0x3e3b3223	0.18280844
29	0xbd94b819	-0.07261676
30	0x3df9fc3c	0.12206313
31	0x3dda392d	0.10655437
32	0x3d17f73d	0.03710102
33	0x3d66d2ee	0.056353502
34	0xbd95467f	-0.07288837
35	0xbdf5b9cb	-0.11998328
36	0xbe0860ab	-0.13318126
37	0x3e04980f	0.12948631
38	0x3e33df9e	0.17565772
39	0x3d4e1ab0	0.05031842
40	0x3dc101ff	0.09424209
41	0x3c28cbb5	0.010302474
42	0x3c678d5a	0.014132822
43	0x3c857e77	0.016295655
44	0x3e2a8bff	0.16654967
45	0xbd69dcd8	-0.05709538
46	0x3d6cc682	0.0578065
47	0x3e1686c1	0.14699842
48	0xbd9141ef	-0.07092654
49	0x3e4286da	0.18996754
50	0xbdb53ae7	-0.08849125
51	0x3df15b94	0.11785045
52	0xbd8b0b35	-0.06789247
53	0x3c3ddab3	0.0115877865
54	0x3e2bb495	0.16768105
55	0x3d620219	0.05517778
56	0x3cceb97a	0.025234926
57	0xbd783103	-0.060593616
58	0xbdaf5a6f	-0.08562171
59	0x3be3971b	0.0069455034
60	0x3d269a3b	0.04067443
61	0xbd0c2b0b	-0.034220736
62	0xbc9c54dc	-0.019083433
63	0x3de0fda0	0.10985875
64	0xbd901009	-0.070343085
65	0x3e27fbdf	0.16404675
66	0xbc965b95	-0.018354217
67	0xbd8f4784	-0.069960624
68	0x3df3f4d8	0.119119346
69	0x3df32a1f	0.11873268
70	0x3d951940	0.07280207
71	0x3db1b060	0.08676219
72	0x3e1edbac	0.15513486
73	0x3d008e8d	0.031385947
74	0xbd8a84ee	-0.067636356
75	0x3e0f8db4	0.14018899
76	0x3dc5d51a	0.096597865
77	0xbd7eb153	-0.06218083
78	0x3dce8df2	0.10085668
79	0xbc0b4ca7	-0.008502162
80	0x3df667d8	0.120315254
81	0x3d1c8b02	0.038218506
82	0x3df7fc95	0.12108723
83	0x3dda2094	0.10650745
84	0x3d973706	0.07383542
85	0xbd1482fc	-0.03625773
86	0x3b6481c7	0.0034867392
87	0x3e227d47	0.15868102
88	0xbd8b7eff	-0.06811332
89	0x3de99a62	0.11406399
90	0x3bc573e1	0.0060257767
91	0x3ceda784	0.029010542
92	0xbd2082c7	-0.03918722
93	0xbe1a9443	-0.1509562
94	0x3e1ae4d8	0.1512636
95	0xbdab757d	-0.083720185
96	0xbdb68853	-0.089127205
97	0xbd2d43fb	-0.04230116
98	0x3db46ef9	0.08810229
99	0x3c506048	0.012718268
100	0xbde6dc9f	-0.11272549
101	0xbd91ef6d	-0.07125745
102	0x3dabfb27	0.08397513
103	0xbdde3731	-0.10850371
104	0x3d871823	0.065964006
105	0x3d4fb665	0.050711054
106	0xbdcd3813	-0.10020461
107	0xbb00e6a8	-0.0019668732
108	0x3da90b78	0.082541406
109	0xbbeee79d	-0.007290794
110	0xbcef8a55	-0.029240767
111	0xbcc941a5	-0.024567435
112	0xbdd6dcb4	-0.104913145
113	0xbbd66565	-0.006542849
114	0x3c0f4759	0.008745038
115	0x3dceb994	0.1009399
116	0x3da34421	0.07971979
117	0x3dc6fd64	0.09716299
118	0x3d91f248	0.071262896
119	0x3dad6930	0.084673285
120	0xbdd7dd1b	-0.105402194
121	0xbd9d6bed	-0.07686601
122	0xbd05a11d	-0.032624353
123	0xbd92200e	-0.0713502
124	0x3d18ec37	0.037334647
125	0x3daad0c6	0.083406016
126	0x3ccf76d9	0.025325226
127	0xbd8408fb	-0.064470254
128	0xbe139e90	-0.14415956
129	0xbe2f09ff	-0.17093657
130	0x3d0ef520	0.03490174
131	0x3dc0895d	0.094012
132	0xbdab9f31	-0.08379973
133	0xbe42f1a8	-0.19037497
134	0x3e0fdebc	0.1404981
135	0xbd6354e8	-0.055500895
136	0xbdd53998	-0.10411376
137	0xbe0e66c4	-0.1390639
138	0x3e132bb9	0.14372148
139	0xbbd354c1	-0.0064493124
140	0xbd9d445e	-0.07679056
141	0xbd762382	-0.060092457
142	0xbd38d714	-0.04512699
143	0x3da7505b	0.081696235
144	0xbe03e861	-0.12881614
145	0xbbea64ea	-0.007153143
146	0xbe540196	-0.2070373
147	0xbd069983	-0.032861244
148	0xbe4986c1	-0.19680311
149	0x39e4ada5	0.00043616924
150	0xbddc6173	-0.107607745
151	0x3c8b431c	0.016999774
152	0x3e0e619b	0.13904421
153	0xbca8f4fb	-0.020624628
154	0xbdb46fbc	-0.08810374
155	0xbe400e89	-0.18755545
156	0xbd6426a2	-0.055700906
157	0x3de8c6a4	0.11366013
158	0xbdea4014	-0.11438003
159	0xbe177e77	-0.14794336
160	0xbe0dbcdc	-0.13841575
161	0xbd21e2ac	-0.03952281
162	0x3e36193e	0.17783067
163	0xbd21f9f6	-0.039545022
164	0x3dcd07c7	0.10011249
165	0xbdc21a76	-0.09477703
166	0xbd21d691	-0.039511267
167	0x3d03e8e4	0.032204524
168	0xbe52d069	-0.20587315
169	0x3d8bf87a	0.068345025
170	0xbdb0aefe	-0.08627127
171	0x3dccecc5	0.10006098
172	0xbc3f9e80	-0.011695504
173	0x3df70d86	0.12063126
174	0x3ddbf85b	0.107407294
175	0xbdb4a09e	-0.08819698
176	0x3cce49a7	0.025181605
177	0xbe2cb8d7	-0.16867386
178	0x3de9bc24	0.11412838
179	0xbdb53f05	-0.08849911
180	0x3d9a8b68	0.07546121
181	0x3ae5513c	0.0017495523
182	0xbe0877b1	-0.13326909
183	0xbda960a3	-0.08270385
184	0xbd23ddbb	-0.04000638
185	0x3dbf7918	0.09349269
186	0x3d5b58fa	0.05355165
187	0xbd63bd4e	-0.055600457
188	0x3ab7d592	0.0014025441
189	0xbd2c4813	-0.042060923
190	0x3de90de4	0.113796026
191	0x3dfe39e4	0.124133855
192	0xbd15319b	-0.03642426
193	0xbe54369a	-0.20723954
194	0x3dd1902f	0.10232579
195	0xbbfb4525	-0.007668155
196	0xbd1f68a5	-0.038918156
197	0xbe2d02db	-0.1689562
198	0x3dac9920	0.08427644
199	0x3d7f205e	0.062286727
200	0xbd31ee21	-0.043439988
201	0xbe6b8ff3	-0.23004131
202	0x3d02b7c2	0.031913526
203	0xbcd295ec	-0.025706254
204	0xbde18280	-0.11011219
205	0xbd7fa64f	-0.062414464
206	0xbd6e5f2c	-0.05819623
207	0x3d762ff4	0.060104325
208	0xbd110276	-0.035402738
209	0xbd92908c	-0.071564764
210	0xbe619fce	-0.22033617
211	0xbe182158	-0.1485647
212	0xbdda2bb2	-0.106528655
213	0xbccf429d	-0.025300318
214	0x3dc840f4	0.09778014
215	0xbe26a688	-0.16274464
216	0x3e119109	0.14215483
217	0xbe58fd9d	-0.21190496
218	0xbe5880cf	-0.21142887
219	0xbe221320	-0.15827608
220	0xbe4d3065	-0.20037992
221	0x3e008af6	0.1255301
222	0xbe3e3bbb	-0.18577473
223	0xbd92f80b	-0.07176217
224	0xbdc3cb16	-0.0956022
225	0xbe21d28e	-0.15802976
226	0x3dbb16da	0.09135218
227	0xbd60bc24	-0.054866925
228	0x3e158029	0.1459967
229	0xbdcd3e7f	-0.10021686
230	0xbbbe934d	-0.0058158995
231	0x3d86c292	0.0658008
232	0xbd5c167e	-0.053732388
233	0x3dee8f51	0.11648429
234	0xbd560f72	-0.052260824
235	0x3d854ac6	0.065084025
236	0xbe747853	-0.23874025
237	0x3da7ef66	0.081999585
238	0x3c275698	0.010213517
239	0xbe16231e	-0.14661834
240	0x3dbbb5ce	0.09165536
241	0xbbef21b9	-0.007297721
242	0x3e227e8b	0.15868585
243	0x3de4934d	0.11160908
244	0xbd093816	-0.033500753
245	0x3b90edad	0.0044228644
246	0xbe43f8c9	-0.19137873
247	0xbdbe1578	-0.092814386
248	0x3deced5a	0.11568709
249	0xbd8086ba	-0.06275697
250	0x3b527058	0.003211042
251	0xbe368590	-0.17824388
252	0x3b3f0c65	0.0029151675
253	0x3d46aaea	0.04850284
254	0x3d8f3997	0.06993406
255	0xbda3628f	-0.07977783

fc1.bias f4 [128]
0	0x3cdab1ed	0.02669617
1	0x3d9bf95e	0.076159224
2	0x3d047cfe	0.032345764
3	0xbd439cbd	-0.0477569
4	0xbc54f654	-0.012998182
5	0xbbaf189f	-0.0053435112
6	0xbd6fc461	-0.05853689
7	0xbc66ec33	-0.0140944
8	0xbdceb71e	-0.100935206
9	0xbde26d2e	-0.110559806
10	0xbd014cbe	-0.031567328
11	0x3e1cfad2	0.15330055
12	0x3dd39da3	0.10332801
13	0xbddfb766	-0.10923652
14	0xbba6c447	-0.005089316
15	0x3cc95f33	0.024581527
16	0x3da6ee07	0.08150869
17	0x3dd85f5a	0.10565062
18	0x3d7e189b	0.062035184
19	0xbd4049a6	-0.046945237
20	0xbe004280	-0.12525368
21	0x3d10a1ab	0.03531043
22	0xbdc12dcb	-0.094325624
23	0xbd6f0854	-0.05835755
24	0x3dd78120	0.105226755
25	0x3dd87636	0.10569422
26	0x3a7032b1	0.0009162827
27	0x3db83f7a	0.08996482
28	0x3dd5257f	0.104075424
29	0x3c71bdb3	0.0147547005
30	0xbdfb71b8	-0.122775495
31	0x3d9337fd	0.07188413
32	0x3daedcf6	0.08538239
33	0xbd5289d0	-0.05140096
34	0x3d4ce740	0.050025225
35	0xbd065916	-0.032799803
36	0x3d70223a	0.05862639
37	0xbdd7d6d1	-0.1053902
38	0x3d2c28f0	0.04203123
39	0xbd85c574	-0.06531802
40	0x3d65d102	0.05610753
41	0xbcd51898	-0.026012704
42	0xbdaa217b	-0.08307167
43	0xbdf27ea4	-0.11840561
44	0xbdf380f1	-0.11889828
45	0xbcf5d707	-0.03000976
46	0x3cae8d19	0.021307515
47	0xbd7d8810	-0.061897337
48	0x3ccceddd	0.025015766
49	0xbdf8f89b	-0.12156793
50	0x3c42b12e	0.011883063
51	0xbd2a3600	-0.041555405
52	0xbde1d304	-0.11026576
53	0xbd889be1	-0.066703565
54	0xbd08aaab	-0.033365887
55	0xbd99230d	-0.074773885
56	0xbdce8ae1	-0.10085083
57	0x3da5bd8b	0.08092793
58	0x3d1a8731	0.037726585
59	0xbd9f68af	-0.07783639
60	0x3a1e4f07	0.00060389977
61	0x3dc74798	0.09730452
62	0x3d19e69a	0.037573434
63	0xbdd7a586	-0.10529618
64	0x3cc24305	0.023713598
65	0x3e00da2c	0.12583226
66	0xbd2674b6	-0.040638648
67	0xbd61d6c1	-0.055136446
68	0xbdc3db11	-0.09563268
69	0xbd9e301b	-0.07724019
70	0x3e160b7c	0.14652818
71	0xbdf8d262	-0.12149502
72	0x3e0d67db	0.13809149
73	0xbd80bc50	-0.06285918
74	0x3da99c0d	0.082817174
75	0x3e09c8b2	0.13455465
76	0x3dd3bf60	0.10339236
77	0x3c1f9ab9	0.009741479
78	0x3db2dea9	0.08733875
79	0x3d826c2c	0.063682884
80	0xbdc97174	-0.098360926
81	0xbe1a8c90	-0.15092683
82	0xbe120ad4	-0.14261943
83	0x3d9af012	0.07565321
84	0xbd1158d8	-0.03548512
85	0xbd8d9d2b	-0.06914743
86	0xbd857bd5	-0.0651776
87	0xbd438c6e	-0.047741346
88	0x3dce6533	0.10077896
89	0x3d275112	0.0408488
90	0xbd87cd3a	-0.06630941
91	0x3d4d8a79	0.050180886
92	0x3d7c9734	0.061667636
93	0x3dcf1ff2	0.10113515
94	0xbd758df6	-0.059949838
95	0x3c97a7a3	0.018512553
96	0xbc9bdf61	-0.019027414
97	0x3cded570	0.027201384
98	0x3c04a099	0.00809493
99	0x3dd0c256	0.10193317
100	0xbc8d44d2	-0.01724473
101	0x3cfdecae	0.030996647
102	0x3ca96817	0.020679517
103	0x3c6948e3	0.014238569
104	0xbdcd60d9	-0.10028238
105	0x3d62a9ac	0.055337593
106	0xbded66f9	-0.11591906
107	0xbdb05f9b	-0.08611985
108	0xbd730b26	-0.059336804
109	0x3d2de1d4	0.042451695
110	0x3c8a5eed	0.016890967
111	0xbd9f49df	-0.07777762
112	0x3d316970	0.043313444
113	0x3d908f6e	0.07058607
114	0x3d504567	0.050847437
115	0xbd1691db	-0.036760192
116	0x3da90005	0.08251957
117	0x3dec86cd	0.11549149
118	0x3d5f180d	0.054466296
119	0x3d3a06f2	0.04541678
120	0x3bd8a082	0.006610931
121	0x3bedd2c6	0.007257792
122	0xbd5f52c0	-0.054522276
123	0x3e0e7f81	0.13915826
124	0xbd942f23	-0.07235553
125	0x3dcb2f7b	0.099211656
126	0x3d8a8364	0.06763342
127	0xbdb895b4	-0.090129286
